gnn_medium/siamese-gnn-fold-1_90.pt (torch, 227671 bytes, 26 tensors)

att_src f4 [1, 1, 96]
00000000: 8dc2 fc3d be22 6cbd ee5e 3f3b 29b3 003a
00000010: a45f 12be e41b c3bd b791 3c3d bdaf 72be
00000020: 4072 1539 ff26 3fbd 875e ffbc 69ad 39be
00000030: 363d 2a3e e6b8 70bd 8f73 413e b05f 293e
00000040: 526a 003e 6ebf 073e 5140 beba 83c8 753d
00000050: 87b3 c9bd efb0 adbd f22e b53d 0e4f 3bbd
00000060: b63a 293e 45f9 8bbd c7f2 16be 6d02 64bd
00000070: fe9c 51bc 6de0 883d d523 903b c581 103e
00000080: 2c47 a43c 0ebe 12be 80b7 073e 4983 3e3e
00000090: 0603 883c f1dd 973c 9fe5 10bd cfce 0b3d
000000a0: c121 42bc d9eb bf3d 2b45 fbbc 1c55 b53d
000000b0: 57b5 af3d 5c1e 443a a508 31be 60ba 3abd
000000c0: 0abd 253e f895 2ebe 67e0 b33b 9101 d4bd
000000d0: 8209 1abe 56d3 ea3d 352d cb3d a819 a2bc
000000e0: a633 873c 19c8 a23d 7eb3 e6bc 00fb 0a3e
000000f0: fb57 dabc 0b2f 583d f6f0 763d fd41 243a
00000100: 7cf1 85bd 1a41 0fbe 8054 bf39 53ef e73d
00000110: 854d 083e 31f7 e03d a566 aebd 8eba 973d
00000120: fee2 4f3c 968e aa3d 5d5e 853d 9c14 c33d
00000130: c70a e6bd b8a8 69be 7b41 83bd 0def 013e
00000140: a458 153e d7ce 6fbd 0b69 043d f135 1b3d
00000150: 0fdd 84bd 9f83 a23d 8f78 20be fb04 25bd
00000160: 4922 a8bd d43f 203e 7df4 d0bd f5bf 653d
00000170: 6b14 30be 1dca 983d 7710 4c3d 8412 b63d
0.12341795 -0.05765032 0.002920087 0.00049095094 -0.14294297 -0.09526804 0.046037402 -0.23699851
0.00014252309 -0.04666805 -0.031173004 -0.18132557 0.16624913 -0.058770083 0.18891738 0.16540408
0.12540558 0.13256618 -0.0014515017 0.060005676 -0.09848695 -0.08481013 0.08846845 -0.04572969
0.16526303 -0.06834654 -0.1474105 -0.055666376 -0.0127937775 0.06683431 0.0043988028 0.14112003
0.020053469 -0.14330313 0.13253593 0.18604769 0.016603004 0.018538447 -0.035375234 0.034132775
-0.011848868 0.09371156 -0.03067263 0.08854124 0.0857951 0.00074813305 -0.17288454 -0.045587897
0.16185394 -0.17049396 0.0054893973 -0.10351861 -0.1504269 0.114660904 0.09920732 -0.019787624
0.01650412 0.07948322 -0.02816176 0.13572311 -0.02665328 0.05277924 0.060288392 0.00062659365
-0.065402 -0.13989678 0.00036493316 0.11324944 0.13310821 0.10984648 -0.08515672 0.07408629
0.0126883965 0.08327977 0.06512139 0.09525415 -0.11232524 -0.22818267 -0.06408974 0.12688847
0.14584595 -0.058546867 0.03232674 0.03789324 -0.06487476 0.07935261 -0.1567099 -0.040287953
-0.082096644 0.15649348 -0.102028824 0.056091268 -0.17195289 0.07460425 0.04982039 0.0889025

att_dst f4 [1, 1, 96]
00000000: 82d3 993d fa3d dd3d d861 07be 32e9 3a3d
00000010: fa37 03be b7c0 923c c817 c2bc a4c9 e63d
00000020: cd98 76bc 6205 e23c 0523 de3c a915 9fbd
00000030: 24b0 d5bb d19f e13d 0421 603c 4819 b8bd
00000040: 0b85 82bc df7d 493d b84a 84be e65a 8d3d
00000050: 5710 0ebd 08a0 7bbd 403a d0bd aba3 103d
00000060: e07e 91bc 19f5 083e a88f b53d 5f76 b93c
00000070: 7291 7fbd c6a0 523d ec27 71bb ae3b 43be
00000080: cac3 a6bc 1b6e 6a3d c4e9 b3bd 3080 3cbe
00000090: 4678 973d 15ca 243d 603f 3e3d 63f4 203c
000000a0: d857 863d 98ba 843d 33b4 1c3e b539 e4bd
000000b0: d62f 53bd 1edd 633b f7b9 cd3d 1f2b 34bd
000000c0: 47ad f3bb f5f1 c7bb d061 b03d 3bdc 7bbe
000000d0: d564 e6bd dabd 893d a45f 9bbd 237c b9bc
000000e0: c0c6 64bd 6882 d33d d24e a43c 62ee 84bd
000000f0: fa3e be3d a72e 073c 8bde af3d 54ff 283d
00000100: c458 b2ba f02a 9a3d b437 c03d 8b4d 90bd
00000110: 631d cdbd 80da b43d 930c f73b 0f63 d43d
00000120: 4910 27be 2b03 043d 9403 2939 5c83 8ebd
00000130: e543 083e 9bbe 2ebd abc4 5c3d 4bfe 1ebc
00000140: a6fc 143c ea6b 073b 55eb 65bb e5fb 2b3d
00000150: 740e 773d 6605 7f3d ff88 6cbb 922a 8f3d
00000160: 5bb0 debc 5250 053d 99b9 723d cc95 7ebd
00000170: 5bf0 a13d 16e7 293e 3872 ea3d e859 523d
0.07511045 0.10802837 -0.13220918 0.04563255 -0.12814322 0.01791416 -0.02369298 0.11268929
-0.015051079 0.027590457 0.027116308 -0.07767803 -0.0065212417 0.11016811 0.013679747 -0.08989197
-0.01593258 0.049192306 -0.25838256 0.06902103 -0.03468355 -0.061431915 -0.1016736 0.035312336
-0.017760694 0.13374747 0.08865291 0.022639452 -0.062394567 0.051422857 -0.0036797477 -0.19065735
-0.020357031 0.05723391 -0.08784822 -0.18408275 0.07395987 0.040231783 0.046447158 0.009823891
0.065597236 0.064809024 0.15303116 -0.11143819 -0.05155929 0.0034769247 0.100452356 -0.043986436
-0.0074364278 -0.0061018416 0.08612406 -0.2459573 -0.11249701 0.067256644 -0.075866014 -0.0226422
-0.055853605 0.103276074 0.020057116 -0.064907804 0.092893556 0.008250869 0.085873686 0.041259125
-0.0013606776 0.07527721 0.093856245 -0.0704604 -0.10015371 0.08830738 0.0075393408 0.103704564
-0.16314806 0.032229584 0.00016118429 -0.069586486 0.1330715 -0.042662244 0.053898495 -0.009704183
0.009093439 0.0020663687 -0.0035082896 0.041988272 0.060316518 0.062261008 -0.0036092398 0.069905415
-0.027183702 0.032547303 0.05925903 -0.062154576 0.07907172 0.16592059 0.11447567 0.051355273

bias f4 [96]
00000000: 6a34 b13d 0000 0000 d6e1 a43c f1af cbba
00000010: 9fe8 ecbd 38b7 043e aec4 df3c 0465 653d
00000020: b405 67b9 0192 9dbd 392e 1a3e aefe 293d
00000030: 0000 0000 dc10 79bd 07e8 20bc 0ce2 603e
00000040: 0000 0000 1e37 16be 3fce c33a cad8 d4bd
00000050: 3842 ce3d 723e 2b81 0000 0000 f806 493d
00000060: 4bf9 433d ad51 343b ca98 723d 00d4 943d
00000070: 1e01 33bd f563 ab3b 8d7b 38bd a806 8abd
00000080: 963b 0fbc e5fc 9f3d 2b61 f2bb 47a8 1c3e
00000090: 4cfd 793c 867c 7dbb b776 f9bd e96b a6bd
000000a0: 8a1c 6e3c e135 c7bc 908f 8dbe 2a74 27be
000000b0: 664a 523b 8503 d2b9 9c1f 9cbc 4cfa c2bd
000000c0: 7886 e8bc 4f70 093e c094 0fb8 0000 0000
000000d0: 5191 47bc f00b 6dbd 93e9 dc3c 2c86 2d3e
000000e0: 0000 0000 883c 80bd bfc5 afbe 67cc 21bd
000000f0: 9222 e73d 9069 70bd 0e60 613d 3fc0 eab6
00000100: 4afe 753d 0000 0000 fccb bab9 a1c9 f2bd
00000110: 6cab 40ba 52bc 5fbd 19db f73c f5c0 1ebe
00000120: 0652 db3b a8f5 a8bc e3f3 7f3d 716b 963d
00000130: 976b ebba d2c6 083d 1dd1 f73b 3a9f 323e
00000140: 0527 903d c956 143c 8982 863d 644f b5a7
00000150: 7a9f a13d 7e54 b4bd 17f3 3d3e a41e 1ebe
00000160: 447c 723b 3b60 253e 870b 5ebc b9fb 85bd
00000170: 75b2 b5bb 29d7 94bc 5840 71bc ce34 e9bd
0.08652575 0.0 0.020127218 -0.0015540106 -0.115678065 0.12960517 0.027315464 0.05600454
-0.00022032001 -0.07693864 0.15056695 0.041502647 0.0 -0.060807094 -0.009820945 0.2196123
0.0 -0.14669463 0.0014938785 -0.10392912 0.10071224 -3.1452542e-38 0.0 0.04907891
0.047845166 0.0027514503 0.059227742 0.07266998 -0.043702237 0.0052304217 -0.045039702 -0.06739551
-0.008742234 0.07811908 -0.007396837 0.15298568 0.015258145 -0.0038678958 -0.12180846 -0.08126051
0.014533171 -0.024317684 -0.27648592 -0.16352907 0.0032087802 -0.00040056944 -0.019058041 -0.095203966
-0.028384432 0.13421749 -3.423239e-05 0.0 -0.012180642 -0.057872713 0.026966846 0.16945714
0.0 -0.062615454 -0.34330556 -0.039501574 0.11285891 -0.058694422 0.055023246 -6.996124e-06
0.060056962 0.0 -0.00035628665 -0.11854864 -0.00073497626 -0.054622956 0.030255841 -0.15503295
0.0066931276 -0.02062495 0.062488448 0.073447116 -0.0017961141 0.033392735 0.00756277 0.17443553
0.070386924 0.009053894 0.06567866 -5.0323667e-15 0.07891746 -0.08805178 0.18549763 -0.15441376
0.0037000338 0.1614999 -0.013552553 -0.06542153 -0.0055449554 -0.018169003 -0.014724813 -0.11387025

weight f4 [96, 10]
00000000: 5643 e83d 37d1 23bb 261f 82bc fb95 243d
00000010: 6e4c 09be c834 643e 0b7e 23be b381 db3c
00000020: 6ea6 61be 13f1 bcbc feeb 34be 1b81 0abe
00000030: dc4c 0dbe 1df3 cbbb 004b 30be bece 733e
00000040: d746 a7bc c0fd f6bd 588b 603d fc1b 5abd
00000050: 48c7 973d f9b5 1f3d 32fd 333e af70 72be
00000060: ad81 2ebd f177 e2bd a351 b3bd 508f 293e
00000070: d56a dd3d 6ede d3be fca9 1aba 6e1c a5bb
00000080: df3a 08bc 5813 05be 35ac 1e3e ab57 e1bd
00000090: f572 f03c c9b9 6fbd 7bd9 953d dad3 20bd
000000a0: 0388 a1bd b160 53be e100 193e 9d71 3a3d
000000b0: b8cf 603e 2b8d a8bd 83b9 2a3c eede 82be
000000c0: 7adf 32be 1b95 95be e2f0 09be 6d88 e3bc
000000d0: 5192 133e 16f9 4ebe 3576 0e3e 4cf2 083e
000000e0: 8f8c 1c3e cf3b a03d ae78 813e 81a9 bb3e
000000f0: 724c 243d 3222 f13c d263 0bbe 2148 4cbe
00000100: 8c81 103e 79ba 30bd f0c6 583e af5c 663e
00000110: 3df8 aebd a064 eabe 04ae 99bd e017 a93b
00000120: 28e4 0a3e 6a3c a2bd f7a9 673e 9381 293e
00000130: cae4 4abe 270c 60be 61c0 afbd 619a 97be
00000140: 593e 28bb 479a 173b e505 20bc 2306 27bd
00000150: 3e12 133d 8582 23bd da40 97bc 6781 1d3d
00000160: cec2 5ebd b000 c1bc 1bfb 693c 9f50 9abc
00000170: b9f3 913d 6df0 3bbe 36a3 e93c 48d6 1f3e
00000180: 1d70 023e cee2 aabc 9041 1a3b d5aa 553e
00000190: ee88 893d 58df 67bd 2a5f 523e 3d1b 55bd
000001a0: bdc1 593d 260a 193e ccd9 62be 720e 1abe
000001b0: 9dee e7be c704 aa3c d754 b73d 6f52 903d
000001c0: 9530 943d 3abd 163c 3707 29be 67ec 903c
000001d0: fabf d3bd 263b 213e eb80 4fbe 1314 e5bd
000001e0: 56da 283d 4b9c 65be b327 c4bd 2e07 11be
000001f0: 1698 a53d 35b0 d13d f422 18be e2dc 13be
00000200: 9ce6 aebd 5f11 393e 06e0 e73d 26eb 14be
00000210: 0115 76bd d4f6 1f3e 8992 33bc 1e41 27be
00000220: b100 9cbe fd6c e2bd b46c 313e 9e7a d7be
00000230: ffe8 173e 131e d1bd 28f9 cdbd 0296 b73d
00000240: fb16 c23d 47c8 aebd 5a5e 343e 507b 4e3e
00000250: 92ca eabd 9e8b 15be b6a6 43be 15cd 4cbe
00000260: aa76 6c3e 4170 a53d 8841 093e 42a3 443e
00000270: 2f35 883d 2777 bfbd 59fe 2ebe a613 503e
00000280: 2844 e9bd ecc4 433d f1e4 cebd 8cda 25be
00000290: 24b3 0c3d 46b3 9cbd 1356 b83d 135c 0fbe
000002a0: 4761 21be dd27 2bbc 60a4 01bd f263 ee3d
000002b0: 9348 9f3d c2c0 0cbe 0eaf 2b3e 55fc 3bbe
000002c0: ca0d 0e3e 01a0 df3c 61ab 90be a81b 2e3e
000002d0: e4bc c33d f423 aebd b5b0 6a3c e58d 25be
000002e0: 6502 1bbe 1e84 d9bd 2339 14bd e633 1d3e
000002f0: 834a 103e a206 01be 8360 963d bf8d 903d
00000300: 0d4e a1bd 9930 0b3c cbec f43d 2a5d 37bd
00000310: 1b90 2cbe fe1a aabb bc0e 91bd 2a2c 25bf
00000320: e4af 18be 7e02 183d 2b70 fa3d 4446 0b3d
00000330: f66f 04be f7bd ca3d ad7d 2c3d 79f2 763d
00000340: d9e5 bd3d 3809 09be b219 b5bd 9e0c d9bd
00000350: ed70 fc3d 2e9f d8bd 0ae0 4d3d 3503 d23d
00000360: d49e 093d 49ae 48be c847 3dbd 143f 683d
00000370: 4c02 43be 4054 10be 5d91 34bd 7c00 2dbc
00000380: d18a 65be d2d7 a73d 73f6 173e ac8a 15be
00000390: 224d ef3d 70a5 033d f76c f93d 64ae 9f3c
000003a0: dfc9 133d 676b 903d a32e 8bbe 68a8 8f3e
000003b0: 5d30 0bbe 3700 55be 5a04 133d cd3d 01bf
000003c0: 9494 3b3d e671 50bd afe8 083e 1b17 24be
000003d0: 5e76 ca3d 578c 5e3e b46e 6cbe 9c4d 903d
000003e0: 7231 83be 5e43 cabe ab3c 2b3e c26d 85bd
000003f0: 5001 2ebe 084e 0bbd a669 ecbd 5d48 e0bd
0.11340968 -0.0024996528 -0.015883993 0.040182095 -0.13408062 0.2228576 -0.1596605 0.026795244
-0.22036144 -0.023064172 -0.17668149 -0.13525812 -0.13798851 -0.0062240497 -0.1721611 0.23809335
-0.020419521 -0.12060118 0.05482039 -0.053249344 0.07411057 0.038991902 0.17577055 -0.23675798
-0.042604137 -0.11058033 -0.08755805 0.16558576 0.10811392 -0.41380638 -0.00058999634 -0.0050387895
-0.008314817 -0.1299566 0.1549538 -0.110030495 0.02935169 -0.058526788 0.07316872 -0.039264537
-0.0788727 -0.20642354 0.14941742 0.045518506 0.21954238 -0.08230051 0.010420206 -0.25560707
-0.17468062 -0.2921532 -0.13470796 -0.027775014 0.14411284 -0.20212206 0.1391228 0.13373679
0.15287994 0.078239076 0.25287384 0.3665276 0.040111966 0.02943525 -0.13612297 -0.1994939
0.14111918 -0.043146584 0.21169639 0.22496293 -0.085434414 -0.45779896 -0.07503894 0.005160317
0.13563597 -0.07921679 0.2262343 0.16553335 -0.19813839 -0.21879636 -0.08581615 -0.2960997
-0.0025671928 0.0023132728 -0.00976703 -0.040777337 0.03590607 -0.039919395 -0.01846354 0.038453486
-0.054385 -0.023559898 0.01428106 -0.018837271 0.071265645 -0.18353434 0.028520208 0.15609086
0.1273808 -0.020860102 0.0023537613 0.20865948 0.067155704 -0.05660948 0.20544115 -0.05202793
0.05316328 0.14945278 -0.22153395 -0.15044573 -0.45299235 0.020754231 0.08951729 0.07046973
0.07235829 0.009200389 -0.16506658 0.01769085 -0.10339351 0.1574522 -0.20264022 -0.111854695
0.041223846 -0.22422902 -0.095778845 -0.14162895 0.08085649 0.10238687 -0.14857084 -0.14439729
-0.08540079 0.18073033 0.11322026 -0.14542827 -0.060078625 0.15621501 -0.01096023 -0.16333434
-0.30469278 -0.11055944 0.17326623 -0.42085737 0.14834975 -0.10210814 -0.100572884 0.089641586
0.094770394 -0.085342936 0.17614117 0.20164227 -0.114644185 -0.14604041 -0.19106564 -0.20000108
0.23092142 0.08078051 0.13403904 0.19202903 0.06650769 -0.093488984 -0.17089213 0.20319995
-0.11389953 0.04779522 -0.10102261 -0.1619665 0.03435053 -0.07651381 0.09000792 -0.13999967
-0.15759765 -0.010446516 -0.0316509 0.11640157 0.07777514 -0.13745406 0.16765997 -0.18357976
0.13872448 0.027297975 -0.28255752 0.17002738 0.095575124 -0.08502951 0.014324357 -0.1616741
-0.15137632 -0.106209025 -0.036187302 0.15351829 0.14090924 -0.12600186 0.07342627 0.07058286
-0.07876215 0.008495473 0.11959227 -0.044766583 -0.16851847 -0.005191206 -0.070828885 -0.64520514
-0.14910847 0.03711175 0.122284256 0.034002557 -0.12933335 0.09899514 0.04211204 0.060289834
0.092723556 -0.13382423 -0.088427916 -0.1059811 0.123262264 -0.10577236 0.05026249 0.10254518
0.033598736 -0.19597735 -0.046211034 0.05670078 -0.19043845 -0.14094639 -0.04408394 -0.0105591975
-0.22416236 0.08195461 0.14840107 -0.1460368 0.11684634 0.032140195 0.121789865 0.019492336
0.03608119 0.07051735 -0.27184018 0.2805817 -0.13592668 -0.20800863 0.03589282 -0.50484926
0.045795992 -0.050889872 0.13370012 -0.16024439 0.09885858 0.21733223 -0.23089105 0.07046053
-0.2562366 -0.39504522 0.16722362 -0.06515075 -0.16992688 -0.034009963 -0.11543588 -0.10951302

att_src f4 [1, 1, 96]
00000000: 42d9 983c c72e d33a 76fb 723d 7a12 6bbd
00000010: 2c14 d13d c8ce b7bd cade 0f3b 1720 a23c
00000020: 76b7 293e 2d34 57bd 6302 bc3a 6557 00be
00000030: 46e0 833a 72e0 bf3d 57ad 9e3a cfe2 b13d
00000040: b6f4 783a f713 15be 7307 703d a4da 753d
00000050: 45fc 003e 696b 053c 6bce 523d 9d2b 2bbe
00000060: 2148 793b e502 6e3b a15f 4abe 1809 ffbd
00000070: a5ba 303a 6b32 443c 1efa 18be 2a42 d83d
00000080: 9d91 143c 73f3 25be 88d1 093e afd2 333e
00000090: d5b6 8f3d f246 94ba 3ca4 32be bc73 2bba
000000a0: 9636 6c3b e528 bc3b cec3 1b3e ae79 f9bc
000000b0: fc40 ed3c 8db8 893b 16f3 813d 139c de3a
000000c0: 8ab6 2c3e 5df3 083e 1599 143e 2ab2 9b3d
000000d0: 548d 37bd 64ef fcbc 72f3 f33d a24f 50bd
000000e0: b52f 0e3b 20a2 473c bdd0 15be d602 953d
000000f0: 212d a33d 41e1 1fbd a809 6ebd ba57 4e3d
00000100: aa94 313a 57df cf3b c624 6fbe c273 1bba
00000110: b0d7 0d3e 16d8 26ba be0d a9bc 292c 08bb
00000120: be10 90bd a4c3 083d e865 42be c0fa 7ebe
00000130: 96c8 a4ba 6e9a 1bba 8b2f 043e 32c2 ad3d
00000140: bbed 9ebd c8e1 6cb9 28c6 19bc 5085 9a3a
00000150: ed28 36bc 0e55 84bc 7822 5bbd 8223 a53c
00000160: d970 c1bc ca05 d8bd 23ba 0c3c 0115 0cbb
00000170: 2d9e 613d 0c63 033e 28ea 863c e2d7 d23c
0.018658284 0.0016111963 0.059321843 -0.057390667 0.102089256 -0.08974987 0.002195286 0.019790692
0.16573891 -0.052539993 0.0014343973 -0.12533338 0.0010061346 0.093689814 0.0012106103 0.086858384
0.0009496914 -0.14558397 0.058600854 0.060022965 0.12596233 0.008143284 0.051466387 -0.16715856
0.0038037377 0.0036317643 -0.19763042 -0.12452906 0.00067416794 0.011974911 -0.14939162 0.10559495
0.00906792 -0.1620615 0.13458836 0.17560838 0.07017294 -0.0011312647 -0.17445463 -0.0006540378
0.0036043278 0.0057421797 0.15211412 -0.03045353 0.028961651 0.0042029084 0.06345193 0.001698377
0.16866508 0.13374086 0.14511521 0.076023415 -0.044812515 -0.03087587 0.11911668 -0.050857194
0.0021695916 0.01218465 -0.14630409 0.072759315 0.07967592 -0.03903318 -0.058114678 0.05037663
0.0006774167 0.006343763 -0.23353872 -0.000593003 0.1385181 -0.0006364597 -0.020636436 -0.0020778275
-0.07034443 0.033389702 -0.18984187 -0.24900341 -0.0012571986 -0.00059357926 0.12908761 0.084843054
-0.07760187 -0.00022590824 -0.009385623 0.0011788998 -0.011118156 -0.016153838 -0.05349967 0.020158533
-0.02361338 -0.10547979 0.0085893 -0.0021374824 0.05508249 0.12830752 0.016469076 0.025737707

att_dst f4 [1, 1, 96]
00000000: a2f3 b9bb 5c8f 953a 4238 a2ba ae1d cdb8
00000010: dc35 1b3a 50af 8fb6 ac16 e4b7 f92a c4ba
00000020: 1dc2 b3bb 2036 5aba 80ba 963c 51a8 1b39
00000030: dfd9 8c3a 3a0e 5f39 5cc7 5738 cd44 bdba
00000040: 9db4 473b e57e c83c a0d3 00ba 1866 c53a
00000050: 2876 5bb9 70fb 3b3d b316 973c ee3d 583b
00000060: 6b46 2d39 0fce f1ba fb00 5eb9 6bfa 24bc
00000070: 51fc 133b 0061 8436 2645 0039 4ca2 c0b8
00000080: 952d 163b 9c23 193b cc93 05bd b903 29bb
00000090: ac7c c836 b176 2136 d243 acbb 6571 a8b8
000000a0: 5482 8536 3366 afb7 d053 3cbb 44f4 dfba
000000b0: d671 88b8 fa11 5d39 9d3c ecb6 4314 1839
000000c0: 65ac 19bb a8e7 9739 a0d0 47b8 e8c4 3b3a
000000d0: a171 6fb6 1c64 23bc b315 98b4 30a8 84b4
000000e0: e80e 3ab8 c0de 67b8 8976 2c3a da59 4db9
000000f0: ef37 3139 164f a9ba e5dc e439 2a2c 8938
00000100: 238e 4539 5631 21b8 c9cc 943a b8d4 68b6
00000110: b60b 003c 7fbc 3e3a e3d8 29b4 6cdc b73a
00000120: eeb4 0a3c 451e 4b3b 572b dd3a b3da cfb5
00000130: 0af5 263b 5be2 bcba 0c9e 2cba 5a05 a738
00000140: 42dd 07bb e0f0 853b e0a3 a739 63f7 dd3a
00000150: 2069 9c3b 5e7a 47b9 7bce 0bbb b3e0 a6b4
00000160: ef9e b83b 9208 3db9 e0fa 823c 7027 643c
00000170: 9b16 82bc 4ee3 c237 6358 1134 a4a0 1ebc
-0.0056747952 0.0011410522 -0.0012376385 -9.78069e-05 0.00059208064 -4.282141e-06 -2.7190275e-05 -0.001496642
-0.0054857866 -0.00083241053 0.018399477 0.00014844655 0.0010746083 0.00021272237 5.1445662e-05 -0.001444006
0.0030472644 0.02447457 -0.0004914347 0.0015060334 -0.00020929484 0.045894086 0.018443441 0.0032995897
0.00016524798 -0.0018448251 -0.00021171935 -0.01006947 0.0022580812 3.945199e-06 0.00012232791 -9.1855036e-05
0.0022915353 0.0023367172 -0.032611653 -0.0025789572 5.974978e-06 2.4059957e-06 -0.0052571082 -8.0319856e-05
3.978881e-06 -2.0909216e-05 -0.002873648 -0.0017086347 -6.506189e-05 0.00021082899 -7.0404044e-06 0.00014503398
-0.0023448702 0.00028973562 -4.7639594e-05 0.0007162825 -3.5679916e-06 -0.009972598 -2.8327995e-07 -2.4709288e-07
-4.435974e-05 -5.5282144e-05 0.00065789424 -0.00019583796 0.00016900872 -0.0012917246 0.00043652128 6.540895e-05
0.00018840334 -3.843134e-05 0.0011352535 -3.4694513e-06 0.007815292 0.0007276013 -1.5818254e-07 0.0014027483
0.008465989 0.0030993384 0.0016873878 -1.5486352e-06 0.0025475645 -0.0014410721 -0.000658483 7.964177e-05
-0.0020731245 0.0040875524 0.0003197482 0.0016934689 0.004773274 -0.00019023704 -0.0021332789 -3.10834e-07
0.0056341807 -0.00018027637 0.015988767 0.013925418 -0.01587992 2.323245e-05 1.3536332e-07 -0.009681854

bias f4 [96]
00000000: 4e1c c43d 0000 0000 0000 0000 5aaf 2b3e
00000010: b6e1 0c81 42e5 8fbd ee58 85b5 c5bb adbd
00000020: 93c4 ab80 745b 75bc 2356 81b3 9a76 24be
00000030: 56f1 f0a7 9997 0b3d 1385 35ba 8099 8bbd
00000040: 720a caad 1aa7 8e3d 248b a23d a187 a63e
00000050: 3bf4 23bd 0000 0000 0000 0000 b459 8e3d
00000060: b367 2eba 861a 02bb c938 00be e313 033e
00000070: 7d28 cbb7 b904 7abc 8382 4ebd ebc8 87bd
00000080: 13eb 8dbd dd7c f4bd 847c dc00 0429 50bd
00000090: 3855 303d f967 1ba9 5303 06bd 9f74 78bd
000000a0: 662b 57b5 9f30 c6ba 79ab 35bb 2826 113e
000000b0: fc5e c495 9a3e c3b4 9d8e 953d 0338 5900
000000c0: 549e dfbd b9b5 2c3d 2ae7 2e3b 6649 5381
000000d0: 30ff 28bd 0eff b53c b7cb 38be ba8e f33d
000000e0: de61 8c81 1a3d 483d 3720 603d 2743 208e
000000f0: f613 6cbe 98ff 4fbd 90a9 a13d 0479 08be
00000100: f32a f880 f622 9680 558d 9a3c ee7b 37b8
00000110: b064 4bbd 998a d6ae 3fc7 1c3e 8373 9eb9
00000120: 118d c2bb 007c 023e 4e6a 95bd 7287 3ebb
00000130: 391c bfba 1bf2 85ba b6f0 86bc baa9 b03d
00000140: 3a74 82bd d1ee b038 50e8 20bc 642d 39b3
00000150: 782e 533e f665 af3a 6631 e6bc d4f7 6d3e
00000160: c0ed 30be c607 613e 4df3 16bb d7b5 22bb
00000170: 7100 4d3d 8d6a 723e 2c64 0438 f0da 163d
0.09575711 0.0 0.0 0.1676611 -2.5875879e-38 -0.07026149 -9.935154e-07 -0.0848308
-1.5774387e-38 -0.014975417 -6.022699e-08 -0.16060868 -6.687504e-15 0.03408012 -0.00069244317 -0.06816387
-2.296938e-11 0.06965466 0.07936695 0.32525352 -0.04002784 0.0 0.0 0.06950703
-0.00066530256 -0.0019852235 -0.12521662 0.12800555 -2.421834e-05 -0.015259915 -0.050417434 -0.06630119
-0.069296025 -0.11937878 2.0248477e-38 -0.050820366 0.04305002 -3.4507096e-14 -0.032718014 -0.060658094
-8.0156894e-07 -0.0015120691 -0.0027720614 0.14174712 -7.931363e-26 -3.636713e-07 0.07302592 8.193452e-39
-0.109188706 0.04216549 0.0026688077 -3.880724e-38 -0.04125899 0.022216346 -0.18046461 0.11892457
-5.156831e-38 0.048886396 0.054718222 -1.9753855e-30 -0.2305449 -0.050780863 0.078936696 -0.13327414
-2.279061e-38 -1.3787866e-38 0.01886622 -4.374602e-05 -0.04965657 -9.756213e-11 0.15310381 -0.0003022217
-0.0059372266 0.12742615 -0.07295667 -0.002907243 -0.0014580555 -0.0010219248 -0.016472202 0.08626123
-0.06369825 8.436817e-05 -0.009821013 -4.311495e-08 0.20623195 0.0013381827 -0.028099727 0.2323907
-0.17278194 0.21975622 -0.0023033202 -0.0024827623 0.05004925 0.23673458 3.1564545e-05 0.03682989

weight f4 [96, 96]
00000000: b9ea 103d c0a2 2e81 09f8 1ebe 4bd2 57bd
00000010: e0c4 2cbe cabb a93d a80f 96bd 9da4 e3bd
00000020: 9a58 363c 0360 a33d 1c3d ac3d c663 e43c
00000030: 6701 0d00 3bb8 ff3d 8f78 2abd 6cca 053e
00000040: 34f2 4c01 2a23 82bc f39c 0abd e5c1 bbbd
00000050: aced fb3c d797 2b80 509f b480 dad4 dbbd
00000060: cd2e 68be 787d 7f3d a654 9fbd b774 7a3d
00000070: d64c 213e 6b46 2abd c5a2 0c3e 17ec dcbd
00000080: 2664 29be 7014 1c3c 1f36 63bd d6f2 8abd
00000090: b08d 283e 453d 35bc 7b60 6e3e 056e 193e
000000a0: 73dc a43d 4d00 853d b394 bfbd 06f7 d83c
000000b0: bd2e 883d 0e1c 6dbc 01bc 69be 3a29 93bc
000000c0: 148f 823e 470c da3d 2bd7 05be 3e91 8781
000000d0: 88e0 0a3e 3683 c2bd ecc4 ccbd 33ad 013e
000000e0: 0027 1101 576d a03d 126a 0a3e 92f4 1dbd
000000f0: 6801 c33d 3faf 67be b47a 1c3e 939b b8bc
00000100: 8222 3abe 26cb 3900 7e6d 6fbc 6f99 5abe
00000110: b7aa f83c 69c0 49be 76ea 323e d99b a6bd
00000120: 9bd1 0dbd 1e5b 113e 4677 903e 35e4 dc3d
00000130: 9ca1 2cbe 406f 8d3c cea1 11be 4187 393e
00000140: 5fd9 c93b ec45 5bbe d347 423e 8ec7 40b8
00000150: 2bca f83d 2fff d9bd c259 553e 0404 833c
00000160: 7dd7 0abe 3f49 1dbe cd47 2d3e 55aa 193e
00000170: 89cb 04be 9f54 4e3d c94c 5a3d a6eb ecbd
00000180: 36b4 9cbc ae63 1b81 56fa 14bb c169 a227
00000190: 4ebc 5f3a 4f45 8ebc 28b7 8c3a b5e4 183c
000001a0: 3e1b 2e8e ed3e 11bb 61ba 1ebc 1428 b83c
000001b0: 1489 6d01 62ae b03b 8ec9 d3bc 39d0 c4bc
000001c0: 1c74 be81 ee2d af3b 22b1 5dbb 601e d53b
000001d0: ddd0 cfbb 1856 5b01 0a11 8e81 1c35 1e3d
000001e0: 1657 883b 161a fa39 3ee4 b23a b7fe 6b3c
000001f0: 22e9 873b 164e ab3c 0105 9e3c 5540 60bb
00000200: f7b7 9b3c 61ad 38bb 32bb 32bc ec77 eabb
00000210: 54a0 aaba 62e0 fc28 cb85 f6bb 3899 e0bc
00000220: 4878 243c 1a59 d43a 4928 07bd f33f 573c
00000230: e2f0 203b fe19 8c01 d2cc 97bb 4ee8 16bd
00000240: cb8c 87bc ce77 c5bc ab3e abbb b350 7401
00000250: 5f83 c8ba 1b1b 38bd 7bb9 003c 4c81 92bc
00000260: 8f57 a601 1bc6 103d 6ced da3c c3ae be3b
00000270: 833a 90bb 58eb 2a39 e127 1ebd 3547 bd96
00000280: 3710 45bb 0761 5a01 46ab e938 61e7 0cbc
00000290: 20b4 f8b9 3768 94bc ee23 05bd 6022 b9ba
000002a0: babd 533b 5182 88bc 75f0 d8ba f37d 08bb
000002b0: 1855 0fbd 1ae6 36bc 7ccb d4bb bc48 1f3c
000002c0: 523c f1ba b532 ad3b 6e69 83bc 550f 8fa6
000002d0: e0ee 9c3c 804e 633c 9329 7cbc bac6 933c
000002e0: 0e72 edbb cc70 0bbc 240c 733c 19e3 e9bc
000002f0: f3df 82bb 9e0f f0bc ed12 ff3c 4f98 e23c
00000300: 319e d4bd 4f84 2880 422f 4e3d 39ac 8b38
00000310: eb5e 8a3d 5bce bbbd 8d90 c0bd 6ffe d5bd
00000320: 89fe 01b8 4c59 1a3d 589c 873d 92e3 ec3d
00000330: 823e 8601 a3c2 953d 0c1b c03b 2c55 a2bd
00000340: 7e10 9581 2cc8 6ebd 7e3a 90bc 9123 0c3b
00000350: cb9d 653d 22dd 0a81 9ce6 b401 3295 973d
00000360: fdaf 463c 9840 a7bb 9de7 30bd 5321 10be
00000370: 6082 1bbe 191f 413d 9b47 ef3c d53f 263c
00000380: 3b6d d6bd 1353 cd3c 697d d43b 4f43 99bd
00000390: d54b 133c 7665 873b de0b 7cbd f1fc 8c3d
000003a0: 8eb1 723d 415f 2c3b 5b96 653d dbca 0bbe
000003b0: fba7 2b3b 1a51 7fae 6cd9 9f3b 0b8e 983d
000003c0: 7030 bdbd 60dc c33c ebcc 90bc 2ac5 ab80
000003d0: 240b 0f3d 3096 78bd 1083 19be 20e3 53bd
000003e0: 986c 5681 a19c 9f3b 45d5 e8bd fbb8 c9bc
000003f0: cb78 3abc df42 81bc 55d0 14be a527 05ae
0.0353801 -3.207552e-38 -0.15524305 -0.052690785 -0.16871977 0.08287771 -0.07327205 -0.11115382
0.011129523 0.07977297 0.08410093 0.027879607 1.194365e-39 0.12486311 -0.04161888 0.13065499
3.7642655e-38 -0.015885908 -0.033841085 -0.09167842 0.03075298 -4.003396e-39 -1.658754e-38 -0.107339576
-0.22674103 0.062375516 -0.07779817 0.061146464 0.15751967 -0.041571062 0.13733967 -0.10787218
-0.1654211 0.009526357 -0.055471536 -0.067845985 0.164603 -0.011061971 0.23278992 0.14983375
0.0804986 0.06494198 -0.09354534 0.026484977 0.066495396 -0.014472021 -0.22825624 -0.017963994
0.25499785 0.10646873 -0.13070361 -4.979958e-38 0.13562214 -0.09497683 -0.09998497 0.12663727
2.6660275e-38 0.07833355 0.13517025 -0.03856332 0.095217526 -0.22625445 0.15281183 -0.022535121
-0.18177226 5.307499e-39 -0.014613507 -0.21347593 0.03035484 -0.19702305 0.17472252 -0.08135194
-0.034623723 0.14194915 0.28215998 0.107857145 -0.16858524 0.017264962 -0.1422188 0.18118002
0.006159946 -0.21413392 0.18972711 -4.5962217e-05 0.121479355 -0.106443755 0.20835021 0.015993126
-0.13558765 -0.15359972 0.16921921 0.15006383 -0.12968268 0.05037367 0.053295884 -0.11568384
-0.0191289 -2.854052e-38 -0.002273222 4.507869e-15 0.00085348345 -0.017367033 0.0010735737 0.009331872
-2.1460272e-30 -0.002216275 -0.009687991 0.022480048 4.3628374e-38 0.005391882 -0.025852945 -0.02402507
-6.9961586e-38 0.0053460514 -0.0033827503 0.006503865 -0.006342037 4.0285717e-38 -5.218701e-38 0.038624868
0.004160772 0.0004770315 0.0013648344 0.0144039905 0.0041476646 0.020911258 0.019289495 -0.0034218032
0.01900862 -0.0028179514 -0.010908889 -0.007155409 -0.0013017752 2.807493e-14 -0.0075232736 -0.02741681
0.010038443 0.0016200871 -0.032997403 0.013137805 0.002455764 5.1465175e-38 -0.004632571 -0.036842637
-0.016546628 -0.024104979 -0.0052259765 4.487362e-38 -0.0015297941 -0.044947725 0.007856722 -0.01788392
6.110441e-38 0.035345178 0.02672454 0.005819173 -0.0044015064 0.00016300136 -0.03861225 -3.0579535e-25
-0.003006948 4.010989e-38 0.00011142208 -0.008600087 -0.0004743645 -0.0181161 -0.03250497 -0.0014124624
0.003230913 -0.016663702 -0.0016551154 -0.0020827025 -0.03499326 -0.011163259 -0.006493984 0.009721931
-0.0018404818 0.0052855858 -0.016041484 -9.926774e-16 0.019156873 0.013873696 -0.015390771 0.018039096
-0.0072462624 -0.00851078 0.0148344375 -0.028550671 -0.003993982 -0.029304322 0.031136954 0.027660517
-0.10381735 -3.720883e-39 0.050338037 6.6601155e-05 0.067563854 -0.091702186 -0.09402571 -0.1044892
-3.099305e-05 0.037682816 0.06621617 0.11566843 4.931352e-38 0.07312515 0.0058625992 -0.079264015
-5.475762e-38 -0.058296368 -0.017606016 0.0021383504 0.056058686 -2.5505252e-38 6.6452465e-38 0.074015036
0.01212692 -0.0051041357 -0.043189634 -0.14075212 -0.15186453 0.047148798 0.029208949 0.010147055
-0.10470053 0.025064027 0.0064846766 -0.07483541 0.008990248 0.004131968 -0.061534755 0.06884182
0.05925136 0.0026301893 0.056051593 -0.13651602 0.0026192653 -5.805232e-11 0.0048782136 0.074489675
-0.09237754 0.023908794 -0.017675838 -1.5774599e-38 0.034922734 -0.060690105 -0.14991403 -0.051730275
-3.9383505e-38 0.0048709665 -0.11368803 -0.024624338 -0.011381338 -0.015778957 -0.14532597 -3.027591e-11

att_src f4 [1, 1, 96]
00000000: 4f9d e03d 3649 ad3d 7509 c7bd bee7 d9bd
00000010: 4f83 28be 9fad 70bd 38cb 08bd 7dce 013e
00000020: 0de0 8e3d 7857 743d 96b0 963d 6793 183e
00000030: dd05 2ebc b3fe a9bd db6b 873d e719 92bd
00000040: b461 d3bc 2126 bf3d f290 b3b9 d1d4 0a3d
00000050: 8a5a 833d 9862 a43d 53d5 7d3d 591f bf3d
00000060: 1ad0 2d3b 3c8e 96bd 86ea b53d bab1 263e
00000070: a0e5 da3d ff10 64bd 97b6 c1bd fe9d c43d
00000080: 172c dcbd ba30 3d3d 93c0 f43c b9f9 853d
00000090: 4b3f 01be b8ea 12bc f259 bbbd 3eb7 9dba
000000a0: a111 08be c51a 8c3b 4a02 173e ccf6 b43b
000000b0: 0b4b 40bc 7a10 d03d 9a55 b5bd edcd 07be
000000c0: 472d 9b3d e80e 193e 8259 d9ba dd49 91bd
000000d0: 7d6d 693d 1488 7d3d 834d 283b ce81 4dbd
000000e0: 964c a03c 2f10 923c cdaa f93d 59ae 21bc
000000f0: f756 f83d 8d99 723b fa34 a83d 446b 60bc
00000100: d562 56be 6e6e 0bbe 2edf 1cbe d362 9e3d
00000110: 2774 903d d048 ef3a f8c9 ca3d 6035 c03d
00000120: c7fb c03d 900d a5bd d392 4c3e 8454 263d
00000130: 9b49 80bd 6822 dabd bc17 cebd f337 3abd
00000140: eea2 4abe 6cbd e33d d72a dd3d 8a69 a63c
00000150: 550b 393a 17ef eabd c6c7 d4bc 570f 2e39
00000160: 4352 a4bd 0291 a0bd fb72 433d 014c be3a
00000170: a7fc 44bc 583a 673c 9984 7b3c 84a1 e23b
0.10967504 0.084612295 -0.09718601 -0.106399044 -0.1645634 -0.058759328 -0.03339693 0.12676425
0.06976328 0.05965373 0.073579 0.1489998 -0.010621515 -0.08300533 0.06612369 -0.07133847
-0.025803424 0.093334444 -0.00034249533 0.033894364 0.06413753 0.08026618 0.06197102 0.09332151
0.0026521743 -0.07351348 0.088826224 0.16278735 0.10688329 -0.05568027 -0.094586544 0.09600447
-0.10750597 0.046189047 0.029876983 0.065417714 -0.126218 -0.008967094 -0.09148015 -0.001203276
-0.13287975 0.004275652 0.14746967 0.0055225845 -0.011736642 0.10159393 -0.08854218 -0.13262148
0.07576995 0.14947093 -0.0016582462 -0.070941664 0.05698918 0.061897352 0.0025680966 -0.05017262
0.019567769 0.017829983 0.12190781 -0.009868228 0.12125962 0.0037017793 0.082132295 -0.013697449
-0.20936139 -0.13616344 -0.15319511 0.07733693 0.07053404 0.0018255953 0.09901804 0.093851805
0.09423023 -0.080592275 0.19977884 0.040607944 -0.06264039 -0.10651094 -0.10063121 -0.045463514
-0.19788715 0.11120114 0.10799187 0.020313997 0.00070588785 -0.11471384 -0.025974166 0.00016599648
-0.08023503 -0.07840158 0.047717076 0.00145185 -0.012023128 0.014113031 0.015351438 0.006916227

att_dst f4 [1, 1, 96]
00000000: 9930 64bc 5a62 643c c416 4bbc a3db 2a3e
00000010: 40a8 0b3c c766 01bd 8959 fe3d b244 5cbc
00000020: 62a9 af3c 1840 d13b fce5 3b3b d7d9 acbc
00000030: cf02 3b3d cd81 973b 36aa 48bd bbc6 02bc
00000040: 349f 91bc 435e 973d 9a2d 7fbc 0d85 0cbc
00000050: 4790 e1bc 692c 8ebc 18c2 1dbd 5b8a 41bc
00000060: 412d 1d3d b2a6 1dbd c6c4 ba3c 3c5b 0dbd
00000070: 7b9c 503d da89 d73b bafe 943d b9b7 5fbc
00000080: 1dec 843c 6abe 753c 4655 613d 50af 8ebd
00000090: f9c5 0ebc 703b 5b3d 203f a13d b963 f53d
000000a0: e39c 26bd cae4 a2bc 528f 00bd 1b11 69bc
000000b0: 764a 01bd fd97 e63c 42cd 5dbc b67f 8a3d
000000c0: 8c9d 3bbd 448f 973d c8d2 703d 7f77 07bd
000000d0: ef96 5f3d fbeb 043d a4ed e93c 7149 9e3d
000000e0: 773e 0c3d e8c2 8abd 782d d9ba 2699 adbc
000000f0: 5aae 363d 5490 8b3c e81d acba 07b5 54bc
00000100: 8984 aabc 7a64 d33b 08d9 56bd a58a a83d
00000110: 27bf 0bbd 0e7f 613c 8a01 053d 0e96 773c
00000120: e39b a33b 1013 64bd 76b8 443a 43a9 23bd
00000130: a82d 42bd 792e e2bc 7ff1 593d 249d fd3d
00000140: 44c8 5f3c 8019 fabc 4613 78bc 8251 c53c
00000150: f0e6 633d c49e 8c3d 10c4 d4bd 1e52 243c
00000160: eb46 fb3c 284f 113e 347e 883b 0cef cc3c
00000170: c6f0 febb 9651 573d e55d 503c 084e 843d
-0.013927602 0.013939464 -0.0123955645 0.16685347 0.008524001 -0.031592157 0.12419421 -0.013444113
0.021443073 0.0063858144 0.0028671017 -0.021099968 0.045656975 0.0046236278 -0.04899045 -0.007981951
-0.01777611 0.07391026 -0.015574837 -0.008576644 -0.027534617 -0.01735516 -0.03851518 -0.011812772
0.038373236 -0.03848905 0.022798907 -0.034510836 0.05093048 0.0065777125 0.07275148 -0.013654643
0.016225869 0.0149990115 0.055012964 -0.06967032 -0.008714193 0.05352348 0.07873368 0.11981911
-0.040676963 -0.019884486 -0.03138668 -0.01422527 -0.031565152 0.028148646 -0.013537707 0.0676264
-0.045804545 0.074003726 0.058794767 -0.033072945 0.0545873 0.03245161 0.028555699 0.077288516
0.03423926 -0.06775457 -0.0016569337 -0.02119119 0.04459987 0.017036594 -0.0013131471 -0.012982613
-0.02081515 0.0064511867 -0.05245307 0.08229569 -0.034117844 0.013763202 0.03247217 0.015111459
0.0049929484 -0.055682242 0.00075042935 -0.039956342 -0.047406822 -0.02761005 0.053208824 0.12383488
0.013658587 -0.030529737 -0.015141314 0.024086718 0.05564016 0.0686622 -0.103889585 0.010029344
0.030673465 0.14190352 0.004165435 0.02501633 -0.0077801673 0.05256804 0.012717699 0.06460196

bias f4 [96]
00000000: 66ee debd e053 eabc 0584 6bbd 3bba 22bd
00000010: c037 cabd 2585 2a3e 4cdd 7480 9e97 063e
00000020: 9734 d1bb e1e0 c23e 0056 b93c 8a6f dc3c
00000030: c8cf 4bbe 1ca2 b1bc e235 533e 4dca 81bd
00000040: 9445 05bb 87aa 8bbd 0117 18bc 7b88 043e
00000050: 082d 833d ad6f 05be 4451 423d 8319 3a3c
00000060: eb9b ebb7 f538 503e 3a13 853e 7d95 d1bc
00000070: dbc3 de3c d864 de3c c9ac 62bb 2871 6b3e
00000080: aa1d 053d e1fd 8e3b 31dd df3c 3395 633e
00000090: 610c c3bd 8e3f 8d3c 0184 6312 2be6 5bbc
000000a0: e31e 163d 46ee cdbc 2cc6 2e3e 28f3 6fb9
000000b0: 78e3 843e 3d54 83bd c62f 7a3e 5b16 1a3e
000000c0: e8d5 0b3d ec2f 96bd 02a6 973d dce0 6f3c
000000d0: bb72 d2bc 49c7 a4bc 72e8 4eb8 3ac8 22be
000000e0: 2908 29bd 03f1 0c3e 1749 d53e bf17 01be
000000f0: 2550 873e 96f1 a9b4 e1a4 13be 2243 5ebd
00000100: 5d40 aebb 50e9 543e eac5 b3bc da3f 083e
00000110: 96b8 ff3c de4d b8b7 3677 05be d654 e43b
00000120: 5736 683c a969 383e 9a4f 88bd bd1a edba
00000130: cd4f 2e3e ecbb 68be 0f98 be3b 8e79 2c00
00000140: 345e 05bb 8853 a63d 6f05 83be ffcd cbbc
00000150: 84b6 f9bb 714a 4a3e 5a92 73bd 8fce 6a39
00000160: 9e0c b8bc e802 e400 dd13 ecbd 1c2c 0c3c
00000170: 1063 c33b 43ee f5bc 4f9d 6dbb 7d3d 9cbd
-0.10885315 -0.028604448 -0.05749895 -0.039728384 -0.09873915 0.16652353 -1.0732304e-38 0.13143775
-0.006384443 0.38062194 0.022624016 0.026908655 -0.19903481 -0.021683745 0.20626023 -0.06337414
-0.0020335661 -0.06819635 -0.009282828 0.12942688 0.064050734 -0.13030882 0.047440782 0.0113586215
-2.8086788e-05 0.20334227 0.2599123 -0.025583977 0.027193 0.027147695 -0.0034587851 0.22992384
0.032498993 0.004363761 0.027327152 0.22224884 -0.095238455 0.01724222 7.1791278e-28 -0.013421576
0.03665055 -0.025138032 0.17067784 -0.00022883399 0.25954795 -0.064125516 0.24432287 0.1504759
0.034139544 -0.07333359 0.0740471 0.014641013 -0.025689473 -0.020114558 -4.933071e-05 -0.15896693
-0.041267548 0.13763814 0.41657326 -0.12606715 0.26428333 -3.165448e-07 -0.14418365 -0.05426324
-0.0053177313 0.20792127 -0.021944959 0.13305607 0.031215947 -2.1970769e-05 -0.13033757 0.006968121
0.014173112 0.18009056 -0.06655808 -0.0018089634 0.17022629 -0.22727937 0.0058164666 4.084367e-39
-0.002035034 0.08121401 -0.25590083 -0.0248785 -0.0076206345 0.1975496 -0.059465744 0.00022392928
-0.022466954 2.0939536e-38 -0.11527226 0.008555438 0.005962737 -0.030020839 -0.0036257093 -0.076289155

weight f4 [96, 96]
00000000: fea8 d13d e048 2f01 6049 4e01 ccd4 2cbe
00000010: 3285 a081 14a5 8a3d e750 4cbd 1217 25be
00000020: 1c22 2981 6221 bfbd 1bbd 21bc 2f26 96bc
00000030: da7c a83b 0188 56bd 98a7 493c 67b2 d33c
00000040: 65ef 9b39 c970 a53d 021a 883b 27e6 9dbd
00000050: 8deb 1e3d 7253 2900 fb4a 5f00 2509 0b3e
00000060: af5c 57bc e27c 08bb 6c2b 16be 49dd acbd
00000070: d643 653c e96d 523d 5189 263e 24e8 673d
00000080: 382a 0b3d 3659 f23d dd23 c081 c836 613e
00000090: cb0d 5cbd b326 6939 2f87 a6bd a1e2 773d
000000a0: 9688 fd3a c87b 02bd 0815 1bbd add6 27bd
000000b0: 1569 5880 86e6 f03a 8376 78bd f6d8 40ae
000000c0: 1b08 573e 96fc b03d 97c3 353d 59e8 1b81
000000d0: 161c 3abe 7026 ae3d 98cb 133d c1f8 38bb
000000e0: fbb5 4100 64be 1e3e 2546 9dbd 18f9 f3b2
000000f0: 3c02 003c aa27 703d 2d7d 1e3e dbcd 773e
00000100: 51d0 1001 4412 9681 2788 413e 3ba6 1eba
00000110: ca7e b83d 3b32 16bb da25 0fbd 97ff 68bb
00000120: a5c0 1c3d cf06 133e 2112 c9bd d743 5dbd
00000130: 096f 3d3b 28f5 1abc 1eae e8be 895b c13d
00000140: 6766 0dbd 965f 8aba 9119 fe3b 06a1 c63b
00000150: 425b 4d3b ead3 8a3a 10e6 c03d cb8b 823d
00000160: b8f3 91bd 8f78 01be d1aa aa3b 483f a0ba
00000170: 7792 cb3c aed4 02bd 870c 453b 01fd 29bd
00000180: 8cad 70bd b423 a381 54b6 9281 0740 283e
00000190: 7912 c780 553e d03d 9d75 e23c 4ed5 28bd
000001a0: 4c7c 969f 8871 763d f127 d43c bc4b 0b3e
000001b0: 78b1 83bc a934 2dbe a76e 57bb bd40 0d3e
000001c0: 6441 f537 13bd 00be 70af a1bd b2ae 38be
000001d0: 6f1d b1bc b54b 2d80 63da c980 2244 9fbc
000001e0: 030d 813c 154a 983b 9d77 3fbd cac3 053e
000001f0: 5ac0 193c eeca 09bd ef39 053c 76ed 94bd
00000200: 75bf 12bb dfd2 1abb 786f eb80 63df d53d
00000210: 70eb d7bc 2e30 e835 e3e4 84bd b04f ddbb
00000220: 9845 fdb3 460a a43c ddc3 50bd c6d9 463d
00000230: 2c8c c50d eb69 fe3a da42 46be bd35 7d80
00000240: 1a52 153e 5bd7 483e 233b de3b ff4f ef14
00000250: b89e 7fbd 1518 30bb aaa5 723b cc18 14be
00000260: 8bd3 8781 400b 88bc 583e 0abe 709a eb28
00000270: a838 9dbd 592f c03d 80e7 cd3c 09e3 8d3c
00000280: 6c8b 3e80 d963 f280 12f5 863c bd14 9fb8
00000290: d08d 033c 2686 e1b8 74b9 23be 29a7 1ebb
000002a0: 7252 91bd e080 86bd d5a5 43bd 4c7d c9bd
000002b0: 5beb 623a d703 a0b8 6051 a539 89d5 873e
000002c0: f1dd 663c 0728 5d36 a096 563c 0cca 25bd
000002d0: 6265 8cbe 90d7 85bc 4c09 713e 445f d7bd
000002e0: 8d9b 953d c2fd 27be 5465 1fbd 51a9 14bb
000002f0: 1ff9 00bd 1f42 65bd 1375 3f36 1f1a 1ebc
00000300: afef 1fbe fcaf 2701 6371 8101 7833 e43d
00000310: e698 1180 6401 da3c d266 e43c 4609 103e
00000320: e218 76a2 5eb6 acbd f01e d3bb 9e90 6dbd
00000330: 2438 1bbb 7788 e8bd fd52 c4bb f2a9 0e3d
00000340: 930b 7ebb 0861 fb3d f52e db3d 0b7e b3bd
00000350: d068 c33d 6055 7b80 3ac6 1281 aa59 523e
00000360: 99b3 c9bc 2dce 70bc 349e a9ba dff9 c0bd
00000370: 65a0 633d f590 323d 7cdb c3bd bb40 c93d
00000380: 6668 f23c e04e 3e3e 2c63 e780 310e 89bd
00000390: edfe 613d 4ae0 6339 9fa5 a2bd f7f8 cabd
000003a0: 8fc5 e83a 853c 9fbd 1624 f53c de72 303e
000003b0: 84d0 7ab1 b2f5 41ba 4c66 36bd f3db 1a28
000003c0: f9e1 9c3c 1370 c23c d0b5 773d 1169 9580
000003d0: 9b1a a7ba b590 803d 199a 563d 1bc8 87bc
000003e0: c7dd 4385 a3d5 333e 5876 993d 8a68 c138
000003f0: e1bc 01bd 062e 403e db51 c53c 7e47 dabc
0.10237311 3.219471e-38 3.7888868e-38 -0.1687805 -5.8965843e-38 0.067697674 -0.049881842 -0.16122082
-3.106487e-38 -0.09332539 -0.009871746 -0.018328754 0.0051418366 -0.052375797 0.012308024 0.025841905
0.00029742267 0.08078153 0.004153491 -0.07709914 0.038798857 3.79519e-39 8.75127e-39 0.13577707
-0.013144656 -0.002082639 -0.14665002 -0.08440644 0.013993224 0.05137435 0.1626332 0.05661787
0.03397581 0.11833422 -7.058112e-38 0.21993554 -0.05372409 0.00022235028 -0.08131253 0.060518865
0.0019343074 -0.03185633 -0.037861854 -0.040976215 -8.11922e-39 0.0018379248 -0.060659897 -4.3848446e-11
0.20999186 0.08641927 0.044375982 -2.8635705e-38 -0.18174776 0.08503425 0.036082834 -0.002822444
6.03459e-39 0.15502316 -0.07679395 -2.8402198e-08 0.007813033 0.058631577 0.15477438 0.24199621
2.6598083e-38 -5.512751e-38 0.18899594 -0.0006051992 0.09008558 -0.0022918123 -0.034948207 -0.0035552734
0.038269658 0.14358066 -0.09817911 -0.054019775 0.0028905293 -0.009457864 -0.4544534 0.09441287
-0.034521487 -0.0010557051 0.0077545126 0.006061676 0.0031334911 0.001059172 0.09418881 0.0637432
-0.07126564 -0.12643646 0.005208351 -0.001222589 0.024850113 -0.03194111 0.0030067281 -0.04150105
-0.058759257 -5.9927975e-38 -5.389356e-38 0.16430674 -1.828189e-38 0.10168139 0.027643973 -0.04121905
-6.37331e-20 0.060166866 0.025897952 0.13603109 -0.016075835 -0.1691462 -0.003287235 0.13794227
2.9236726e-05 -0.12572126 -0.0789479 -0.18035391 -0.02162048 -4.159756e-39 -1.8537277e-38 -0.019441668
0.015753275 0.004647503 -0.04674493 0.13062969 0.009384239 -0.033640794 0.008131488 -0.072718546
-0.002239195 -0.0023624224 -2.1621329e-38 0.10442998 -0.026357383 1.7299369e-06 -0.06488969 -0.0067538843
-1.17938896e-07 0.02002443 -0.05096804 0.04854753 1.21748075e-30 0.0019410228 -0.1936144 -1.1498715e-38
0.145821 0.19613402 0.006781952 2.4164386e-26 -0.062407225 -0.0026869823 0.0037025013 -0.14462584
-4.989472e-38 -0.016606927 -0.13500345 2.6157218e-14 -0.07676822 0.09384031 0.025134802 0.017320173
-5.743816e-39 -2.2260009e-38 0.01647428 -7.5855736e-05 0.008029416 -0.00010753823 -0.15988714 -0.0024208522
-0.07095803 -0.0656755 -0.04776557 -0.098383516 0.00086562865 -7.63011e-05 0.00031531882 0.26530102
0.014091001 3.2954865e-06 0.013097435 -0.04047589 -0.274211 -0.01633814 0.23538703 -0.10516217
0.073050596 -0.16405395 -0.038914993 -0.0022683928 -0.03148758 -0.05597126 2.8529364e-06 -0.009649782
-0.15618776 3.0799318e-38 4.754982e-38 0.111426294 -1.616053e-39 0.026611991 0.02788106 0.14066038
-3.335239e-18 -0.08433221 -0.006442897 -0.057999246 -0.0023684585 -0.113541536 -0.0059913383 0.03483004
-0.0038764223 0.122743666 0.10702316 -0.08764275 0.09541476 -1.1326393e-38 -2.6958185e-38 0.20542017
-0.024621772 -0.014697594 -0.0012940825 -0.09422659 0.055572886 0.043595273 -0.09563348 0.098267995
0.029590797 0.18584776 -2.1249576e-38 -0.0669216 0.055174757 0.00021731961 -0.07941746 -0.099107675
0.0017759072 -0.07775215 0.029924434 0.17231318 -3.6498315e-09 -0.0007398977 -0.04453115 8.596411e-15
0.01915072 0.023735082 0.060476124 -1.372118e-38 -0.0012749018 0.06277601 0.052393053 -0.01657491
-9.20959e-36 0.17561965 0.074932754 9.222429e-05 -0.03167427 0.18767557 0.024086883 -0.026645418

att_src f4 [1, 1, 96]
00000000: 23aa f83d 4656 92bc 5472 cbbd 612e 8eba
00000010: 84d2 b0bc 44dd bfbd ee1c 35bb 4e64 8c39
00000020: 4b80 f73c ff29 22bd f967 69be 2c3f 2a3e
00000030: 29bf 01be 5c13 053c 2905 21bc 1255 fabc
00000040: bbd5 8e3d eec9 0b3d 7beb fabb ae73 21be
00000050: 8513 ae3d 6eb3 d1bd 6fca 143e 8bda 063d
00000060: b537 17be 128a cabc 7302 a1bd f0c0 d83d
00000070: 408d d63b bcbd 913c 9592 623a 57cc 1ebc
00000080: 872b bfbc 54e2 4fbd a634 213e 8246 ac3c
00000090: e9c7 2ebd b50d c33c 6184 9a3d f89e 88ba
000000a0: 79db 0e3e 490a 8fbd 0e7d 773d 604f fabb
000000b0: a248 35be b564 3d3d 441c 30be 4656 80bd
000000c0: d205 873d b383 0b3d 10dd ccbd dcab 28ba
000000d0: fc82 0a3c 0a60 513d ce88 da3a 2b62 b03d
000000e0: 060d 733c 5008 903b 8047 94bd 89d3 2b3d
000000f0: b766 673a 307e 56bd 7e6c 55bd 8f48 06ba
00000100: f3ce 3ebc 78d3 193d 78a0 db3c a257 7abd
00000110: dc90 b3bb cd09 f53d cda2 803d fc43 833e
00000120: 2941 8bbd 94f9 4cbe b4d8 9f3d 2a45 9abc
00000130: aed0 583e d5b1 83bd 6c02 a9ba 58e8 eebd
00000140: 07a6 b0bd b7ad 403d 239d cabd dba0 413b
00000150: 3e23 953d 00a2 45be b2ed e73d bfab 093e
00000160: 7433 c3bd 5aac cfbd f227 193e 7082 9b3d
00000170: cec6 6c39 6ff2 05be 60f9 25bd 402f 853d
0.12141826 -0.017863404 -0.09933916 -0.0010847562 -0.021584757 -0.09368375 -0.0027635652 0.00026777614
0.030212542 -0.03959083 -0.22793569 0.1662566 -0.12670578 0.008122291 -0.00982789 -0.030558143
0.069743596 0.034128122 -0.007657466 -0.15766785 0.08499817 -0.102393016 0.14530347 0.032923263
-0.14767344 -0.02472404 -0.07861795 0.10583675 0.0065476 0.017790668 0.0008643058 -0.009692273
-0.023336185 -0.050752953 0.1574274 0.021029714 -0.042671118 0.023810247 0.075447805 -0.0010423353
0.1395091 -0.069843836 0.060421996 -0.007638857 -0.17703488 0.04623862 -0.17198282 -0.06266455
0.06592907 0.034061145 -0.10003102 -0.00064343004 0.008454081 0.05111698 0.0016672851 0.08612474
0.014834648 0.004395522 -0.072402 0.041949783 0.00088272564 -0.052366436 -0.05210542 -0.00051225064
-0.01164602 0.037555188 0.026809916 -0.06111873 -0.005479915 0.1196476 0.06281052 0.25637805
-0.06799538 -0.20017081 0.07805005 -0.018831808 0.21173355 -0.06430403 -0.0012894399 -0.1166541
-0.08625417 0.047040667 -0.09893253 0.002954534 0.072821125 -0.1930008 0.11324634 0.13444422
-0.09531298 -0.10140295 0.14956644 0.07593238 0.00022580774 -0.13080762 -0.040521026 0.06503153

att_dst f4 [1, 1, 96]
00000000: a5b9 3cbd c662 95bc 4ee1 b33c f247 23bd
00000010: 53ef ba3b a9c0 cebc 79de 8cbd 16a3 36b8
00000020: 782e 05bd 0c76 203c ecfd 3e3d e2a7 1dbd
00000030: adaa adbd 5650 75bd e29b 8ebc 4f9b 9cbc
00000040: e200 01be df1d 60bc b48d 1a3c 39d2 38bc
00000050: c240 88bc ebae 2dbb ec88 8fbd 7b26 ebbd
00000060: 3066 fbbb ec1e a33c f2dc babb fe4b c8bd
00000070: bdea 843c 4e5d 1bbe 0bda 54bc 78e6 973c
00000080: dc22 e0bb 4ba2 843c 7703 0b3d 293d 82bd
00000090: ece2 833d ed90 ebbc 168b 9ebd 2f7d 40bc
000000a0: 6b61 103d 4df3 3a3d 9218 a7bc 706e 59bd
000000b0: b714 573c 5832 fb3c a23d 1e3c c170 a13d
000000c0: 6a54 b3bd fe82 3fbd 3a55 63bc c6b9 b4bb
000000d0: 111b afbc 08c6 1e3d 3dbc 3ebd 1020 a3bd
000000e0: d6db 2e3d 1e72 06bc 5e88 44bc 8cae a13c
000000f0: c78a 14bd e45f 7d3c e6e5 c3bc 30c6 b8bc
00000100: 7dcd f7bc 9e11 653c 384b 3abc af2f 55bd
00000110: d4dd b4ba c91d dabd 0981 b63c c985 293d
00000120: 1ec6 14bc 1ceb 5e3d f97c 6c3c baf4 1b3d
00000130: 2bf7 f1bb 13f6 023c 13fe a4bc 1021 e0bc
00000140: f0cc 97bc eece a7bd eb08 e83c d882 17bd
00000150: 3df6 09bd 7f85 493d 8aeb a5bd e477 853c
00000160: 7a8f 41bd c87d 313d 8b1b e3bd 4daa cabd
00000170: c622 3bbc 5be1 963d c66a a73b c952 803d
-0.046075482 -0.018235575 0.02195802 -0.039863534 0.005704799 -0.025238352 -0.06878371 -4.3544067e-05
-0.03251502 0.00979377 0.046628878 -0.038490184 -0.084798194 -0.059891067 -0.017408315 -0.019117026
-0.12597993 -0.013678997 0.009433199 -0.01128059 -0.016632441 -0.0026501964 -0.07008538 -0.11481949
-0.007672094 0.019912206 -0.0057026083 -0.09780119 0.016225213 -0.15172312 -0.012991439 0.018542513
-0.006840093 0.016190669 0.03393885 -0.063593216 0.06439766 -0.02875563 -0.07741372 -0.011748596
0.035249155 0.045642186 -0.020397458 -0.053083837 0.013127497 0.030663654 0.009658249 0.07882834
-0.08756335 -0.046755783 -0.0138753 -0.00551531 -0.021375211 0.038763076 -0.046566237 -0.079651
0.04269012 -0.008205919 -0.011995403 0.01973655 -0.03626516 0.015464757 -0.023913335 -0.02255544
-0.030249352 0.013981251 -0.011370473 -0.052047428 -0.001379902 -0.10650212 0.022278326 0.041387353
-0.009080438 0.054423437 0.014434093 0.038075186 -0.007384201 0.007993239 -0.020140683 -0.027359515
-0.018530339 -0.081937656 0.028324565 -0.036990017 -0.033682097 0.049199577 -0.08101566 0.01629252
-0.04725597 0.043332845 -0.11089238 -0.098957635 -0.011421865 0.07367202 0.005109164 0.0626579

bias f4 [96]
00000000: a9dc 023e 9676 aebd 4acc 0a3e 17c7 1ebe
00000010: b68b 81bd 6caf 92bd 809b ebbd e8a0 b2bc
00000020: 90fe cdbc ce1a 82bd c973 ecbc 27ab f73d
00000030: 2fcf 91be d999 06be 7557 053e 355f d43d
00000040: 4855 c9bc c981 82bd e884 34bc 77c3 513e
00000050: 5219 363d 6756 a0bd c0a6 18bd 8a56 8dbd
00000060: 6ce3 0b3e 8f57 08bc ffcc 45bc 8047 08be
00000070: 51e5 ca3d 4d83 133a 1951 71b8 e32d a7bd
00000080: 46ff 963d cd83 4bbd 9cef ffbc c78b a2bd
00000090: 60bb 033c 5361 013e 8426 73be fab5 e1b8
000000a0: 2ea1 95bd cbbc eabb 146f baba 1b3b 933d
000000b0: 3b29 953e 4e49 623e bf5f 8fbd 97d4 08bb
000000c0: 41d4 e7bd cea9 ea3b a953 76be 725a e0b8
000000d0: d8d3 aebd 607d 523e 13f2 4f3d 9207 073e
000000e0: 1b1b a33e fc3e 89bc 711f 9f3d d1d4 9bbb
000000f0: d654 5dbc 8a82 8b3d e271 d33d 7542 d2ba
00000100: 99f1 403b ed1d 1abe 9eed 873e 666c c4bd
00000110: 5a81 a038 67d1 37bd 0eb3 debd 1fa2 233e
00000120: c0e0 df3d c2e7 0b3e b51c 503e f7ec 2b3e
00000130: e7e8 4b3d dd3e 503c 1de5 e7b8 51d5 2fbe
00000140: ca88 91bd 8235 0c3b 445b 64be 0096 bbbc
00000150: c383 bd3d 9932 093e fe65 febc b712 503d
00000160: 81eb 5e3e 9331 1f3c 02df e0bc 9f8e e73c
00000170: 4db2 9ab8 6e67 be3d b71b 8ebc e233 d9bd
0.12779488 -0.08518712 0.13554493 -0.15505634 -0.06325476 -0.07162365 -0.11504269 -0.021805242
-0.025145799 -0.06352769 -0.028863804 0.120931916 -0.2847838 -0.13144626 0.13021643 0.10369722
-0.024576798 -0.06372411 -0.011018015 0.2048472 0.04445774 -0.0782898 -0.0372684 -0.06901272
0.13660973 -0.008321657 -0.012072801 -0.13308525 0.0990702 0.00056271703 -5.7534406e-05 -0.08163049
0.07372908 -0.049686242 -0.031242184 -0.07936817 0.008040279 0.12634782 -0.23745161 -0.00010762732
-0.07306133 -0.007163619 -0.0014223778 0.07189008 0.2913302 0.22098276 -0.07000684 -0.0020878667
-0.11319781 0.0071613556 -0.24055351 -0.00010697999 -0.085365 0.2055564 0.05076797 0.13186482
0.31856617 -0.016753666 0.07769669 -0.0047555943 -0.013508996 0.06812008 0.10324456 -0.0016041534
0.0029440878 -0.15050478 0.26548475 -0.09590988 7.653488e-05 -0.044877436 -0.10873996 0.15979813
0.109315395 0.13662627 0.20323451 0.16789614 0.04978266 0.0127103 -0.00011057614 -0.17171218
-0.071061686 0.0021394198 -0.2230044 -0.022898674 0.09253647 0.13398208 -0.031054493 0.050799098
0.21769525 0.009716409 -0.027450088 0.02826625 -7.376503e-05 0.092970714 -0.0173472 -0.10605599
