gnn_medium/siamese-gnn-fold-0_90.pt (torch, 227671 bytes, 26 tensors)

att_src f4 [1, 1, 96]
0.08491542 0.0002457708 0.040100783 0.09638813 -0.17222129 0.13664044 -0.060207497 0.109302066
0.120015845 0.019712357 0.044950865 -0.09869977 -0.108085245 0.14509651 0.092088 -0.024355344
0.12897862 -0.14969833 0.0500021 -0.114111416 -0.25967816 -0.1860322 0.015900414 0.07852517
0.27595937 -0.030068913 0.015659267 0.046154954 0.008350486 0.018458707 0.23906314 0.0076056407
0.22044834 0.11366582 -0.16152197 0.036950715 0.0915471 -0.13838218 0.08129631 0.24970569
-0.16183758 -0.19616933 0.0022003513 0.22269809 -0.03384495 -0.07823773 -0.15297657 0.14470708
-0.011044083 0.001126799 0.022742407 -0.05951438 -0.16998899 -0.17468506 0.056740876 -0.15329002
-0.11556989 0.07781324 0.15695375 -0.0010653809 -0.06494988 -0.25183117 0.10938196 -0.02349391
-0.05322557 -0.13663521 -0.12841137 -0.034381226 0.15625231 0.18895194 -0.12254572 0.007152238
0.0436553 0.12686422 0.03438608 -0.17029533 0.012190697 -0.062048282 -0.100694716 -0.010953219
0.1962902 0.1161928 -0.03776186 0.008257931 0.10977704 -0.14435846 -0.0035148705 0.0025303487
-0.1674983 0.036798727 0.073562324 0.21485887 -0.17153648 0.024179805 0.11247528 0.119283095
00000000: 23e8 ad3d ccda 8039 b840 243d 2467 c53d
00000010: c75a 30be 79eb 0b3e 239c 76bd c3d9 df3d
00000020: deca f53d cf7b a13c 661e 383d 1b23 cabd
00000030: cc5b ddbd 2e94 143e a298 bc3d dc84 c7bc
00000040: f912 043e 854a 19be 01cf 4c3d 3fb3 e9bd
00000050: 89f4 84be 3a7f 3ebe 9641 823c ced1 a03d
00000060: 8c4a 8d3e 1553 f6bc dd47 803c fa0c 3d3d
00000070: 7ad0 083c b736 973c f8cc 743e bd38 f93b
00000080: 36bd 613e a0c9 e83d 0466 25be a259 173d
00000090: 0c7d bb3d 0fb4 0dbe ae7e a63d d9b2 7f3e
000000a0: c0b8 25be 9de0 48be c533 103b f80a 643e
000000b0: 01a1 0abd 1a3b a0bd e4a5 1cbe 182e 143e
000000c0: 3ef2 34bc 1ab1 933a 494e ba3c 5ac5 73bd
000000d0: 9811 2ebe a4e0 32be 1f69 683d 0ff8 1cbe
000000e0: e8af ecbd 8c5c 9f3d 7cb8 203e 40a4 8bba
000000f0: 7104 85bd 04f0 80be a603 e03d 4d76 c0bc
00000100: 0e03 5abd 1aea 0bbe 457e 03be 54d3 0cbd
00000110: 9b00 203e 9e7c 413e 40f9 fabd 525d ea3b
00000120: e6cf 323d b2e8 013e 6bd8 0c3d e661 2ebe
00000130: 7dbb 473c 5726 7ebd 0839 cebd 2175 33bc
00000140: 4c00 493e 7ef6 ed3d 2eac 1abd 464c 073c
00000150: c9d2 e03d b4d2 13be be59 66bb 35d4 253b
00000160: ad84 2bbe 43ba 163d d8a7 963d f703 5c3e
00000170: 42a7 2fbe ba14 c63c 7159 e63d b24a f43d

att_dst f4 [1, 1, 96]
-0.008376402 -0.013119199 -0.063858785 0.035705093 0.14291666 -0.054842513 -0.058492817 0.015819253
-0.035888895 -0.04629414 0.21642679 -0.004899503 0.08730285 0.20698647 -0.05797742 0.2289476
0.1538488 0.10989585 -0.033636007 -0.056607567 -0.045426417 0.04831886 0.12950708 -0.07836052
-0.022076882 0.12489285 -0.04277022 0.07366185 -0.00944439 0.05594546 -0.056722965 0.24987657
0.009323132 0.041723635 0.038041078 0.061366912 0.07085938 -0.010871289 0.109133765 0.015706785
-0.0731978 -0.11950182 -0.042256195 -0.010701212 0.04846615 0.0349441 0.064513616 0.09223175
0.06213943 0.06390326 -0.03824243 0.0021083916 0.06719368 -0.044039913 0.0869152 0.049085815
0.032944605 0.14661032 0.07387301 -0.060812626 0.017584138 -0.02994644 0.032625083 -0.03289892
-0.08501462 0.030527776 0.029018242 -0.06607037 0.052677296 0.13118504 0.10759559 0.061563484
-0.08372397 0.043314587 0.11822891 0.04112878 -0.11843678 -0.011786475 0.12206941 0.044172324
-0.08723322 0.0005700908 -0.02348002 0.059245586 -0.04125632 0.041647766 -0.05394024 -0.07569712
0.18911569 0.024873313 0.083521396 -0.15385447 -0.09398821 -0.040242065 0.18755141 0.008587786
00000000: 2d3d 09bc e9f1 56bc 65c8 82bd 813f 123d
00000010: bf58 123e 8ba2 60bd 2a96 6fbd 6197 813c
00000020: 3c00 13bd ed9e 3dbd fc9e 5d3e 038c a0bb
00000030: d6cb b23d 43f4 533e bb79 6dbd 3d71 6a3e
00000040: 8a8a 1d3e 1311 e13d e9c5 09bd 56dd 67bd
00000050: 0d11 3abd ffe9 453d 819d 043e 7b7b a0bd
00000060: 94da b4bc d3c7 ff3d d42f 2fbd 06dc 963d
00000070: a5bc 1abc 1127 653d 5756 68bd a5df 7f3e
00000080: 0dc0 183c 67e6 2a3d f6d0 1b3d df5b 7b3d
00000090: b91e 913d 7e1d 32bc 8681 df3d 84ab 803c
000000a0: bae8 95bd 5fbd f4bd d514 2dbd 2354 2fbc
000000b0: 7184 463d 8b21 0f3d b71f 843d 00e4 bc3d
000000c0: ea85 7e3d b6df 823d 18a4 1cbd f12c 0a3b
000000d0: d79c 893d 3263 34bd 9900 b23d 350e 493d
000000e0: ecf0 063d 0421 163e bc4a 973d a916 79bd
000000f0: 9c0c 903c 3d52 f5bc e1a1 053d 05c1 06bd
00000100: 251c aebd 6315 fa3c aab7 ed3c e74f 87bd
00000110: 26c4 573d 5f55 063e 145b dc3d fe29 7c3d
00000120: 7977 abbd a36a 313d 0022 f23d a776 283d
00000130: fc8e f2bd 0f1c 41bc 87ff f93d 0aee 343d
00000140: 55a7 b2bd 2572 153a 2c59 c0bc 80ab 723d
00000150: 63fc 28bd d996 2a3d 71f0 5cbd 1707 9bbd
00000160: 8ba7 413e 1ec3 cb3c 440d ab3d 078c 1dbe
00000170: e47c c0bd ddd4 24bd 7a0d 403e c9b3 0c3c

bias f4 [96]
-0.0072837044 -6.4707697e-12 -0.0956571 0.07083294 -0.0043156496 -0.020817349 0.17748117 0.060857337
-0.013031869 0.21529618 0.0 0.016247204 0.042146333 -0.0017130357 -0.18153328 0.0
0.0 0.0 0.027787259 -0.035998665 -0.02598174 -0.07955401 -2.4102533e-08 -0.10346651
0.027939944 -0.13645093 -0.14098474 0.060053993 0.084172994 -0.005769463 0.11144515 1.1153977e-38
-0.091142 0.08015325 -0.12286783 -2.2434383e-12 0.0456919 0.027212417 0.03240062 0.21850626
0.08822055 0.013079083 0.0042942325 0.012962448 -0.0012033574 0.0012967816 0.013308895 0.15515473
0.13567857 0.0 0.02812017 -0.25200397 -0.01672321 0.05428096 0.0 0.013823292
0.07545477 0.022976067 -0.022368893 -0.029257033 0.0 0.04110261 -0.11416651 -0.071638376
-0.0099012805 0.05247386 -0.17205012 -0.020344999 0.20111649 -0.004125401 8.409778e-39 0.1274022
0.010913453 0.0 0.015920008 -0.120006956 -0.18293956 0.03701454 -0.076348834 -0.022708045
-0.059206422 0.13459235 -0.10366288 0.10485573 0.19397703 -0.013095621 0.004018342 0.0018306541
-0.0023800088 0.043080233 0.040579934 0.069724284 -0.16365203 0.0040706033 0.0 0.07532673
00000000: 24ac eebb 83ab e3ac dfe7 c3bd dc10 913d
00000010: 4b6a 8dbb 2589 aabc a0bd 353e 8b45 793d
00000020: 9f83 55bc 9a76 5c3e 0000 0000 db18 853c
00000030: a2a1 2c3d f187 e0ba dce3 39be 0000 0000
00000040: 0000 0000 0000 0000 1ba2 e33c 5673 13bd
00000050: a8d7 d4bc 36ed a2bd 080a cfb2 40e6 d3bd
00000060: 4fe2 e43c cbb9 0bbe 4e5e 10be 2dfb 753d
00000070: e462 ac3d c30d bdbb 5b3d e43d c074 7900
00000080: a8a8 babd 6327 a43d 21a2 fbbd 31de 1dac
00000090: 6e27 3b3d 93ec de3c 83b6 043d 1bc0 5f3e
000000a0: faac b43d a649 563c a2b6 8c3b 7360 543c
000000b0: f9b9 9dba c5f8 a93a 8d0d 5a3c e2e0 1e3e
000000c0: 53ef 0a3e 0000 0000 455c e63c aa06 81be
000000d0: 1dff 88bc b655 5e3d 0000 0000 177b 623c
000000e0: 0888 9a3d 4e38 bc3c f83e b7bc 72ac efbc
000000f0: 0000 0000 365b 283d 22d0 e9bd 24b7 92bd
00000100: fb38 22bc d5ee 563d e82d 30be 8eaa a6bc
00000110: 7bf1 4d3e 5f2e 87bb 0a93 5b00 b975 023e
00000120: 57ce 323c 0000 0000 ad6a 823c 35c6 f5bd
00000130: 8254 3bbe 8f9c 173d c75c 9cbd 3906 babc
00000140: 6f82 72bd 94d2 093e 344d d4bd 9abe d63d
00000150: eaa1 463e 048f 56bc 4cac 833b 8ff2 ef3a
00000160: ecf9 1bbb e674 303d 2537 263d 9bcb 8e3d
00000170: 6694 27be b262 853b 0000 0000 e744 9a3d

weight f4 [96, 10]
0.06629401 0.06415559 -0.110529654 0.18213217 -0.20424506 -0.04536832 0.11013113 -0.13930812
0.046049297 0.23327707 -0.0028722927 -0.01062417 -0.0065599796 -0.05917017 0.06151172 -0.033707537
0.024620265 -0.014574498 0.06393343 0.003572265 0.028133102 0.0124897165 -0.0944752 0.073789515
-0.2848749 0.108864054 0.28505814 0.19267528 0.13555051 -0.02073714 0.07689743 -0.017245047
0.24371059 -0.20335981 0.0089579625 -0.31315288 0.4634233 0.3516264 -0.033308204 0.14058523
-0.16529936 0.10112005 0.032220844 -0.2550347 -0.027468074 0.02403879 -0.0561057 -0.24697872
0.07344959 -0.083770595 0.11966709 0.11473059 -0.02599201 -0.32782796 0.008765729 0.23037475
-0.1156227 0.015496056 0.04405837 0.42740712 -0.19114676 0.050419897 0.18850914 0.2208248
-0.13518593 -0.16092794 -0.17605679 0.19707902 -0.10563554 -0.048507206 -0.0987621 -0.3549206
0.23374219 0.16673574 0.13077961 -0.12900795 0.14220434 -0.22174332 -0.08014548 0.020492908
-0.3378183 -0.24369548 -0.2197647 0.28914467 -0.029537046 -0.21224608 0.09776257 0.09241695
0.17765753 0.4057263 -0.16893059 -0.029731082 0.0033797394 0.11416828 0.0804858 0.044512965
0.07038827 0.066185124 0.26622167 0.4342335 0.053365998 -0.16689953 -0.14410223 -0.040844407
-0.22195408 -0.22724551 0.1647297 0.060199607 -0.100987576 0.099646084 0.056898527 0.0984608
-0.20005547 -0.050797317 -0.11053986 0.30961013 0.12130654 -0.3399323 -0.05713271 -0.29510725
-0.13912115 0.09923551 -0.05403797 0.061213348 0.022769328 0.08893361 -0.34299773 -0.094181925
-0.27823097 -0.12391947 -0.102209635 0.10071155 0.16979212 -0.07352207 -0.24334534 -0.31005207
0.09891484 0.0016013777 -0.18048294 0.22223759 -0.058238193 0.10742681 -0.23143016 0.2168704
-0.053002857 -0.28387097 0.005609898 0.13534358 0.24242583 -0.2546353 0.03522648 -0.16408482
-0.12570752 -0.14365153 -0.14771867 0.01734036 -0.12763225 -0.08548903 0.007891136 -0.0848937
0.018246457 -0.099669844 -0.041107588 -0.1623037 0.10045661 -0.23063456 0.032396547 0.09379496
0.029975535 0.24997649 -0.13406116 -0.21605064 -0.14295718 -0.13053304 -0.0571952 0.12820229
-0.025362575 -0.045475133 -0.01249475 0.06519392 0.013393884 -0.0064850803 0.038091183 0.31435034
-0.02238961 -0.27988377 -0.054159254 -0.14702345 0.048401363 -0.110797346 -0.23443262 -0.12893575
0.1596763 0.08940671 -0.07931313 0.062173933 0.18962231 0.26816362 -0.050075326 -0.038062792
0.113267116 0.050068125 0.060223747 0.12101899 -0.24591671 0.28300095 -0.099908054 -0.30515838
-0.23782665 -0.41297626 0.032199122 -0.1683712 0.13755298 -0.12430112 -0.13095543 0.2838853
-0.063878536 0.09369771 0.1978938 0.23966317 0.033976667 -0.118813984 0.015768029 0.12126872
-0.19137955 -0.08126856 -0.044318564 0.034315385 -0.030595003 0.01135511 0.03360838 0.0616926
-0.10198547 -0.19968672 0.2401094 -0.14619705 0.07435392 0.081818625 0.20047073 -0.028495157
-0.007205655 4.9211703e-05 -0.07894871 0.23641898 -0.09055293 -0.11405916 0.020324687 -0.010853109
0.09960736 0.28173235 0.054892823 0.005785837 0.008789549 0.20599678 -0.045267474 -0.07310781
00000000: 27c5 873d 0264 833d 5f5d e2bd db80 3a3e
00000010: 9e25 51be 22d4 39bd 6e8c e13d caa6 0ebe
00000020: 309e 3c3d 2fe0 6e3e 133d 3cbb 0011 2ebc
00000030: 19f5 d6bb 6c5c 72bd b7f3 7b3d ea10 0abd
00000040: 70b0 c93c e0c9 6ebc 88ef 823d a91c 6a3b
00000050: 6477 e63c aba1 4c3c 377c c1bd f51e 973d
00000060: 1fdb 91be 1ef4 de3d 24f3 913e ab4c 453e
00000070: c1cd 0a3e efe0 a9bc 667c 9d3d 7c45 8dbc
00000080: 458f 793e 8e3d 50be 6bc4 123c 9355 a0be
00000090: d245 ed3e 6008 b43e 2f6e 08bd 93f5 0f3e
000000a0: 3c44 29be 0718 cf3d 01fa 033d e893 82be
000000b0: ba04 e1bc ffec c43c 17cf 65bd fde7 7cbe
000000c0: bd6c 963d eb8f abbd 0514 f53d dff7 ea3d
000000d0: 32ed d4bc 11d9 a7be 229e 0f3c 5ce7 6b3e
000000e0: 98cb ecbd 2be3 7d3c 8d76 343d 1bd5 da3e
000000f0: fabb 43be 1885 4e3d 8a08 413e e51f 623e
00000100: 2e6e 0abe 4bca 24be 3b48 34be 15cf 493e
00000110: 7257 d8bd 7eaf 46bd c943 cabd 27b8 b5be
00000120: 1d5a 6f3e c6bc 2a3e 17eb 053e a91a 04be
00000130: 049e 113e ae10 63be 5023 a4bd bee0 a73c
00000140: 85f6 acbe 4f8b 79be ff09 61be c50a 943e
00000150: adf7 f1bc 0957 59be be37 c83d 1945 bd3d
00000160: dbeb 353e 5cbb cf3e 24fc 2cbe 998e f3bc
00000170: 9e7e 5d3b 0fd1 e93d bdd5 a43d 3a53 363d
00000180: ba27 903d 118c 873d 354e 883e da53 de3e
00000190: 4e96 5a3d b6e7 2abe 898f 13be 774c 27bd
000001a0: ee47 63be 0cb3 68be e7ae 283e dd93 763d
000001b0: 93d2 cebd 3f13 cc3d 6e0e 693d d1a5 c93d
000001c0: 57db 4cbe d910 50bd b962 e2bd 3885 9e3e
000001d0: 906f f83d 9b0b aebe fd03 6abd 4c18 97be
000001e0: c675 0ebe fd3b cb3d eb56 5dbd d9ba 7a3d
000001f0: be86 ba3c d322 b63d 669d afbe 74e2 c0bd
00000200: 4a74 8ebe 7ec9 fdbd 4953 d1bd db41 ce3d
00000210: fcdd 2d3e bd92 96bd 852f 79be 25bf 9ebe
00000220: dd93 ca3d 52e5 d13a 85d0 38be 4092 633e
00000230: 2c8b 6ebd 9602 dc3d 07fc 6cbe 4613 5e3e
00000240: 8619 59bd 8957 91be 3cd3 b73b 8297 0a3e
00000250: 7a3e 783e 8f5f 82be a449 103d da05 28be
00000260: 79b9 00be 6319 13be 9043 17be 5f0d 8e3c
00000270: 07b2 02be df14 afbd d349 013c c0dc adbd
00000280: 9879 953c b41f ccbd 6e60 28bd f132 26be
00000290: 32bc cd3d 772b 6cbe 3eb2 043d 9217 c03d
000002a0: 418f f53c d6f9 7f3e 5447 09be 613c 5dbe
000002b0: 5e63 12be 74aa 05be 8445 6abd 7647 033e
000002c0: 2dc5 cfbc 2244 3abd c8b6 4cbc 6484 853d
000002d0: 0572 5b3c cc80 d4bb 8005 1c3d 87f2 a03e
000002e0: 6a6a b7bc ed4c 8fbe 18d6 5dbd 518d 16be
000002f0: 8240 463d b8e9 e2bd 1b0f 70be bc07 04be
00000300: 2f82 233e dd1a b73d ec6e a2bd 18aa 7e3d
00000310: 5a2c 423e be4c 893e c91b 4dbd bbe7 1bbd
00000320: 97f8 e73d 3c14 4d3d 2dad 763d ced8 f73d
00000330: 97d1 7bbe 80e5 903e 989c ccbd b83d 9cbe
00000340: d488 73be a071 d3be 3ae3 033d 8069 2cbe
00000350: b0da 0c3e 9691 febd 2e19 06be 6a59 913e
00000360: c0d2 82bd 96e4 bf3d aca4 4a3e 436a 753e
00000370: 1e2b 0b3d bf54 f3bd f42b 813c bc5b f83d
00000380: 00f9 43be 2170 a6bd 6287 35bd 4a8e 0c3d
00000390: 5fa2 fabc c90a 3a3c f1a8 093d 61b1 7c3d
000003a0: c2dd d0bd ad7a 4cbe 3ddf 753e aeb4 15be
000003b0: de46 983d 8690 a73d 3348 4d3e ad6e e9bc
000003c0: 6a1d ecbb aa68 4e38 dcaf a1bd d117 723e
000003d0: d173 b9bd d997 e9bd f57f a63c 3dd1 31bc
000003e0: f2fe cb3d 393f 903e 4cd7 603d 1e97 bd3b
000003f0: 0a02 103c d2f0 523e 636a 39bd 8cb9 95bd

att_src f4 [1, 1, 96]
0.053251654 -0.006764767 -0.049806885 0.12427675 0.01922442 -0.11795994 -0.036339454 -0.05831699
0.098562665 -0.036424413 -0.016260177 -0.076330826 0.17778036 0.04385375 -0.08641737 -0.143295
0.021801006 -0.0013907943 0.1358467 -0.032665536 0.00023314237 -0.0004004219 -0.051666968 0.07391244
-0.105042525 0.057088565 0.09184675 -0.11311551 -0.105625495 0.05101596 -0.004483743 0.10463252
0.12585615 0.09290242 0.0032543303 0.0271694 -0.045164283 0.07702192 0.0030930524 0.13028881
0.0017418542 -0.018318836 0.052505307 -0.06252763 -0.034420926 0.023930978 0.084496506 -0.12727752
0.03399608 0.20428753 0.107779 -0.09977757 -0.12807682 0.005104339 0.0346803 -0.05186803
0.0035893042 0.027636891 0.105605125 0.00069134746 0.0046823174 0.042961493 0.0014214633 -0.06898913
0.0012500532 0.0064874827 -0.07058995 -0.07706337 0.068971366 0.12095631 -0.0085136825 0.13146438
-0.0053192344 0.025764074 -0.034223594 0.08248566 -0.07783285 0.00048013637 0.030657252 0.11624665
0.05138783 -0.069066696 -0.0059352736 0.02210306 -0.030437097 0.09949934 -0.023979269 0.071138024
-0.07956413 0.06467764 -0.09286093 -0.13062158 0.10292847 -0.079865456 -0.10550562 0.11299266
00000000: 681e 5a3d fbaa ddbb 4e02 4cbd cf84 fe3d
00000010: 887c 9d3c fb94 f1bd aed8 14bd ccdd 6ebd
00000020: 39db c93d c431 15bd 1034 85bc 5653 9cbd
00000030: 0e0c 363e fd9f 333d 97fb b0bd edbb 12be
00000040: 0698 b23c 504b b6ba 661b 0b3e 4ccc 05bd
00000050: ae77 7439 b8ef d1b9 bea0 53bd 685f 973d
00000060: 8920 d7bd b3d5 693d 261a bc3d 1ba9 e7bd
00000070: 2e52 d8bd 1cf6 503d 5dec 92bb 9349 d63d
00000080: 6fe0 003e a043 be3d 9a46 553b 5d92 de3c
00000090: 2ffe 38bd abbd 9d3d cfb4 4a3b 6e6a 053e
000000a0: ee4e e43a 6211 96bc ce0f 573d 7c0e 80bd
000000b0: f5fc 0cbd e60a c43c 810c ad3d 0a55 02be
000000c0: 793f 0b3d c030 513e 3dbb dc3d 2f58 ccbd
000000d0: 9226 03be 4d42 a73b ee0c 0e3d 9273 54bd
000000e0: 883a 6b3b c366 e23c 8047 d83d 8b3b 353a
000000f0: 206e 993b 64f8 2f3d 6550 ba3a 2c4a 8dbd
00000100: d3d8 a33a f394 d43b 7791 90bd 66d3 9dbd
00000110: dc40 8d3d f1b7 f73d f97c 0bbc 999e 063e
00000120: f94c aebb 2e0f d33c 0a2e 0cbd 3eee a83d
00000130: d466 9fbd d0ba fb39 eb24 fb3c b912 ee3d
00000140: 0c7c 523d d772 8dbd af7c c2bb 7a11 b53c
00000150: 3857 f9bc 4fc6 cb3d 2c70 c4bc d0b0 913d
00000160: 85f2 a2bd b675 843d df2d bebd aac1 05be
00000170: 29cc d23d 8090 a3bd 5513 d8bd b268 e73d

att_dst f4 [1, 1, 96]
0.019075312 0.0025916602 -0.005208736 0.008180562 -0.0007866399 0.0065706307 -0.0057432624 -0.01121071
0.009290586 0.0016007896 0.013644341 -0.0073694163 0.0031592373 -0.019395925 -0.025613219 -0.016336847
0.034779888 -0.0006913175 0.0074286098 -0.018173404 0.0065265284 -0.0017438447 -0.013532418 -0.012733184
0.0044663167 0.0037668766 0.012174909 -0.022134632 -0.017733796 -0.005997268 0.0002780177 0.009266812
-0.0052038967 -0.008887023 0.005144526 -0.02222563 -0.005909341 0.008564674 -0.0024312038 0.00891337
0.001449487 0.0018670228 0.0041694883 0.008985372 0.0009729162 0.0064222 -0.0020268383 -0.018342089
0.0077057392 0.008813559 0.00012531283 -0.0010927019 -0.007002402 0.0054759607 -0.0123642385 -0.001703718
0.00714609 -0.0031034711 0.04965676 0.006675266 0.011258885 0.007961279 0.0070873583 -0.0077927643
0.0060248547 -0.01666378 -0.0076545803 0.0088857785 0.0051349346 0.00038561446 0.0022278726 0.04587097
0.00025394914 0.0058250586 0.007327443 0.0060436972 -0.011030459 0.0012798813 0.041787587 -0.01878896
-0.0029502765 0.006138516 -0.028495679 -0.012409269 0.005746742 -0.0057630665 -0.013683274 -0.021768117
-0.02020398 0.0038532412 0.0008740616 -0.008023646 0.0040188264 -0.013495626 0.01613489 -0.013252463
00000000: d443 9c3c d8d8 293b 0bae aabb c407 063c
00000010: 8336 4eba 724e d73b fa31 bcbb 20ad 37bc
00000020: 8b37 183c 96d1 d13a 848c 5f3c 257b f1bb
00000030: 350b 4f3b 34e4 9ebc d0d2 d1bc dad4 85bc
00000040: 5b75 0e3d 8839 35ba b26b f33b 64e0 94bc
00000050: 7ddc d53b b891 e4ba 13b7 5dbc d89e 50bc
00000060: 2e5a 923b b4dd 763b 4579 473c b053 b5bc
00000070: 7746 91bc bb84 c4bb e7c2 9139 d4d3 173c
00000080: 7385 aabb e09a 11bc 6993 a83b 8612 b6bc
00000090: 25a3 c1bb d952 0c3c d554 1fbb 6209 123c
000000a0: b7fc bd3a e4b6 f43a 34a0 883b 6237 133c
000000b0: 4d0b 7f3a 5171 d23b b4d4 04bb 2642 96bc
000000c0: 6d80 fc3b bf66 103c 6866 0339 fe38 8fba
000000d0: 6874 e5bb b06f b33b 6093 4abc 4a4f dfba
000000e0: bf29 ea3b 9b63 4bbb e364 4b3d 31bc da3b
000000f0: 3077 383c 0670 023c 123d e83b 725a ffbb
00000100: 256c c53b 7b82 88bc 46d3 fabb a895 113c
00000110: f442 a83b 4c2c ca39 8001 123b 33e3 3b3d
00000120: 7a24 8539 22e0 be3b 0c1b f03b 350a c63b
00000130: 19b9 34bc b1c1 a73a 7629 2b3d 4eeb 99bc
00000140: 6d59 41bb 9b25 c93b c56f e9bc 3f50 4bbc
00000150: 2a4f bc3b 1bd8 bcbb d02f 60bc 0d53 b2bc
00000160: d182 a5bc a986 7c3b 4821 653a 9c75 03bc
00000170: 5cb0 833b c21c 5dbc 512d 843c dc20 59bc

bias f4 [96]
-0.018463073 0.09109838 0.122486524 0.0 -0.03522332 -0.01566347 0.06255879 0.1670235
3.5518906e-38 -0.12219317 0.1575321 0.18353999 -0.039676026 0.039261203 -0.050069604 -0.13739517
-0.021082055 -3.2788986e-07 0.054512784 0.318029 -6.5378634e-07 0.00024740907 0.09270742 0.013754321
0.020533206 0.0017270717 0.020033585 0.15925999 -0.061924018 0.09914132 -0.045529306 0.043398816
0.101973206 0.40599424 -0.001732098 0.13292035 -0.115086 0.043420646 -5.3202266e-06 0.0
-2.1361771e-07 -0.12812462 -3.4682874e-38 0.0058704764 -0.022117518 -0.036051385 0.08743953 -0.11872324
0.006643023 0.0 -0.08476784 0.09771766 0.033660255 8.8471353e-07 -0.12688084 0.12313618
-0.030197004 0.092468224 0.08855774 -5.0887527e-05 6.702798e-05 -0.060389016 -9.02387e-39 0.042400934
0.0 0.07964244 0.24423844 -0.046299633 -0.023376498 -0.021040624 0.029950462 0.004327722
-0.11030642 0.0 0.041175213 0.029504266 0.14120857 -1.3185317e-20 0.004324439 0.049871165
0.23753865 0.04786063 0.040129248 0.10376898 -0.049149264 0.07932601 -0.03495595 -0.0323929
0.04288064 5.806532e-39 -0.21869384 0.016439168 0.020144569 -0.13216187 -0.020156095 -0.053289928
00000000: df3f 97bc ca91 ba3d 37da fa3d 0000 0000
00000010: 5446 10bd ad50 80bc d31e 803d 3508 2b3e
00000020: 2162 4101 6a40 fabd 1850 213e e8f1 3b3e
00000030: 5483 22bd 5bd0 203d c915 4dbd 52b1 0cbe
00000040: 46b4 acbc d708 b0b4 cc48 5f3d b2d4 a23e
00000050: db7f 2fb5 afb6 8139 63dd bd3d ce59 613c
00000060: 4135 a83c e95e e23a 791d a43c 0d15 233e
00000070: 0aa4 7dbd 9b0a cb3d f07c 3abd f5c2 313d
00000080: 54d7 d03d 7ade cf3e 9107 e3ba 461c 083e
00000090: 35b2 ebbd d9d9 313d 6684 b2b6 0000 0000
000000a0: ca5e 65b4 1a33 03be dfd4 3c81 205d c03b
000000b0: cc2f b5bc 9eaa 13bd 7f13 b33d 2c25 f3bd
000000c0: b7ad d93b 0000 0000 c39a adbd 3220 c83d
000000d0: 56df 093d 0d7d 6d35 0ded 01be d22e fc3d
000000e0: b55f f7bc fb5f bd3d c35d b53d 1170 55b8
000000f0: 5f91 8c38 795a 77bd e142 6280 9aac 2d3d
00000100: 0000 0000 931b a33d a419 7a3e afa4 3dbd
00000110: 1280 bfbc 635d acbc ac5a f53c 90cf 8d3b
00000120: 55e8 e1bd 0000 0000 57a7 283d eeb2 f13c
00000130: fb98 103e 4810 799e 06b4 8d3b b545 4c3d
00000140: 553d 733e 8209 443d 915e 243d d584 d43d
00000150: bd50 49bd ad75 a23d f82d 0fbd 6bae 04bd
00000160: 9ca3 2f3d 403a 3f00 47f1 5fbe 6fab 863c
00000170: 3906 a53c 7155 07be 651e a5bc 8a46 5abd

weight f4 [96, 96]
0.042272802 6.708686e-05 -0.06544829 -0.18646166 -0.028259313 0.06691727 0.16534628 -0.01122387
0.12184921 0.026028313 -2.9359047e-38 -0.21322685 0.17161849 -0.06086124 0.10992009 -4.1885383e-38
4.372258e-38 4.118299e-38 -0.0104290275 0.06618042 -0.21358922 -0.07650669 -8.9389346e-07 -0.001403412
-0.117644794 0.017438775 -0.019275844 -0.013049971 0.068080954 -0.0071387766 0.18815719 -3.7281375e-38
-0.05113663 -0.06857223 -0.012792184 0.0001334193 -0.12933338 -0.18895455 0.0016273089 -0.03308699
-0.046604592 -0.033567443 -0.0031786547 0.0307235 0.005163519 -0.31160253 -0.0043313596 0.10806049
0.30714726 -2.3070458e-38 -0.017968325 -0.12162081 0.114971444 -0.11597476 6.457074e-38 -0.10089151
0.12367526 0.10882184 0.031927675 -0.0039235046 3.033125e-39 0.21950635 0.15255311 0.087782696
0.07074651 0.22874579 0.13158323 -0.0017359704 -0.014734924 -0.040597167 -2.3010823e-38 -0.11322776
0.0021412205 1.7174381e-38 -0.11314425 -0.032775562 -0.053673655 0.09738838 -0.0514515 0.060888387
0.08582616 -0.059052054 -0.032134008 -0.099486575 -0.05503396 0.0098690465 0.14352345 0.04150901
-0.045172818 -0.2796187 0.00046134216 -0.07161775 -0.12028358 0.013840526 2.6563947e-38 0.09971347
-0.20245317 -0.0005162053 0.124841 -0.16993973 -0.025350006 0.118163936 0.0871615 -0.12527542
0.100707375 0.04674486 3.2799257e-38 0.002372343 -0.055673435 -0.10619974 -0.16715203 -1.1914708e-38
-5.009464e-38 9.22114e-39 -0.07537389 0.070188604 0.05775759 0.20919736 2.61095e-07 0.1508741
-0.057856444 0.042087212 -0.13564286 0.040032376 0.13849016 0.20563668 -0.0118286535 5.477334e-38
0.13858221 -0.059335127 -0.099456824 0.0020997277 0.124133915 0.011145693 0.061490964 -0.21952948
0.020580642 -0.043412153 0.017144296 -0.04189773 0.0019984434 -0.2611373 -0.086826146 0.14578143
-0.061217632 4.6389044e-38 -0.11762908 0.025430627 -0.0161356 0.042307198 -2.8486114e-38 -0.10029067
-0.17775978 -0.1426024 0.10167514 0.026682569 -6.553957e-38 0.26240462 0.008729735 -0.08154444
-0.08111248 -0.22878061 0.15724914 -0.07541399 -0.18968399 -0.07130935 1.8986036e-38 -0.03869043
-0.0552013 2.5126495e-38 -0.1488197 -0.13119207 0.08144571 0.060934667 0.011484527 -0.071089506
0.034763157 -0.12522762 0.17188062 -0.10007893 -0.032644805 -0.073874444 -0.016074974 0.09581749
-0.05048781 -0.072594576 -0.029254084 -0.022843743 0.37507874 0.06928909 -4.062155e-38 0.15335193
0.1474249 -0.00090678217 -0.058788646 -0.22019285 -0.0009215049 -0.06493326 -0.15199968 0.0646319
-0.024171866 0.05673211 4.058371e-38 -0.14887553 0.040886756 0.03435421 -0.22986816 -5.37731e-38
2.6658117e-38 2.3751656e-38 -0.07222873 0.1348837 -0.051319398 -0.14680791 2.8483782e-07 0.0491742
-0.00973064 0.12970047 -0.11068677 -0.09015216 -0.14172351 -0.0764939 -0.051315676 -7.198315e-39
0.13786927 0.057914212 -0.07879508 0.0001508981 0.109485395 -0.15512013 -0.0023717985 0.20770042
-0.12102596 -0.0143559985 0.0016771419 -0.024845155 -0.0066155004 -0.034081727 0.12285474 -0.031273644
-0.13321957 -6.9948997e-38 0.08296344 0.07271984 0.0065530404 0.013849753 3.531729e-38 -0.033145536
0.10127239 -0.15891038 -0.034490425 -0.033073526 -1.0516226e-38 -0.06540658 0.14947158 -0.276344
00000000: 3f26 2d3d fcb0 8c38 c109 86bd ceef 3ebe
00000010: 1380 e7bc ec0b 893d 8950 293e 53e4 37bc
00000020: 148c f93d 5439 d53c 8ad8 1f81 2458 5abe
00000030: c2bc 2f3e a349 79bd c91d e13d b40b 6481
00000040: 620c 6e01 b638 6001 83de 2abc 9a89 873d
00000050: 22b7 5abe 8aaf 9cbd e4f3 6fb5 b1f2 b7ba
00000060: c1ef f0bd c3db 8e3c 60e8 9dbc 8ccf 55bc
00000070: 076e 8b3d 66ec e9bb 47ac 403e a7fa 4a81
00000080: a574 51bd 996f 8cbd 4f96 51bc 78e6 0b39
00000090: f86f 04be 4d7d 41be 6d4b d53a 3986 07bd
000000a0: 75e4 3ebd 047e 09bd fa50 50bb d9af fb3c
000000b0: bd32 a93b 5e8a 9fbe 14ee 8dbb d14e dd3d
000000c0: 6842 9d3e 0d37 fb80 4f32 93bc 5514 f9bd
000000d0: 2676 eb3d 2d84 edbd 3dc7 af01 35a0 cebd
000000e0: 7449 fd3d fcdd de3d 98c6 023d be90 80bb
000000f0: 1e07 2100 46c6 603e e236 1c3e 6ac7 b33d
00000100: 8ce3 903d 563c 6a3e c1bd 063e 8089 e3ba
00000110: c06a 71bc 3749 26bd d090 fa80 f5e3 e7bd
00000120: b853 0c3b 3003 bb00 2cb8 e7bd ab3f 06bd
00000130: e8d8 5bbd 8f73 c73d cfbe 52bd 1a66 793d
00000140: a0c5 af3d 91e0 71bd f39e 03bd 9ebf cbbd
00000150: 4a6b 61bd c8b1 213c d0f7 123e 5a05 2a3d
00000160: 2207 39bd 2f2a 8fbe 4ce0 f139 54ac 92bd
00000170: 3d57 f6bd 60c3 623c bda0 1001 9336 cc3d
00000180: e24f 4fbe f451 07ba a3ac ff3d ae04 2ebe
00000190: d1aa cfbc efff f13d ba81 b23d 3348 00be
000001a0: ab3f ce3d 8a77 3f3d 7e93 3201 5079 1b3b
000001b0: d409 64bd 407f d9bd e729 2bbe 5cbd 8180
000001c0: de5e 8881 c968 6400 a05d 9abd 0bbf 8f3d
000001d0: 3993 6c3d d537 563e a02c 8c34 bd7e 1a3e
000001e0: e1fa 6cbd a463 2c3d f6e5 0abe fdf8 233d
000001f0: 5dd0 0d3e 6c92 523e f8cc 41bc 721b 9501
00000200: 7fe8 0d3e 6409 73bd 05b0 cbbd 969b 093b
00000210: ec39 fe3d 6d9c 363c f3dd 7b3d 56cc 60be
00000220: bc98 a83c f1d0 31bd 3272 8c3c f49c 2bbd
00000230: 51f8 023b cab3 85be e8d1 b1bd ba47 153e
00000240: 57bf 7abd e490 7c01 84e7 f0bd e453 d03c
00000250: ce2e 84bc 504a 2d3d d917 1b81 3265 cdbd
00000260: a906 36be 5d06 12be 0e3b d03d 6795 da3c
00000270: 6a6a b281 e659 863e 2a07 0f3c c500 a7bd
00000280: 4d1e a6bd 7745 6abe eb05 213e a672 9abd
00000290: 853c 42be a30a 92bd 58bd ce00 db79 1ebd
000002a0: c21a 62bd 39cd 0801 3164 18be 3757 06be
000002b0: 02cd a63d a196 793d 9929 3c3c 6097 91bd
000002c0: d063 0e3d ab3b 00be 7901 303e 2ff6 ccbd
000002d0: 8fb6 05bd 7c4b 97bd aaaf 83bc f63b c43d
000002e0: 4ecc 4ebd 77ac 94bd 43a6 efbc cd22 bbbc
000002f0: 520a c03e 70e7 8d3d 2d2a 5d81 4a08 1d3e
00000300: 8ef6 163e 1fb5 6dba 5dcc 70bd 3c7a 61be
00000310: 2691 71ba bbfb 84bd cea5 1bbe bb5d 843d
00000320: 1404 c6bc ee5f 683d 70f5 5c01 d472 18be
00000330: df78 273d 00b7 0c3d 8f62 6bbe 6262 9281
00000340: fe23 1101 fa50 0101 a8ec 93bd f41e 0a3e
00000350: 4a34 52bd d054 16be d0eb 9834 e36a 493d
00000360: 436d 1fbc 33d0 043e bfaf e2bd b2a1 b8bd
00000370: f81f 11be d5a8 9cbd 6330 52bd f961 4e80
00000380: 9a2d 0d3e 7437 6d3d 515f a1bd 663a 1e39
00000390: e139 e03d d0d7 1ebe 2d70 1bbb 6baf 543e
000003a0: 75dc f7bd 6c35 6bbc 8bd3 db3a 1188 cbbc
000003b0: d7c6 d8bb 4899 0bbd 449b fb3d cb18 00bd
000003c0: b66a 08be 566b be81 bce8 a93d 24ee 943d
000003d0: e3ba d63b 13ea 623c 1e49 4001 9dc3 07bd
000003e0: e667 cf3d 67b9 22be d545 0dbd 1b78 07bd
000003f0: f682 7280 e3f3 85bd 140f 193e f67c 8dbe

att_src f4 [1, 1, 96]
0.14293326 -0.027595736 -0.16413511 -0.21682991 -0.12684238 -0.2650692 0.061430827 0.10077825
-0.003882965 -0.159109 0.061724402 -0.074831724 0.19067925 0.23942406 -0.22001511 0.045330968
-0.034607947 0.060591307 0.10533158 0.006953922 0.12291997 -0.17916085 0.29306215 -0.18554765
-0.054620992 -0.0032045296 -0.007927846 0.2911579 -0.041016687 -0.052164532 -0.19986445 0.1561112
-0.16871008 -0.08990291 0.019477727 -0.08545856 0.1344306 0.041498885 0.18799883 0.011859459
-0.18068035 -0.11074298 -0.0054791053 -0.16263266 0.17712022 0.09478453 -0.034820683 -0.20599078
-0.13748914 0.025612487 -0.19273184 -0.18045302 0.13742667 0.16662146 0.20989381 0.10219983
-0.15692687 0.16858318 0.15742137 0.22803512 -0.07642576 -0.14598216 -0.1948741 0.031242827
0.18980388 -0.0016461683 -0.009159226 0.1638955 -0.17853244 0.15302004 -0.14637169 -0.004898396
-0.0046919975 -0.22498728 0.08724988 -0.15858275 -0.005083561 0.1877282 0.004234369 -0.0024726416
-0.14515346 -0.1590239 0.121947855 -0.0023173557 0.18616451 -0.0017544564 -0.041210704 -0.12542342
0.11181128 -0.20458306 0.110517405 -0.052287605 0.020113043 -0.098754816 0.094457544 -0.05773159
00000000: 195d 123e 7410 e2bc 0913 28be a908 5ebe
00000010: f8e2 01be 26b7 87be e49e 7b3d d464 ce3d
00000020: 5879 7ebb 78ed 22be bad2 7c3d 6041 99bd
00000030: 6c41 433e 952b 753e a44b 61be f7ac 393d
00000040: 10c1 0dbd 972e 783d 15b8 d73d badd e33b
00000050: 77bd fb3d f175 37be 3e0c 963e 3400 3ebe
00000060: 43ba 5fbd 1603 52bb cce3 01bc a612 953e
00000070: 1d01 28bd 7aaa 55bd 44a9 4cbe 9ddb 1f3e
00000080: 56c2 2cbe 041f b8bd c18f 9f3c e604 afbd
00000090: 2da8 093e bcfa 293d c482 403e 2d4e 423c
000000a0: 4504 39be 37cd e2bd 118a b3bb 2d89 26be
000000b0: 015f 353e 641e c23d 22a0 0ebd 3fef 52be
000000c0: f4c9 0cbe 47d1 d13c 7f5b 45be adc8 38be
000000d0: 94b9 0c3e d19e 2a3e 67ee 563e 254e d13d
000000e0: 70b1 20be 12a1 2c3e 1133 213e 0a82 693e
000000f0: 1c85 9cbd 597c 15be 138d 47be f5f0 ff3c
00000100: f35b 423e 3ec4 d7ba 9410 16bc 39d4 273e
00000110: 35d1 36be 49b1 1c3e 76e2 15be b982 a0bb
00000120: 54bf 99bb 1163 66be 11b0 b23d 8463 22be
00000130: 0094 a6bb d23b 403e 76c0 8a3b 0b0c 22bb
00000140: 1ca3 14be 29d7 22be ccbf f93d c7de 17bb
00000150: e9a1 3e3e caf5 e5ba 8ecc 28bd ff6e 00be
00000160: 50fd e43d 397e 51be f356 e23d 872b 56bd
00000170: 1cc4 a43c f73f cabd f572 c13d f677 6cbd

att_dst f4 [1, 1, 96]
-0.07781558 0.119292654 0.060254633 -0.041226353 -0.10489842 0.11043743 -0.08120716 -0.1502934
0.13006815 0.150452 -0.1132812 0.0827014 0.098105386 -0.09845151 -0.06117317 0.06913921
-0.081352495 0.15009607 0.008868577 0.10092288 0.15546338 0.15628313 -0.034241114 -0.0921026
0.08372253 0.06541665 0.16480969 -0.007605842 -0.048026063 0.100686535 0.24736457 -0.1473654
0.16086519 -0.09668207 0.16889124 0.014380675 -0.06076043 -0.049290128 0.14846443 0.047527958
0.007378413 -0.023816925 0.06295301 0.13244636 -0.0059504593 0.13019572 0.0010982838 0.14789797
-0.03474205 -0.015305061 0.15714414 -0.04060458 -0.08807329 -0.041845363 -0.029445227 0.10744152
0.18357238 0.1425503 0.12366412 -0.08938056 0.14674404 -0.14369614 0.022047037 0.105748825
0.095891215 0.111732736 0.045663357 0.08797403 0.10736821 0.13251604 0.14653003 0.118032314
0.16876464 -0.05006905 -0.06258435 0.21102269 0.08078262 -0.12695241 0.09162515 0.10673346
0.068199694 0.10239087 0.109545246 -0.038050402 -0.12887977 0.05624888 0.15151872 0.011330355
0.0866422 0.15501978 0.10231799 -0.036036804 0.046897143 0.0973222 0.11899405 -0.038794704
00000000: c65d 9fbd b54f f43d 90cd 763d f7dc 28bd
00000010: fcd4 d6bd 052d e23d f14f a6bd 83e6 19be
00000020: 9630 053e 1710 1a3e f9ff e7bd 5a5f a93d
00000030: 7aeb c83d f2a0 c9bd b890 7abd dc98 8d3d
00000040: 239c a6bd c9b2 193e 824d 113c a8b0 ce3d
00000050: cb31 1f3e af08 203e 6940 0cbd 4aa0 bcbd
00000060: b876 ab3d 2af9 853d dfc3 283e 6d3a f9bb
00000070: fab6 44bd be34 ce3d 234d 7d3e f5e6 16be
00000080: d8b9 243e 4001 c6bd d3f1 2c3e ec9c 6b3c
00000090: eedf 78bd 72e4 49bd 0f07 183e adac 423d
000000a0: 9dc6 f13b b61b c3bc 82ed 803d 05a0 073e
000000b0: 12fc c2bb 0752 053e 4af4 8f3a 9172 173e
000000c0: ae4d 0ebd 14c2 7abc 65ea 203e fd50 26bd
000000d0: c55f b4bd 0b66 2bbd 1e37 f1bc 4d0a dc3d
000000e0: 66fa 3b3e b5f8 113e 9d43 fd3d 280d b7bd
000000f0: 1244 163e 1525 13be fd9b b43c d792 d83d
00000100: 9d62 c43d 22d4 e43d 8009 3b3d ba2b b43d
00000110: dde3 db3d 49b2 073e f80b 163e edba f13d
00000120: a3d0 2c3e 3415 4dbd 392c 80bd 5516 583e
00000130: 5c71 a53d d0ff 01be f7a5 bb3d 1397 da3d
00000140: 48ac 8b3d 4eb2 d13d 4259 e03d bdda 1bbd
00000150: 0ff9 03be 3a65 663d b927 1b3e f4a2 393c
00000160: 7771 b13d 81bd 1e3e 188c d13d 549b 13bd
00000170: 3817 403d dd50 c73d 27b3 f33d 32e7 1ebd

bias f4 [96]
0.11347189 -0.031000102 0.07510093 -0.06651852 0.08930986 -0.0904863 -0.023135161 -0.093657345
3.564838e-38 -0.031292226 0.037535217 0.009729082 -0.044938378 0.15131688 0.07836846 1.9269442e-05
0.03961639 -0.049468443 -0.019464849 -0.00023096167 -0.059288945 -0.040585935 0.1385629 0.13710707
-0.08359935 -3.4039795e-07 2.532308e-38 -0.19833636 0.061902236 0.18331197 0.011351242 -0.00047972045
-0.0048870556 0.14524455 -0.12925605 0.024537109 -0.028298859 0.23923711 -0.0007066387 0.0044011083
-0.10410058 -0.09173504 -0.029950539 -0.027478728 0.14024404 -0.0014825452 0.034451876 0.013186601
0.1910179 0.022346994 -0.033609975 -0.147571 0.094770476 -0.15153334 -0.17977579 -0.0068112216
-0.08406564 0.03697597 -0.08014527 0.073147126 -0.0492494 0.02404582 0.10755905 -0.06376915
-0.0070251147 -0.0074126036 -0.00023137564 -0.13416682 -0.04267401 -0.04201963 0.10948535 9.411535e-36
6.559125e-38 0.3560147 0.08302374 -0.008837148 -2.71648e-07 -0.20075682 0.111968994 5.7019776e-38
0.11909523 0.004367677 -0.024261251 0.08975667 -0.12447624 -2.9582068e-08 -0.047403507 0.3106428
-0.0092128115 -0.016652022 0.26392162 0.10029205 0.010956338 0.06631151 0.10583376 -0.07335197
00000000: f363 e83d edf3 fdbc 84ce 993d dd3a 88bd
00000010: 16e8 b63d e250 b9bd f385 bdbc 6ccf bfbd
00000020: 9716 4201 472c 00bd 87be 193d ba66 1f3c
00000030: 4e11 38bd d0f2 1a3e a57f a03d d0a4 a137
00000040: cc44 223d 6c9f 4abd bf74 9fbc 4d2e 72b9
00000050: f7d8 72bd 703d 26bd 6fe3 0d3e cc65 0c3e
00000060: 2336 abbd f0bf b6b4 39df 0901 b018 4bbe
00000070: 338d 7d3d 22b6 3b3e 8ffa 393c fd82 fbb9
00000080: 9823 a0bb fdba 143e b35b 04be 0c02 c93c
00000090: 02d3 e7bc 93fa 743e b83d 39ba 2c37 903b
000000a0: af32 d5bd 95df bbbd d55a f5bc 121b e1bc
000000b0: 229c 0f3e f651 c2ba 691d 0d3d 9d0c 583c
000000c0: 329a 433e 0b11 b73c 9daa 09bd da1c 17be
000000d0: 0617 c23d 8e2b 1bbe 2517 38be ab30 dfbb
000000e0: 9b2a acbd 1d74 173d 3423 a4bd 29ce 953d
000000f0: bdb9 49bd bdfb c43c eb47 dc3d 6699 82bd
00000100: ef32 e6bb 6de5 f2bb 6d9d 72b9 0763 09be
00000110: f1ca 2ebd c71c 2cbd db39 e03d 4529 4805
00000120: 6e8e b201 8f47 b63e 5a08 aa3d afc9 10bc
00000130: 04d7 91b4 3293 4dbe 0050 e53d fc38 9b01
00000140: 33e8 f33d bb1e 8f3b 88bf c6bc 58d2 b73d
00000150: 66ed febd a81b feb2 2e2a 42bd 930c 9f3e
00000160: 55f1 16bc d269 88bc bc20 873e eb65 cd3d
00000170: 3682 333c 54ce 873d 5fbf d83d 8f39 96bd

weight f4 [96, 96]
-0.0056498 -0.027538449 0.025322087 -3.9997318e-38 -0.007610186 0.1015969 -0.004325778 0.06707025
7.326148e-30 0.0017337723 0.024213973 -0.019382667 -0.07707608 -0.031487178 -0.0102186985 -0.060319964
0.0023090462 -0.0025998116 0.08049021 -0.111274175 -0.0053910054 -0.004710526 0.09739195 -0.13658877
0.11465402 0.04099998 0.20266138 0.048802245 0.03100746 0.19510464 0.020006029 -0.124740645
-0.010130663 0.16974151 0.014476626 -0.13250403 0.08725875 0.022072585 -0.00020071706 6.368986e-39
0.009018076 0.059825294 -6.581557e-38 0.042586293 -0.011849863 -0.1039104 0.08531208 0.09460559
0.06706437 -2.2178525e-38 -0.14239208 0.049604338 0.05778504 0.0015467423 0.044816647 -0.11757335
0.01674035 0.04320865 0.059097715 -0.0154873105 0.00900417 0.08321949 2.659754e-35 0.113827065
-4.5509984e-38 0.017112272 0.11852358 0.021873837 0.04094303 0.053256925 -0.11518862 -0.04120384
-0.005751436 8.480173e-39 -0.046902213 -0.108745664 0.081632756 0.010013525 0.07160175 0.13324161
0.110328004 0.1126029 -0.22810999 0.034126557 -0.010654682 -0.011338898 -0.1601541 -0.10222062
0.10202932 -2.0231166e-27 -0.13507676 0.010076399 -0.1801896 0.061598998 0.0045410055 0.062619776
0.1478947 -0.095734745 0.056250382 6.384582e-38 -0.017787129 0.016485345 0.028494118 0.013163061
5.676888e-38 0.03714325 -0.082608 0.06701025 0.03210167 -0.10221148 0.065075845 0.10731493
-0.010109248 -1.386122e-07 0.08049412 0.16085045 -3.6126904e-13 -5.823578e-05 0.094061114 -0.08996164
-0.09356083 -0.021029588 -0.12571456 -0.16235408 -0.06956873 -0.1527544 -0.105845325 -0.012545447
-0.0068593747 -0.03816204 -1.8922289e-07 -0.12111713 0.025722096 -0.033734374 6.757343e-09 5.356973e-39
-0.0039428202 -0.11574852 6.4907685e-38 -0.019333059 -0.028173443 -0.10483291 -0.015006235 0.061455105
0.0061342176 8.059571e-39 0.03654265 0.020122174 0.007538089 -3.6173137e-08 0.12763217 0.07011566
-0.048168704 -0.041507415 0.05418218 -0.0003466692 -0.0036763242 -0.07312238 5.8006215e-13 0.050488304
5.1747464e-38 0.075006686 0.10004542 0.013305148 0.006138742 -0.12941538 -0.08956385 0.124952935
-0.019061405 -3.5462778e-38 0.19412506 0.119280614 -0.15711524 2.3342279e-27 0.11184537 0.10301724
-0.056646954 -0.1651 -0.029117825 0.05659285 0.10117596 -0.12331781 -0.1534046 -0.0033351956
-0.11367064 2.0726094e-23 -0.06966992 -0.1274237 0.04435154 0.016245205 -0.08449643 -0.12014577
0.22364499 -0.15943737 0.018446278 4.980502e-38 -0.029534299 0.047382873 0.20783815 -0.021652749
-6.6322425e-38 0.055469353 -0.15020436 -0.04401266 -0.016582577 -0.005512128 0.04053604 0.20062034
0.07768291 -0.00016623327 -0.15385464 0.083344325 -0.012513191 0.0011378195 -0.09422773 -0.09595559
0.010108123 -0.027467187 -0.2499907 0.024170104 -0.10108843 0.05105626 -0.081760876 0.1239022
0.012805453 -0.07543345 -0.0011595446 -0.1331055 -0.067537844 0.044000912 0.012584095 -3.6245644e-38
0.010241161 -0.12836501 3.6597428e-34 0.044576112 -0.08296102 -0.3517642 -0.0110518895 -0.17164661
0.026493201 2.4870447e-38 0.08057671 0.002064182 0.10433436 -8.366614e-05 -0.21394852 0.07690207
-0.015743455 -0.011098837 0.2465407 -0.0039539817 0.008011305 0.15656626 -3.908698e-39 0.00021670281
00000000: f521 b9bb 5098 e1bc 4470 cf3c 20c4 5981
00000010: de5e f9bb 0912 d03d 42bf 8dbb 215c 893d
00000020: 8997 140f bf3f e33a 625c c63c 66c8 9ebc
00000030: 10da 9dbd b3f8 00bd 546c 27bc 1112 77bd
00000040: 5e53 173b 9a61 2abb 0dd8 a43d b7e3 e3bd
00000050: 08a7 b0bb c25a 9abb 6e75 c73d eddd 0bbe
00000060: bacf ea3d 98ef 273d 7786 4f3e dde4 473d
00000070: 5b03 fe3c 83c9 473e afe3 a33c 0678 ffbd
00000080: 15fb 25bc b8d0 2d3e 5f2f 6d3c 23af 07be
00000090: b7b4 b23d 91d1 b43c 9377 52b9 245a 4500
000000a0: 8dc0 133c 5e0b 753d c22a b381 f76e 2e3d
000000b0: ee25 42bc face d4bd 1ab8 ae3d 93c0 c13d
000000c0: 0b59 893d b480 f180 3bcf 11be eb2d 4b3d
000000d0: 02b0 6c3d 0fbc ca3a a991 373d 4cca f0bd
000000e0: 0f23 893c 8efb 303d 7210 723d 7dbe 7dbc
000000f0: 3a86 133c fb6e aa3d b26a 0d06 2a1e e93d
00000100: a9c7 7781 092f 8c3c 7ebc f23d c330 b33c
00000110: e1b3 273d ef23 5a3d 03e8 ebbd 5cc5 28bd
00000120: 8b76 bcbb 4657 5c00 891c 40bd 0cb6 debd
00000130: 132f a73d c50f 243c f0a3 923d 7d70 083e
00000140: a6f3 e13d 599c e63d aa95 69be 4ac8 0b3d
00000150: fa90 2ebc c9c6 39bc 70ff 23be 0b59 d1bd
00000160: c0f4 d03d ae49 2093 9051 0abe 7b17 253c
00000170: 9f83 38be 3b4f 7c3d b7cc 943b cc3e 803d
00000180: b571 173e 9410 c4bd cd66 663d 0bce ad01
00000190: 50b6 91bc 460c 873c 7f6c e93c e1a9 573c
000001a0: 238a 9a01 8523 183d 622e a9bd ac3c 893d
000001b0: 0a7d 033d 4154 d1bd 7c46 853d eec7 db3d
000001c0: 42a1 25bc 6ed5 14b4 1ada a43d fbb5 243e
000001d0: 5b60 cbaa 3142 74b8 1da3 c03d cf3d b8bd
000001e0: d29c bfbd 3e46 acbc 51bb 00be 2640 26be
000001f0: 0d7a 8ebd a66b 1cbe 6fc5 d8bd 6b8b 4dbc
00000200: 9bc4 e0bb cd4f 1cbd 312d 4bb4 420c f8bd
00000210: 25b7 d23c 0e2d 0abd 382e e831 1055 3a00
00000220: c632 81bb 8f0d edbd 0eb2 b001 5d60 9ebc
00000230: fecb e6bc a3b2 d6bd b6dc 75bc 59b8 7b3d
00000240: 8c01 c93b cec2 5700 bfad 153d 42d7 a43c
00000250: 1302 f73b c95c 1bb3 02b2 023e cd98 8f3d
00000260: 8c4c 45bd ae03 2abd 22ee 5d3d 27c1 b5b9
00000270: 7cee 70bb 30c1 95bd e245 232b d3cc 4e3d
00000280: b8de 8c01 1b9d 993d 9de4 cc3d d6fd 593c
00000290: 8027 c93b 7785 04be 406d b7bd 53e7 ff3d
000002a0: aa26 9cbc e613 4181 b8c8 463e 6549 f43d
000002b0: d1e2 20be c4ef 3813 2f0f e53d b4fa d23d
000002c0: a306 68bd f90f 29be 8188 eebc e7cd 673d
000002d0: 5735 cf3d 0c8e fcbd 1816 1dbe 4c93 5abb
000002e0: 27cc e8bd 5373 c819 1aaf 8ebd 5c7b 02be
000002f0: f6a9 353d aa14 853c 770c adbd fc0e f6bd
00000300: 3103 653e 8d43 23be a61c 973c 0895 8701
00000310: eaf1 f1bc 8b14 423d 86d3 543e 1b61 b1bc
00000320: fc8b b481 d533 633d 2ccf 19be 9e46 34bd
00000330: 2fd8 87bc 159f b4bb 1e09 263d 6b6f 4d3e
00000340: 3818 9f3d e74e 2eb9 128c 1dbe 6eb0 aa3d
00000350: 2104 4dbc e322 953a 78fa c0bd 5d84 c4bd
00000360: 8a9c 253c de02 e1bc 90fd 7fbe 6200 c63c
00000370: 7307 cfbd 5e20 513d 3f72 a7bd 70c0 fd3d
00000380: f6cd 513c da7c 9abd dcfb 97ba cf4c 08be
00000390: 4851 8abd 4d3a 343d 852d 4e3c 0e57 4581
000003a0: 8bca 273c 1e72 03be 4c3b f307 7195 363d
000003b0: 78e7 a9bd 701a b4be fc12 35bc 21c4 2fbe
000003c0: 4508 d93c 5868 0701 6705 a53d 3a47 073b
000003d0: 41ad d53d eb75 afb8 5215 5bbe d57e 9d3d
000003e0: 6bf8 80bc e5d7 35bc 2a75 7c3e 6790 81bb
000003f0: d941 033c e852 203e dc8f 2a80 b83a 6339

att_src f4 [1, 1, 96]
0.12724935 -0.05922601 0.12687872 0.0035008325 0.14779261 -0.05351278 0.08032439 0.10644739
-0.11847081 -0.028928254 -0.17850214 -0.0032225084 -0.1664982 0.114426255 -0.015117972 -0.09117286
-0.079361945 -0.033353027 -0.18954112 0.2425689 0.12184185 0.26585978 0.13857293 0.14215001
0.28476042 0.049190894 -0.073834725 0.09828929 -0.11421079 0.032196075 0.03656924 -0.034639657
0.0565972 0.19620362 -0.19926111 -0.2524745 -0.016106607 0.07189302 0.27064526 -0.15372619
0.17716695 0.026761666 0.20944749 0.0015805938 0.033779 -0.07738144 0.25623795 0.21838379
-0.0021843384 0.15251243 0.047869705 0.17703503 -0.16922465 -0.17760919 -0.08960932 -0.003073734
0.039629497 0.079202235 0.15779108 0.00063044595 0.03940222 -0.019187905 -0.020730361 0.010107148
0.2271341 -0.05236595 -0.23283486 0.05769125 -0.12667093 -0.044801522 0.22521885 0.027064592
0.08421851 -0.103098296 0.011820184 0.15244693 -0.19474241 -0.10406823 -0.18992107 -0.058052067
0.17510958 -0.22519423 0.309673 0.10258342 -0.07336713 -0.09711315 0.00035058695 0.2032558
0.20402013 -0.10569819 0.13223875 0.26213127 0.036627483 -0.06767299 -0.059301477 0.22935364
00000000: a74d 023e f996 72bd 7fec 013e 396e 653b
00000010: f256 173e 3830 5bbd 1d81 a43d 1701 da3d
00000020: d3a0 f2bd f2fa ecbc 44c9 36be b830 53bb
00000030: 817e 2abe 5058 ea3d 5fb1 77bc d6b8 babd
00000040: 8488 a2bd 2f9d 08bd 1117 42be fb63 783e
00000050: 3888 f93d c61e 883e 10e6 0d3e c68f 113e
00000060: 1ecc 913e 647c 493d a936 97bd e54b c93d
00000070: 59e7 e9bd 08e0 033d a1c9 153d 50e2 0dbd
00000080: 77d2 673d 9ae9 483e 1b0b 4cbe 5644 81be
00000090: 01f2 83bc a63c 933d 0492 8a3e 666a 1dbe
000000a0: 416b 353e 483b db3c 6779 563e ed2b cf3a
000000b0: d95b 0a3d 297a 9ebd 9f31 833e 00a0 5f3e
000000c0: 1e27 0fbb 382c 1c3e 0613 443d ac48 353e
000000d0: 3a49 2dbe 2fdf 35be 1785 b7bd b370 49bb
000000e0: 8a52 223d c834 a23d fc93 213e 8344 253a
000000f0: 3964 213d f42f 9dbc b8d2 a9bc 7498 253c
00000100: d795 683e ae7d 56bd 436c 6ebe a94d 6c3d
00000110: 06b6 01be cd81 37bd c59f 663e 90b6 dd3c
00000120: c17a ac3d 3325 d3bd 72a9 413c 0c1b 1c3e
00000130: 8e6a 47be b921 d5bd ab7a 42be 01c8 6dbd
00000140: ed4f 333e 5199 66be 768d 9e3e 4217 d23d
00000150: 8141 96bd 42e3 c6bd fcce b739 4a22 503e
00000160: a7ea 503e 4b78 d8bd 9869 073e 1236 863e
00000170: b306 163d 2398 8abd 1be6 72bd aedb 6a3e

att_dst f4 [1, 1, 96]
-0.011014282 0.020739757 0.011122345 0.064859435 -0.037716903 -0.048476435 0.05551372 0.009146879
-0.02720639 -0.08089161 0.035543874 -0.012461666 0.04274226 -0.030819466 -0.06612766 0.0763638
0.04570725 -0.11166994 -0.0493851 0.071780816 0.06773613 -0.03633357 0.09110936 0.016280854
0.070117116 0.028878737 0.00992173 0.04353153 -0.017606802 0.059781365 -0.061120354 -0.01462137
-0.038965892 -0.012014076 -0.007666659 0.07727307 -0.017294459 -0.00468953 0.040280003 -0.079089664
0.04331462 -0.015589737 0.044642817 0.013248213 -0.028173415 -0.104101874 0.026058206 0.046364736
0.027491385 -0.029607298 -0.00853784 0.0856751 -0.0062583345 0.0007067342 -0.0035759942 0.018836692
-0.05900641 -0.05243266 -0.02881671 0.029087164 0.026233034 -0.0033921578 0.00928264 0.07049537
-0.0077952947 0.059971295 0.027257249 -0.035032857 0.07120657 0.039197676 0.024689572 0.053806305
-0.012545871 -0.06448702 0.0184367 0.050958753 -0.03654712 -0.13313626 -0.00885737 -0.04581572
0.045740474 -0.018826544 -0.071046695 -0.024929175 0.09985062 0.039734833 -0.00025311986 0.030481502
0.01388396 0.022094525 0.040774442 0.05852779 0.016454965 0.04204235 0.02050779 -0.089111075
00000000: 3f75 34bc 6ce6 a93c 7f3a 363c 06d5 843d
00000010: 0a7d 1abd 3a8f 46bd 5b62 633d cbdc 153c
00000020: efdf debc 80aa a5bd 7496 113d 042c 4cbc
00000030: 8212 2f3d 1b79 fcbc f06d 87bd a064 9c3d
00000040: 8637 3b3d 36b3 e4bd 0848 4abd d201 933d
00000050: 3db9 8a3d 82d2 14bd 8b97 ba3d 6d5f 853c
00000060: 9099 8f3d 1a93 ec3c c08e 223c 1e4e 323d
00000070: 243c 90bc 4edd 743d 5659 7abd 788e 6fbc
00000080: b39a 1fbd b0d6 44bc 9938 fbbb 5841 9e3d
00000090: 1cad 8dbc a1aa 99bb a5fc 243d c3f9 a1bd
000000a0: ac6a 313d 196c 7fbc 63db 363d 080f 593c
000000b0: efcb e6bc 5d33 d5bd 0578 d53c f3e8 3d3d
000000c0: 9d35 e13c 018b f2bc 4ce2 0bbc 6d76 af3d
000000d0: b712 cdbb 2144 393a 3a5b 6abb 684f 9a3c
000000e0: b5b0 71bd a1c3 56bd 0511 ecbc 3448 ee3c
000000f0: a9e6 d63c f74e 5ebb 3716 183c e05f 903d
00000100: ac6f ffbb 76a4 753d 984a df3c 9d7e 0fbd
00000110: c0d4 913d be8d 203d c941 ca3c 0064 5c3d
00000120: 328d 4dbc c511 84bd 9008 973c 20ba 503d
00000130: 6fb2 15bd df54 08be 811e 11bc 44a9 3bbd
00000140: 5d5a 3b3d 203a 9abc ee80 91bd 4538 ccbc
00000150: 7b7e cc3d fec0 223d 2cb5 84b9 58b4 f93c
00000160: 8d79 633c 94ff b43c 1a03 273d d6ba 6f3d
00000170: 90cc 863c 9934 2c3d f4ff a73c de7f b6bd

bias f4 [96]
0.33970392 0.11920744 -0.0043567335 2.6275843e-38 -0.014009365 0.010559544 0.10605238 -0.01569909
0.11077601 0.07543976 -0.035815686 0.0012861616 0.09560123 -0.014046072 -0.04204915 -0.03009343
-0.16376215 -0.0021457106 0.05172949 0.0371249 -0.009269661 -0.019503064 0.18191731 -0.040608335
-1.4176016e-10 0.20371372 0.051507946 -0.00924124 -0.07724654 -1.6935492e-07 0.024447514 0.026120337
-0.10133693 -0.09085133 0.070061654 -0.02616988 0.28328872 0.15479633 -0.0027404216 -0.06593745
-0.0089663 0.14400536 -0.01512141 -9.26721e-05 0.142424 0.016019322 0.13462105 -7.084047e-06
-6.438841e-05 -0.0033995807 0.27037707 -0.022646004 -0.0057758456 0.082297824 -0.05589124 -0.008511565
0.013385986 -0.028240826 -0.031140694 -1.2069664e-05 0.0439651 0.15980618 0.021942286 0.0013877093
0.20358548 -0.02269302 -0.09503632 -0.032027796 -0.07103095 0.024630396 0.43054223 -2.484184e-39
0.101409115 -0.026787138 -0.011550041 0.09045512 -0.077846296 0.123289675 -0.04005725 -0.1402838
-0.12615342 0.051768873 0.044528767 -0.0977173 0.002860695 0.037346058 -0.010808283 0.007778112
0.20576872 0.15027788 -0.060045633 -0.00047331306 -0.0056104413 -0.00026459206 0.08180596 -0.037808053
00000000: aced ad3e 0823 f43d eec2 8ebb 2e0f 0f01
00000010: 8987 65bc f001 2d3c fd31 d93d 619b 80bc
00000020: 88de e23d 2980 9a3d 78b3 12bd 6c94 a83a
00000030: 94ca c33d 7f21 66bc bb3b 2cbd 7f86 f6bc
00000040: 44b1 27be 0d9f 0cbb 4de2 533d 4710 183d
00000050: c7df 17bc e4c4 9fbc 8848 3a3e ed54 26bd
00000060: f0dd 1baf 549a 503e fff9 523d 9268 17bc
00000070: 6f33 9ebd edd7 35b4 2746 c83c 51fa d53c
00000080: bd89 cfbd 4310 babd 7c7c 8f3d 3762 d6bc
00000090: 380b 913e ee82 1e3e a598 33bb 370a 87bd
000000a0: 63e7 12bc 2476 133e cabf 77bc f458 c2b8
000000b0: 99d7 113e f43a 833c 1ada 093e 80b3 edb6
000000c0: 4408 87b8 80cb 5ebb dd6e 8a3e 1d84 b9bc
000000d0: 4e43 bdbb c38b a83d 36ee 64bd 1774 0bbc
000000e0: e550 5b3c 4e59 e7bc c51a ffbc d07e 4ab7
000000f0: c014 343d 3ba4 233e 4fc0 b33c cce3 b53a
00000100: b678 503e b6e6 b9bc 67a2 c2bd 942f 03bd
00000110: ad78 91bd afc5 c93c 0870 dc3e e50c 1b80
00000120: 95af cf3d b370 dbbc 623c 3dbc 8940 b93d
00000130: e16d 9fbd 4c7f fc3d 1213 24bd 8ea6 0fbe
00000140: 5d2e 01be 990b 543d cc63 363d 0220 c8bd
00000150: 7f7a 3b3b 2ef8 183d 3a15 31bc 88df fe3b
00000160: 09b5 523e 72e2 193e 69f2 75bd 0127 f8b9
00000170: cbd7 b7bb f2b8 8ab9 e289 a73d 9edc 1abd
