gnn_medium/siamese-gnn-fold-2_90.pt (torch, 227671 bytes, 26 tensors)

att_src f4 [1, 1, 96]
00000000: c803 03bd 0d09 babd a0ee fc3d fea2 fa3d
00000010: 7130 7dbd 0a1d b5bd 4a9b 4e3e 08e8 7d3b
00000020: 79a9 c03d 1831 863c 795f 823d 0dc4 ddbc
00000030: 2f76 d03d e74e 043e 45a8 68be 02dc 643e
00000040: c26c 76ba 011a 2c3e 5c8d e53b 9459 703e
00000050: 341c 093e fbe0 0fbe b3b0 2f3e bc18 18be
00000060: b061 15be a7a1 19be a6b3 6fbe c180 1a3d
00000070: f12d e83d 2e69 00bd 04d4 0d3e ed07 21be
00000080: f50a 323e 924a efbd 9052 15bd e6ab 1abe
00000090: ac67 4fbe 425f eb3b c07d a23d 4d70 303e
000000a0: b6df 06be 81af 0c3e a667 8dbc 62fb 693d
000000b0: ab4c 313e d715 8c3d 49f1 6b3c a270 e23d
000000c0: a21b 883e e20a 25be 7578 36be becf d73d
000000d0: 0f5a 4d3e 194d 213e 8006 d0bb a613 213e
000000e0: d15d be3d 38ec 313d 8c36 103e 042f 0c3e
000000f0: 3d3c 1a3e 8c68 8039 df09 1b3d 11d0 24be
00000100: a0b2 b63d c1a8 03be 201a 2d3e e8a5 59be
00000110: b1be ecbd 8e00 d4bd 5d80 223e b3f1 28be
00000120: ce08 15be 7dd3 36be afda 5a3e 12a6 803c
00000130: 7614 d7bd 0845 2d3e d124 613d 4e89 77bc
00000140: 14b2 bc3d cb7e d53d 571d 27be 8ca6 40be
00000150: cbc3 e23d a4f5 6bbe 0a01 99bc eab4 00be
00000160: 1096 81be a039 9ebd ec9e f23d 4c37 923d
00000170: 11bb ee3d 8004 50be cbc6 d3bd 6828 eebc
-0.031986028 -0.090837575 0.123502016 0.122381195 -0.061813775 -0.088434294 0.20176426 0.0038743038
0.09407324 0.016380832 0.06365866 -0.027071023 0.10178792 0.12920724 -0.2272044 0.22349551
-0.00094003615 0.16806795 0.0070053767 0.23471671 0.13389665 -0.14050667 0.17157249 -0.14853185
-0.14588046 -0.15003072 -0.23408374 0.037720446 0.11336888 -0.031350307 0.13850409 -0.1572568
0.17386992 -0.11684145 -0.03645569 -0.15104637 -0.20254391 0.0071829865 0.07934141 0.1723034
-0.13171276 0.13738824 -0.017261337 0.057124503 0.17314403 0.06840103 0.014400789 0.11056639
0.26583582 -0.16117433 -0.17819388 0.105376706 0.20053886 0.15752067 -0.006348431 0.15730152
0.09295238 0.043438166 0.14083308 0.1368981 0.15062042 0.00024491956 0.03785121 -0.16094996
0.08920789 -0.12857343 0.16904497 -0.21254694 -0.11559809 -0.10351668 0.15869279 -0.16498451
-0.1455414 -0.17854114 0.21372484 0.015704188 -0.105019495 0.16920865 0.05496675 -0.01510842
0.09213653 0.104245745 -0.16319786 -0.18813533 0.11072501 -0.23042923 -0.018677253 -0.12569013
-0.253098 -0.07725835 0.11846718 0.07139453 0.11656774 -0.20314217 -0.10340651 -0.029072002

att_dst f4 [1, 1, 96]
00000000: e2a6 6abd 4bb9 fdbd 2344 4f3d 01de 433d
00000010: d1d3 e1bd 6cdd 6cbc 37cf 4ebe 44b4 f2bb
00000020: b817 633d 8b73 99bd 556b c0bc f6ee 6f3d
00000030: e05a 963d 1baf fa3c 8b49 5fbc 7e36 d5bd
00000040: 031e 073e db8a adbd 58aa 833d 515d 313c
00000050: 5434 733d 493b 593e d123 dabd 2ee6 f3bd
00000060: 4226 993d 6e6a 023e 78b7 cb3d 4270 d5bc
00000070: c297 b0bc 73a3 95bc 4e2d b3bd f61f f1bd
00000080: 7118 a33d 742b a43c 3327 f33d d2a4 873e
00000090: e592 53bd dd06 023d 6231 553d f833 223e
000000a0: aaa1 533d 313b 273c 67a1 e93b 1d61 6c3d
000000b0: a27a 11be 4b20 41bd cb2e 05bd 4b48 20be
000000c0: b98d 8cbd b9e9 2e3d 5219 7ebd 5704 c13d
000000d0: f0c8 c4bc c293 27bd e4d6 993d d0c1 4a3d
000000e0: 5910 683d 5385 273d c0a6 4cbd 775e 243e
000000f0: 31a2 c93c 793b 583c 217d 88bb 4d8c 0d3e
00000100: f4a5 e63c 2228 773c 4c88 7f3d 0fbf f4bc
00000110: d345 353d 855d b2bd f030 c63d ca70 2a3d
00000120: 934d 793e 12d4 cfbd edf3 a23b 3510 14be
00000130: 302b bdbb c39e 993d e7a7 a63a 6c8d 35bd
00000140: a87c 0dbc c55a afbc 1f7d 8fbd 8e9c acbd
00000150: c105 003d 1360 7b3c 3580 94bc d3e8 943d
00000160: ed7f 0abd 0b50 203d 0738 10bd 23de cb3d
00000170: 56c0 ae3d 133b afbd 5226 c4bb b391 f33c
-0.057288058 -0.123888575 0.05060209 0.04781914 -0.11026729 -0.014457088 -0.20196234 -0.0074067432
0.05544254 -0.07492741 -0.02348868 0.0585775 0.07341552 0.030601075 -0.013628374 -0.10410784
0.13195042 -0.0847375 0.06428975 0.010825471 0.059376076 0.21214022 -0.10651363 -0.11909138
0.07478 0.12735912 0.09947103 -0.026054505 -0.021556739 -0.018266415 -0.087488756 -0.11773674
0.07963646 0.020040251 0.11872711 0.26492935 -0.05165376 0.031744827 0.05204905 0.15840137
0.051667847 0.010206983 0.0071298364 0.057709802 -0.14206937 -0.047149938 -0.03251533 -0.15652578
-0.06862969 0.042703364 -0.062035866 0.09424656 -0.024021596 -0.040912397 0.0751169 0.04950124
0.056656215 0.040898632 -0.049963713 0.1605166 0.024613472 0.013197773 -0.004165307 0.13823052
0.028155304 0.015085252 0.062385842 -0.02987626 0.044256043 -0.08709244 0.09677303 0.04161147
0.24345998 -0.10147871 0.004972926 -0.14459307 -0.0057729706 0.075009845 0.0012714834 -0.044324324
-0.008635677 -0.021405587 -0.07006287 -0.08428298 0.031255487 0.01534273 -0.01812754 0.0727097
-0.033813406 0.039138835 -0.03520968 0.099544786 0.08532779 -0.085561894 -0.0059860134 0.02973256

bias f4 [96]
00000000: 7bcf 16be b9ed 44bc 016e 9cbc 647b 32bc
00000010: 0c6d 093e 4389 ad3c 687a 21be 0de5 193e
00000020: 4408 0a3d 82c2 093c 277c a93b 1753 bf3d
00000030: 5f74 423d 2945 583c 5db8 30be 03b2 353d
00000040: 02b4 9480 02e1 913d 747d d73d b308 8dbd
00000050: 6290 3dbc 0000 0000 d3a2 183d 9619 20bb
00000060: af84 c93c 9fbf 77be 0def 67bc c8cb 4dbe
00000070: 905c 123c 96e7 3781 9821 33bc 6b80 5fbd
00000080: 9afe 0f3d ae2b 12be 0000 0000 0000 0000
00000090: 6d53 053e 7f7f 7f3e 2411 18be 8441 8cbb
000000a0: c247 a23b d420 ba3c c5b4 8f3d 44b2 e73d
000000b0: a094 7f3e a1e6 ea3d e6a8 923b 59b4 423e
000000c0: 6624 84bd 8551 763d 88ca 133c 57a2 17bb
000000d0: ce01 6abe c6c5 cfbd 5da2 66bc af23 87bc
000000e0: 22c5 083d 0000 0000 e501 9abd de78 083d
000000f0: 50ba f73c de98 dcbb 3d26 8dbd 0000 0000
00000100: 9da1 bfbb 4b07 edbc 0dde 1a3d e0cc 5ebe
00000110: 6a28 02bd aa6d 22bd 71f2 c8bd 18f2 2c3d
00000120: 0000 0000 e7c2 a53a e659 ae3d c666 863d
00000130: 9bfb bc3d 9155 8dbe cda7 0abd 2638 0fbd
00000140: a9f9 3e3e fbb4 f3bd 0000 0000 32e3 083e
00000150: 8736 5dbd b6e0 31bd 13cd 5d3e 70a3 cf3e
00000160: 0613 17be f64c 70be 2fdf 163d baee 043e
00000170: 3e5d 21be be2c b53d 0000 0000 6eb4 3cbe
-0.14727585 -0.012019568 -0.019095423 -0.010893676 0.13420504 0.021183616 -0.1576935 0.15028782
0.03369929 0.008408191 0.005172271 0.0934202 0.04747426 0.013200083 -0.17257829 0.04435922
-1.3656228e-38 0.07122995 0.10521975 -0.06886425 -0.011570068 0.0 0.037264656 -0.0024429313
0.024599401 -0.24194191 -0.014156115 -0.20097268 0.008933201 -3.3777946e-38 -0.010933302 -0.05456583
0.035154916 -0.14274475 0.0 0.0 0.13020106 0.2495098 -0.14850289 -0.004280271
0.004952402 0.022720732 0.07016901 0.11313298 0.2495904 0.1146977 0.0044757007 0.1901411
-0.06452255 0.060136337 0.009020455 -0.0023137534 -0.22852251 -0.10145144 -0.014076796 -0.016496507
0.033391126 0.0 -0.075198926 0.033318393 0.030240208 -0.0067320904 -0.06892059 0.0
-0.005848123 -0.028934142 0.03780942 -0.21757841 -0.031776823 -0.039655365 -0.09811867 0.042223066
0.0 0.0012646586 0.085132405 0.06562571 0.092276774 -0.27604344 -0.033851434 -0.034965657
0.18649925 -0.11899754 0.0 0.13367918 -0.05400708 -0.04342719 0.21660261 0.4055438
-0.1475335 -0.23466858 0.03683394 0.12981692 -0.15758225 0.088464245 0.0 -0.18428203

weight f4 [96, 10]
00000000: 591c 99bc cad9 453c 35dc c13d 5ed7 95bd
00000010: 0e8b 563e 8184 99bd 43e3 a63e 485b febd
00000020: fe13 0cbf 12fb ca3e 0922 c0be c37f fb3d
00000030: 496d cf3d 658b 4dbe ce94 d4bd c699 b4b9
00000040: a214 0ebe e3c5 93bd efcb 403e 68e8 9ebe
00000050: 2af1 e43d b16f 12be df20 fe3d d68d 5dbe
00000060: 2f4c 13be 6b4d 053e 4fb3 493e 0c60 5c3e
00000070: 41b9 e83d 05d0 b5be c6fe e33d acb7 7fbd
00000080: 1c65 6fbe 80db 013e 1bd9 103e 2923 8cbe
00000090: 00f6 063d 20f9 16be 6f7c 223d 2588 15bc
000000a0: 7ab5 65be fd3b 13bd 5f4a f1bd e095 643e
000000b0: 1f51 613e edf1 45be ffa3 af3c bc09 233e
000000c0: a074 3bbe 48e0 793e 0520 e4bc 1d2a c1bb
000000d0: c1da 1fbc 5db5 84bc 2905 e23d be25 363d
000000e0: b5aa e5bc abe0 94bd 6876 9dbe 532c 2a3f
000000f0: 66f3 db3d 4d7e 763d bb9f 333d 5052 cabd
00000100: 5051 773e 06de afbe 3ab9 0a3e 910a 1e3e
00000110: 6d47 953d b46f 9e3e 8dd9 ebbc be80 6c3a
00000120: 7651 d73b 7827 a1be b9b1 973e 6da3 b43d
00000130: f9a9 86be 0adc 8b3e 9330 86bc 9c1e a23e
00000140: edbd 51be 417e 433d 5c33 163e 87b6 cdbd
00000150: fbbd 09be 33c9 95bd bd49 883e c3f1 eb3d
00000160: b53b 54be b5c9 9a3e 4d4b 32be 39c8 3abe
00000170: 32e6 88be 0030 233e 6b91 d0bd 45b0 353d
00000180: 4be2 e73d 79b8 273e 009a 36be 79d6 93bd
00000190: 1bd9 ea3b 306f 3fbb 3d07 9eb9 7e71 66be
000001a0: eb39 313e e39c c2bc 889b 62be e193 913e
000001b0: 18f8 8b3e 5412 953e b279 91bd 56fc 92be
000001c0: ee5c 66bd a3c3 1e3e 53b2 d0bc 617b be3d
000001d0: 873f 3d3e 05ab 00be 4d7d 9d3d 839f 083f
000001e0: 431b 1c3e cf96 fdbc 91b5 e9bc d109 29be
000001f0: 6cfd de3d 0672 103d 4efe e9bc fbd3 84be
00000200: 65f0 9abe 6bc9 0dbf bf81 453e 84a4 f8bd
00000210: e600 323d 1185 6ebe a600 b1bd 3e5d 99bd
00000220: 4128 0e3e 9d9e 993d 06f9 35be 9608 df3d
00000230: c9f0 203e 3f15 9cbd 8cac 0cbe 0724 4cbe
00000240: 9538 0fbd 3056 453e d56c a73d 0106 243e
00000250: 981c b23d acdd ddbe 822b a7be 1f18 033e
00000260: e8e1 bebd b372 1abd f4ed ef3d 5e73 96bd
00000270: 6626 893d b658 f5bd bd45 0dbe 1583 db3e
00000280: f7ad 8dba 4cb3 bdbb c18d 8bba b68a cf3c
00000290: 98b2 f1bd 6ca1 ae3d 1aac 3dbb f782 11bd
000002a0: 7607 ad3b 4858 70bb 8314 3f3c 7dcb 39be
000002b0: 486e c4bc 3d47 6b3e de60 17be 7630 dcbc
000002c0: 9ae3 0cbe f4e5 403e 5209 4c3e c734 273f
000002d0: 85cc 2b3e 8079 2cbc 82aa 913d a625 b23c
000002e0: b1e4 4bbd c716 47be 4517 bebe 78a2 c03c
000002f0: 531c 37be 80b5 0d3f aa04 e4bc fe87 b13c
00000300: 3a8f 30bd 50a0 123e 6cf7 35bd f4f9 1ebe
00000310: 10e8 983e 77a0 f4bc 11cb bbbd d778 9d3e
00000320: a690 7b3e 76a7 f8bd 30a3 bf3d 7ae3 7ebc
00000330: 8008 173c 7746 55be 495e ca3d 4bc3 84be
00000340: 695f 8bbd ca4e 61bd 858a c1bd cc3b 54be
00000350: 0337 8dbd 3ed8 82be 411e 8e3d 70f9 1dbd
00000360: 714b 9abc 6d41 d9bd 27b5 903d c851 3a3d
00000370: b802 25bd d7d7 843d bafb 003e 7d35 823e
00000380: 6b66 b33d 0813 93be b248 8cbe 6347 7c3b
00000390: 885b 8ebd d138 7cbe 1272 e33d 0f5a 7e3d
000003a0: db7a 24be 16db 40be 4f54 583e 09db 533e
000003b0: f3c6 39be ff0f 67be c338 a1be 7907 d3be
000003c0: 17ca 8b3e 7ca6 0f3e d9bd 1a3e 8400 4cbe
000003d0: 8dfd 44be fb4d 11be e67a 7bbe 823e 90be
000003e0: 4e54 4cbe 9dde 05bf ca80 0d3e a46d 173d
000003f0: f038 1cbe 9283 583b 0add 02be c00a 14be
-0.018690275 0.012075851 0.09465829 -0.07316469 0.20951483 -0.07495976 0.32595262 -0.12419754
-0.54718006 0.39644676 -0.37525967 0.12280228 0.10128266 -0.20072706 -0.10379945 -0.00034446846
-0.13875058 -0.07215478 0.18827794 -0.31036687 0.11178811 -0.1430042 0.124086134 -0.21636137
-0.1438453 0.13017814 0.19697307 0.21521014 0.113634594 -0.3551027 0.111325786 -0.062431023
-0.23378414 0.12681389 0.14145319 -0.27370575 0.032949448 -0.14743471 0.03966945 -0.009126698
-0.22432509 -0.03594588 -0.11781763 0.22322798 0.22003601 -0.19330569 0.021440504 0.15921682
-0.18306208 0.24401963 -0.0278473 -0.005894913 -0.009756745 -0.016199762 0.110361405 0.044469588
-0.028035501 -0.072694145 -0.307544 0.66473883 0.10739784 0.060179044 0.043853503 -0.09878981
0.24152112 -0.34349078 0.13547221 0.15433718 0.07289014 0.30944598 -0.02879026 0.00090218696
0.00657099 -0.31475425 0.2962778 0.088202335 -0.26301554 0.27316314 -0.016380584 0.31663978
-0.20482607 0.047727827 0.1466803 -0.1004458 -0.13451378 -0.07313766 0.26618758 0.11520722
-0.20725901 0.30232015 -0.17411537 -0.18240441 -0.26738125 0.1593628 -0.10183986 0.044357557
0.11322459 0.16378964 -0.17832184 -0.07218642 0.0071669943 -0.002921056 -0.000301415 -0.22504231
0.1730725 -0.02375645 -0.22129643 0.28433135 0.27337718 0.29115546 -0.0710329 -0.28708142
-0.05624097 0.15504317 -0.025475657 0.093008764 0.18481265 -0.12565239 0.07689915 0.53368396
0.15244775 -0.0309557 -0.02852896 -0.16507651 0.1088818 0.03526499 -0.028563645 -0.25942978
-0.3026153 -0.55385464 0.19287775 -0.12140754 0.043457888 -0.23292948 -0.08642702 -0.07488488
0.13882543 0.07500956 -0.17770776 0.108903095 0.15716852 -0.0762124 -0.13737696 -0.19935618
-0.03496607 0.19271159 0.08175055 0.16017915 0.0869686 -0.43333185 -0.3265038 0.1280217
-0.09320432 -0.037707042 0.11715308 -0.07346223 0.06696777 -0.11979811 -0.13796134 0.42873445
-0.0010809292 -0.005789196 -0.0010647104 0.025334697 -0.11801642 0.085268825 -0.0028941692 -0.03552529
0.0052804304 -0.0036673713 0.011662605 -0.18144031 -0.023978367 0.22976394 -0.14783046 -0.026878577
-0.13758698 0.1883772 0.1992543 0.65314907 0.16777237 -0.010527015 0.071126 0.021746468
-0.049778644 -0.19442283 -0.37127128 0.023514971 -0.17881899 0.5535507 -0.027834255 0.021671291
-0.04310534 0.14318967 -0.044425413 -0.15525037 0.2986455 -0.029861672 -0.09169591 0.30756256
0.24566898 -0.12141316 0.093572974 -0.015557164 0.009218335 -0.20827661 0.09881265 -0.25930247
-0.068053074 -0.05500678 -0.09450249 -0.20725936 -0.06895258 -0.25555605 0.06939364 -0.03856796
-0.018834801 -0.10608182 0.07065802 0.04548815 -0.040285796 0.06486481 0.12596026 0.25431433
0.08759769 -0.28725457 -0.27399212 0.0038494698 -0.06951052 -0.24631049 0.111057416 0.062097605
-0.1606249 -0.18833575 0.21125911 0.20689024 -0.181423 -0.22564696 -0.31488618 -0.4121664
0.2730262 0.14028352 0.15111484 -0.19922072 -0.19237347 -0.14189903 -0.24558601 -0.2817269
-0.19954035 -0.52292806 0.1381866 0.036969796 -0.15256095 0.0033037406 -0.12779632 -0.14457226

att_src f4 [1, 1, 96]
00000000: 2b5f 323e f94d f03b 22b6 713c 4265 dc3c
00000010: e21c b33d e49d 923c 86c5 b1bd c012 d9bd
00000020: 5992 f83b bfa3 573c c8df c3bd 6bac cd3c
00000030: 8883 ec3c 3c15 2eba 370f 3f3b 2dbd 503d
00000040: 0924 3bbd 66e5 b93c 6efc 14bd 7dee 09be
00000050: 5231 033c e9fa 123c b593 963c 372f 0b3e
00000060: 528f 7c3c 5292 493d 5072 8cbc 405d 313c
00000070: 207b 8f3c eb91 cebd 27df e53d 15f7 d2bc
00000080: 747d af3b c473 84bc b08f 213d 22d8 0e3e
00000090: 40fb f63d 9cf8 7ebb dc69 4cbd 6931 063d
000000a0: 50e1 e43d 230d 523b 5ff8 c4bd 195c 5f3c
000000b0: d2c3 563d b5b3 bf3d 620a b03d d124 bebc
000000c0: 8738 2b3e a7b8 ac3d e4ee e03d ef0f f5bd
000000d0: efd8 b0bd 2118 4d3d 3133 9fbd 36c1 a13b
000000e0: 3187 d1bd 6f95 903d 12de d9bd c792 0abe
000000f0: 5c23 1e3e e8af 083c d6e4 98be 4aef 8d3b
00000100: 0845 0d3e d071 063d b164 143e 8b8c 303b
00000110: da4f d63d dfa5 873b 1642 653d fd52 10be
00000120: 1db5 7dbb 5a6a dcbd f4b6 ae3b c9ac fb3b
00000130: 608e 373d 0283 653e 9c28 df3c 59c6 11be
00000140: 30c3 f63d 5020 78bc 3832 663c d48e 6ebd
00000150: 74c6 53bd 3cb3 39be aeab f2bd 09f5 4ebe
00000160: 9937 113e c93e b33d 5bc2 f43d 772e 79bd
00000170: 157e e8bc b4f1 29be 62c1 ca3b 30b9 c93b
0.17419116 0.007333514 0.0147528965 0.026903752 0.08745743 0.017897554 -0.08680253 -0.105992794
0.0075858054 0.013161599 -0.09564167 0.02510663 0.028871313 -0.00066407374 0.0029153356 0.050961662
-0.045688663 0.022692394 -0.03637355 -0.13469882 0.008007364 0.008970954 0.01838098 0.1359223
0.01541503 0.049211808 -0.017144352 0.010825455 0.017514765 -0.100864254 0.112242036 -0.025752584
0.0053555313 -0.016168483 0.03944367 0.13949636 0.12059641 -0.0038905507 -0.049905643 0.032761965
0.111757874 0.0032051287 -0.096176855 0.013632798 0.052432843 0.09360448 0.0859573 -0.023210915
0.16720782 0.08433657 0.10983065 -0.1196593 -0.08635127 0.05007184 -0.07773436 0.0049363626
-0.10230864 0.07059752 -0.1063806 -0.13532554 0.15443176 0.008342721 -0.29862088 0.004331504
0.13795865 0.032823384 0.14491536 0.002693924 0.10464449 0.0041396464 0.055971228 -0.14094158
-0.0038712688 -0.107624725 0.0053318683 0.0076805097 0.044813514 0.22413257 0.027241044 -0.1423582
0.12048948 -0.015144423 0.014050059 -0.05824168 -0.05170293 -0.18134779 -0.118491516 -0.20210661
0.14181365 0.0875221 0.11951133 -0.060835328 -0.028380433 -0.16596109 0.006187604 0.0061561093

att_dst f4 [1, 1, 96]
00000000: abc4 98b5 9ea7 b5b4 8e29 5db5 e527 31b6
00000010: 3979 f334 e8ee 68b3 7047 8835 5cab e035
00000020: 6b92 f0b4 54f5 a5b5 6782 2c35 6eb5 2bb6
00000030: f32f 12b6 dd8e 3db5 c696 b5b4 a56d f6b5
00000040: 2cc5 76b5 2a86 0e35 4085 79b1 6ebe 4e35
00000050: aec7 60b4 5245 8db4 96f3 0935 81aa ecb5
00000060: d892 a0b4 a09c aa33 4fae bab5 50b4 a7b4
00000070: e226 72b4 818f 6834 7d9c 7135 495c 5eb6
00000080: bf2a 81b6 c3a2 5d33 e463 4fb6 000c 76ae
00000090: c995 e3b5 055e bf35 2184 0f34 06da bd35
000000a0: 446e 5034 54d9 48b4 21bc 9b36 5d4f beb6
000000b0: b465 2b35 b76e 57b6 2403 5cb5 3f6a 3332
000000c0: 3380 04b6 d091 8cb6 943d 67b6 d3b0 4635
000000d0: 842c 1236 0742 b1b5 ae96 2c34 c495 b4b5
000000e0: 2d53 3b35 ea5e 7735 41c9 ea35 d97a c734
000000f0: 65ea a435 64cb 4731 96d1 87b5 0ea9 8bb5
00000100: ddea 81b4 f576 01b4 3533 54b6 6736 29b4
00000110: 891f 0fb6 a77e d8b4 26d5 9435 3bfc 3635
00000120: dc6c 5b35 0cb6 5635 9e38 afb5 adb6 7cb4
00000130: bff4 3cb5 20c4 b6b6 989c 3db6 2acb 8bb5
00000140: a8de 9eb4 1542 9cb5 4e74 cab5 8140 5d35
00000150: 4eea 28b4 c2af 7c35 bcd1 3fb6 655b 7db5
00000160: d1c1 7fb6 91fb 83b6 cf84 ddb6 c6bd a2b5
00000170: eccd 35b4 b021 d634 937f d4b4 953e 58b4
-1.138212e-06 -3.3835835e-07 -8.2389386e-07 -2.6398277e-06 4.5350478e-07 -5.4233993e-08 1.0153581e-06 1.6739173e-06
-4.4810017e-07 -1.2364858e-06 6.4264754e-07 -2.5586592e-06 -2.1783605e-06 -7.061588e-07 -3.382358e-07 -1.8360339e-06
-9.1929064e-07 5.3094357e-07 -3.6310013e-09 7.701809e-07 -2.0934269e-07 -2.6313734e-07 5.139094e-07 -1.7632993e-06
-2.9909165e-07 7.944732e-08 -1.390881e-06 -3.123737e-07 -2.2552152e-07 2.165889e-07 9.0007217e-07 -3.3134295e-06
-3.849476e-06 5.1603603e-08 -3.0903548e-06 -5.5944582e-11 -1.6956411e-06 1.4257972e-06 1.3365981e-07 1.414505e-06
1.9411624e-07 -1.8705515e-07 4.641261e-06 -5.6716804e-06 6.385046e-07 -3.210194e-06 -8.1960957e-07 1.0443329e-08
-1.9744155e-06 -4.1893e-06 -3.4457526e-06 7.401806e-07 2.1781607e-06 -1.3206744e-06 1.6073565e-07 -1.3454633e-06
6.9783965e-07 9.215279e-07 1.7492931e-06 3.7156022e-07 1.228717e-06 2.9073925e-09 -1.0119281e-06 -1.0405508e-06
-2.4199008e-07 -1.2057338e-07 -3.1620268e-06 -1.5759143e-07 -2.1327016e-06 -4.0325287e-07 1.1088894e-06 6.8167327e-07
8.174227e-07 7.9986125e-07 -1.3054994e-06 -2.3535786e-07 -7.039161e-07 -5.4468546e-06 -2.8254344e-06 -1.0415436e-06
-2.9591797e-07 -1.1642138e-06 -1.5084022e-06 8.242278e-07 -1.5731459e-07 9.4133077e-07 -2.85833e-06 -9.438284e-07
-3.8110777e-06 -3.9333904e-06 -6.601774e-06 -1.2125172e-06 -1.6931853e-07 3.9885117e-07 -3.95809e-07 -2.0139335e-07

bias f4 [96]
00000000: 4e1e 02be 327e b3b5 d41e cdba 99fe 6781
00000010: 94c7 ab3e ddaf fd3d ff2f 8dbd 9483 053e
00000020: 660b 28ba 7ecc cbbb 5197 673d 57b3 0781
00000030: 81df c39e 1230 23bc e73e 3b8f 6d1c 6c80
00000040: ce4a d03d 3232 e03d 2ace cdbd c636 1abd
00000050: 9752 e038 ed79 85b7 065d 4a3e 90a3 e480
00000060: fe7d a536 ead9 0f3e f973 e13e c4fa 03bc
00000070: 0000 0000 a66f 03be 0772 ccbc e20c 18bd
00000080: 5bf4 fab8 8f40 123d 698d e73a 3c83 56bd
00000090: b25c c1bb e921 7dbd 4120 ef3d 3bc5 823b
000000a0: 4294 4c3d d150 80b8 116e 063c 3cb9 9e3e
000000b0: 175d 65bd 7f76 853c b52b 6dbd 5fa4 02bc
000000c0: 280a c0bb d152 3b3e 19e7 903b 36e4 d33d
000000d0: d39d fdbd feaa a93a b085 91bd 8bfb 59bc
000000e0: ff4e ac3d 52fd 723d beab 96bd 27f0 873b
000000f0: 9d19 86bd 8b47 90ba a192 c53d f472 a2bc
00000100: f820 353e 2b5d 87bd f6cc 9e3e 58aa 90b8
00000110: 02e0 7601 602d 68b2 3a6d 68be 2050 16be
00000120: fd34 9bbd 0e6b 003e b995 8cb2 731d 9438
00000130: 5e4f c6bd be9c 943d 7dc0 a700 69f5 34bb
00000140: 00ca af3d 713d 6fbc b8a6 f93c 2377 3f3d
00000150: 7d8a 50bd b3ca 02be 8c56 4cbd 4e91 5c3e
00000160: 9284 a43d 048d 0a01 db60 4b80 2c96 353d
00000170: 2caa 85bd 3f27 cf3d 38c2 70b9 7828 70aa
-0.12706873 -1.3373267e-06 -0.0015649446 -4.2610664e-38 0.33550704 0.12387059 -0.0689392 0.13038474
-0.000641039 -0.0062194457 0.05654079 -2.4924254e-38 -2.0738867e-20 -0.009960191 -9.2319264e-30 -9.928431e-39
0.10170518 0.10947074 -0.10049088 -0.037649892 0.00010696536 -1.5911612e-05 0.19762048 -2.0997168e-38
4.9320506e-06 0.14047971 0.44033793 -0.008055393 0.0 -0.12835559 -0.024956716 -0.03712166
-0.00011966444 0.0357061 0.0017666045 -0.05237125 -0.0059009427 -0.061799917 0.11676074 0.003990797
0.049946077 -6.118569e-05 0.008204953 0.31000698 -0.05599698 0.016291855 -0.05790301 -0.007973759
-0.0058605857 0.1829331 0.0044220802 0.10346262 -0.12383618 0.0012944636 -0.07105577 -0.013304601
0.08413505 0.059323616 -0.07356976 0.0041485014 -0.06547854 -0.001100765 0.09647108 -0.019830205
0.17688358 -0.06609567 0.31015748 -6.898184e-05 4.5343782e-38 -1.3514494e-08 -0.22697917 -0.14679003
-0.07578466 0.12540838 -1.6366231e-08 7.062675e-05 -0.09683107 0.07256459 1.540558e-38 -0.0027612096
0.0858345 -0.014602051 0.030475006 0.046744477 -0.050913323 -0.12772636 -0.049887225 0.21539804
0.08033098 2.544777e-38 -6.922407e-39 0.04433267 -0.06526598 0.101149075 -0.00022960536 -2.1330322e-13

weight f4 [96, 96]
00000000: 0a41 82bd 2617 50be aa2b d13d 707e 46be
00000010: 0bfd 64bd 07e7 97bc 4fd3 543d 4460 a9bd
00000020: f8aa eabd ec6f a73c f818 20bd 2388 43bd
00000030: 9416 8abe ebb2 ecb9 1283 d6bd 093b 4ebd
00000040: a8fc 3a81 c185 84bd 461c 64bd 1e47 1e3e
00000050: 106e 9ebd 046c 6680 6303 503e 2592 6bbe
00000060: bf98 3cbd b37e 3f3d b1d3 50be 77e6 133d
00000070: 64cb 31be 05b8 4780 79f7 7a3d 15dc 9dbe
00000080: 0b09 e83c bf8e 29bd 2624 7001 afe7 6a00
00000090: e42e a93c 14cc 03be ce6a af3d d111 8bbd
000000a0: 0c47 d0bc b7ff 99bd a60f 0a3e 0d78 c6bd
000000b0: 811b 173e 2385 1a3e 1aef 11be 90c5 34be
000000c0: 9559 e7bd 3568 203e 3b14 b8bd 9d4c 683b
000000d0: 1ca5 d03d f39e 413d dd4e c23c 7e18 593d
000000e0: 8fdb b1bd 10cd 9381 18ca 233e 27f8 04ba
000000f0: e2fa 24bd 4e7a 5e3b 7626 d9bd cade 2801
00000100: 75b9 003c 996f 9dbc 4f30 013d 74a6 86bd
00000110: d65b cb3b 4075 4d3d e573 3a3e bec9 8f3d
00000120: 0fab 0e80 8f13 3e3b 998a adbc a262 f73b
00000130: fde1 04be f1f2 1dbe e77b 1c3d 9709 d13b
00000140: 973d 193d 401c 2dbd c43a d500 bae8 4d3c
00000150: b8d8 1a3c 3fb4 fa3d 70c4 6bbd e215 4b3b
00000160: e92f 80bb 0a10 ecbd d489 6dbe 735a bebd
00000170: acfd 5c3b bbc5 15be d2e0 6e01 9f4f d1bd
00000180: 0764 0abc 0629 3d3a 44bb 25bb 9070 ea3a
00000190: 1692 07bc e03e 01bc 6f1d a9bc bfcf 63bb
000001a0: 91fe 1e3c fe79 4dbc 7640 6e3b b031 0abd
000001b0: 3293 843b dc89 bdb9 4bd8 cfba d694 3abb
000001c0: fef6 e780 1797 d6bc aa27 e23a a006 1c3c
000001d0: 2938 cebb 9268 6880 26ea 0c3c a93c 8dbc
000001e0: d431 dcba fcf8 3dbb 7053 f9bb 262a 51ba
000001f0: c643 fe3b ca23 0981 12e5 583b ad0a 3dbc
00000200: 1498 44bb fbb6 c6bc 206d 2200 906b 0901
00000210: a954 5bbc 25dd d63b 4641 e3bb 1d5c 6cbc
00000220: 0854 97bc 42b0 85bb cd95 aa3a 8118 c6bb
00000230: 3064 b9bc 1da0 ad3a 2e55 ffbb a699 b1bc
00000240: 7dd9 4bbc 0584 29bc d2a6 65bc b4df f1bb
00000250: 1637 aabb 1a3d 803b 9a7f 05b4 2e9b 583b
00000260: c9a4 d5bc ecfc e200 19f5 86bb 484c 703b
00000270: 55b7 14bc 5870 ce97 4b23 b03b c305 a001
00000280: 75ad dc3a 8083 943b 26d9 bdbc 7d24 51bc
00000290: 3009 f8bb ce61 eb3a 6cd7 b63a 3087 51b9
000002a0: 60e5 0b81 c9ae dcbc 59d5 27bc 5e57 bbbb
000002b0: 7114 08bc 1283 573a 712e 003c 4632 c3bc
000002c0: 5dfc 283c e599 adbb 8e13 6181 9d4f 69bc
000002d0: bc50 52bc f0b4 3cbc 3d69 9d3c 9551 32bc
000002e0: 471a f438 bcb6 093c c7f0 253b b0a5 5bbc
000002f0: 43e0 04bc f4cf 54bc 488f 2501 4720 7a3b
00000300: 251b 83bd f00e d63b 1931 223e 4687 3f3d
00000310: 2973 af3c f970 6d3c 3de4 b03d 4599 5fbe
00000320: 9ae4 943b bcf9 3a3c f4b4 c73b 9435 a5bd
00000330: d33b f9bd 296e 333e 9eea 043e 5101 733c
00000340: 655d 1301 cddd 89bd 4c4c 8b3d 215f f8bb
00000350: ea85 45bd 8ec1 8b01 e105 1fbe 38b8 4e3d
00000360: 266b 54be b7ac 89bd 9988 b13c a3ae f43d
00000370: f201 a5bd a59f 5900 b8a2 e93d 0dac ae3d
00000380: 300b 3d3d d397 afbc f229 9001 ec99 0b81
00000390: 7ac9 6b3c 06d7 71bd ca6b 48bd dd53 66bb
000003a0: 7601 803a 2ae9 e23d b72d a4bd 57a8 c0bd
000003b0: 6b12 59bd 32c3 66be 4545 d4bb 3ff2 34bd
000003c0: f10b 0abe 5ca0 023c 1269 45be 5b69 62bb
000003d0: 4189 c83c d0e2 473b 16e0 86ba 1d0d 093c
000003e0: e426 b4bb b04a c880 9a68 bf3d 842f 973b
000003f0: bd60 973d f15c 3cbb efac a23b 02ff 5501
-0.063600615 -0.2032133 0.102134064 -0.1938417 -0.055905383 -0.01854278 0.051959332 -0.08270314
-0.11458391 0.02043911 -0.039086312 -0.047737252 -0.2697035 -0.00045146732 -0.104742184 -0.05034927
-3.4344077e-38 -0.06470824 -0.055691026 0.15456817 -0.077358365 -9.40597e-39 0.20313792 -0.23004968
-0.046044108 0.04675169 -0.20393254 0.03610846 -0.17362744 -6.586334e-39 0.061271165 -0.30831972
0.028324625 -0.0413959 4.4106973e-38 9.817675e-39 0.020652242 -0.12870818 0.08565293 -0.067905076
-0.025424503 -0.07519477 0.13482532 -0.096908666 0.14756586 0.1508985 -0.14251366 -0.17653489
-0.11296383 0.15664752 -0.08988234 0.0035446056 0.10187742 0.047270726 0.023719246 0.053001873
-0.086844556 -5.429352e-38 0.15995061 -0.0005072378 -0.040278323 0.003394741 -0.10603039 3.101657e-38
0.007856716 -0.019218253 0.03154021 -0.06574717 0.006206016 0.050160646 0.18208273 0.07020901
-1.347061e-39 0.0029003357 -0.021184253 0.0075495997 -0.12976833 -0.15424706 0.0382041 0.006379317
0.037412252 -0.04226327 1.9582042e-38 0.012567693 0.009451084 0.122414105 -0.057560384 0.0030988385
-0.0039119613 -0.11526497 -0.23197109 -0.092945956 0.0033720536 -0.1462621 4.3874997e-38 -0.10220265
-0.0084467 0.0007215891 -0.002528862 0.001788633 -0.008274576 -0.007888526 -0.020643918 -0.0034761277
0.009704248 -0.012541292 0.003635434 -0.033738792 0.0040458674 -0.00036151602 -0.0015857307 -0.002847006
-2.1302604e-38 -0.026195092 0.0017254252 0.009523064 -0.006293316 -9.588404e-39 0.008600747 -0.01724084
-0.0016799518 -0.0028987518 -0.0076088235 -0.0007978998 0.007759544 -2.5188603e-38 0.003309552 -0.01153819
-0.0029997872 -0.024257174 3.161554e-39 2.5240098e-38 -0.013386884 0.006557124 -0.0069352714 -0.014426258
-0.018472686 -0.0040798495 0.0013014615 -0.0060454016 -0.022630781 0.001324657 -0.0077921366 -0.02167971
-0.01244199 -0.010346417 -0.014016824 -0.007381404 -0.005194555 0.003913534 -1.2433011e-07 0.0033051479
-0.026079552 2.0845553e-38 -0.0041185734 0.003666656 -0.009076913 -1.3340798e-24 0.005375301 5.8782985e-38
0.0016836362 0.0045322776 -0.023174834 -0.012765047 -0.0075694546 0.0017958225 0.0013949699 -0.00019982154
-2.5694836e-38 -0.026938813 -0.010243737 -0.005717202 -0.008305655 0.000822113 0.0078235725 -0.023827683
0.010314074 -0.0052978867 -4.1340003e-38 -0.014240173 -0.012836631 -0.011517748 0.01921522 -0.0108837085
0.00011639721 0.008405384 0.0025320516 -0.013406202 -0.008110109 -0.012989033 3.0408513e-38 0.0038166211
-0.06401662 0.0065325424 0.15839042 0.046759866 0.021417217 0.014492267 0.08637283 -0.21835811
0.004543853 0.01141208 0.0060945693 -0.0806686 -0.12169614 0.17522492 0.12980124 0.014831857
2.7066643e-38 -0.06731758 0.06801662 -0.0075796996 -0.048223414 5.1338273e-38 -0.15529586 0.050468653
-0.20743999 -0.06722396 0.02167158 0.11947372 -0.08057012 8.230629e-39 0.11407989 0.0852891
0.046153247 -0.0214347 5.2957434e-38 -2.5640701e-38 0.0143912975 -0.059042953 -0.04893092 -0.0035145201
0.000976606 0.11079629 -0.08016532 -0.09407108 -0.05299608 -0.22535399 -0.006477984 -0.044176336
-0.13481118 0.007972803 -0.19278362 -0.003454766 0.02447951 0.003050018 -0.0010290171 0.008364943
-0.0054978 -1.8393892e-38 0.09346123 0.0046138186 0.07391498 -0.002874192 0.004964463 3.930488e-38

att_src f4 [1, 1, 96]
00000000: 0923 54be b592 463e f7dc a9be 1999 0e3b
00000010: 55ae 27bd a9a4 1bbe 8cb3 423e 901f abbd
00000020: f05e eebd 80ec edbc eed3 04be 6e7e c83a
00000030: 392c ec3d 7265 3c3e 3461 463d 1729 24bd
00000040: b6da 7ebd ac3f 8cbc 7b41 233e 572d a83d
00000050: c216 84be be38 02be e744 153e d0fd 753d
00000060: d914 ebba 2478 ea3d 6794 51be d38f 4b3c
00000070: 929a d2bd d530 9a3c 72a2 083e 32fe 953e
00000080: 6e26 a6bd 4915 bf3d 21e9 27be 5fae 823e
00000090: cbe7 a3bd 913b 13be 1cf5 64be 58da 1dbe
000000a0: 96f6 083e 3f9d 2d3d f199 acbd 8c75 59bd
000000b0: f997 0ebe 9dbb c23b 4459 cb3d 7ddd 5c3b
000000c0: b2ed 303e 80fd 76bd 49d9 423e dd18 55bc
000000d0: df8a 503e 1f7a 28bb 6ca4 a83d 5e89 c23d
000000e0: 3a1b f63c 6da0 c33d 2cb2 c8bd bbf0 dfbc
000000f0: f9e9 3ebd 7916 c1bd 9aba bc3b ff99 af3d
00000100: 1c64 acbd 1b2f 98bd a334 9fbb 4a31 a1bd
00000110: d3d5 56be 7a21 3fbd b38c 3f3e 07b8 a0bc
00000120: 0bcd 49be c35f 16be a7d3 8cbd 6831 3b3c
00000130: 6daa ecbd 4236 58b9 83e9 dd3d 6805 463e
00000140: 709a 71bd f792 20bd 31be 473e e3b7 52bd
00000150: dbf4 a7bc e2cc b1bc 68cb b7bc 8e9e 0a3e
00000160: 7f3a 0abd 4176 01be dd17 2ebe c7e6 04be
00000170: a47c 4fbd 71ba 06be 3305 87ba 6db8 853e
-0.2071649 0.19391902 -0.33176395 0.0021758734 -0.04093774 -0.15199532 0.19013804 -0.083556294
-0.11639202 -0.029043436 -0.1297147 0.0015296468 0.11531872 0.18398073 0.048432544 -0.04007825
-0.062220298 -0.017120205 0.15942948 0.08211773 -0.25798613 -0.12716958 0.14577065 0.060056508
-0.001793529 0.11448696 -0.20466767 0.012424427 -0.10283388 0.018822113 0.13343218 0.29295498
-0.08112799 0.09330232 -0.16397525 0.2552366 -0.080031954 -0.14378192 -0.22359127 -0.15415323
0.13375315 0.04238629 -0.084277995 -0.053090617 -0.1392516 0.0059427754 0.099291354 0.0033701353
0.17278174 -0.06030035 0.190282 -0.013006416 0.20365475 -0.0025707555 0.08234486 0.09498857
0.03004228 0.09552083 -0.097996086 -0.027336469 -0.046609852 -0.094281144 0.0057595493 0.08574294
-0.08417532 -0.0743086 -0.0048585697 -0.07870729 -0.20980005 -0.046662785 0.18706016 -0.019619001
-0.19707124 -0.14684968 -0.06876307 0.011425354 -0.11555944 -0.00020619578 0.108355545 0.19338
-0.058985174 -0.039202657 0.19506146 -0.0514449 -0.020502498 -0.021704141 -0.022435859 0.13537046
-0.033747192 -0.12642767 -0.1700129 -0.1297866 -0.050655976 -0.13157059 -0.0010301232 0.26117268

att_dst f4 [1, 1, 96]
00000000: d049 b63d 2674 73be 4e8c b8bc 18d0 e03b
00000010: 46f3 b33c 25b5 31bd 9463 0d3d d628 3f3e
00000020: a4f9 28be 719b 573b c2f6 e6bb 8c39 613c
00000030: 206a d43d 1742 83bd c186 d2bc 4097 d73d
00000040: 5cdf 043e 0d57 963d 20b8 493e 1a1a 503e
00000050: f1ff ec3d c601 0bbe f223 d93d b1f5 743e
00000060: 0675 a03d eb6d 8b3d 1be1 85be ef36 f23b
00000070: 8160 9fbd aba6 c23d 60e7 f33d 55a1 503e
00000080: 7a42 8cbc e049 aabb b983 9bbd 255b 5b3e
00000090: b5c8 973d a45f 73bd 602f 34bc a957 7f3d
000000a0: 3600 27bd d45c 4ebe 875e b93d f230 f4bd
000000b0: b9bc ae3d 4078 ce3c dbbc 81be 0b7b 883d
000000c0: 68f0 9d3d 5e91 25be ce7c b43d 496c a73d
000000d0: 5066 9abd acd2 953d b33d 5abd 19e0 f4bd
000000e0: 9607 63bd 9fb1 ba3d 96f3 0a3e 621d 21bc
000000f0: 1790 873e bfbd f43d db87 023e 3a9c dd3d
00000100: b140 953c 472e c93c 3aec e9bd 48b8 293d
00000110: 1009 a53c 9af0 40bd b9e3 1e3e 1473 3c3d
00000120: 7816 cbbd 958b aa3d 7d63 473c 3190 1d3e
00000130: 0fb3 4bbb 7989 eb3c 2749 e83d 009b a3bc
00000140: 96c0 03bd e00c ba3d 6b5e c63c b7c7 5abd
00000150: 8616 61bc 4aac ce3c c1af e4bd f8c5 fd3d
00000160: 6af8 903d ec66 3a3d b1bb 33be 24a0 033e
00000170: c8a9 24be 3ede 1abd 52dd a23d 5b31 2ebe
0.08900797 -0.23774776 -0.02252784 0.006860744 0.021966588 -0.043385644 0.034518793 0.18667921
-0.1650148 0.0032899047 -0.007048459 0.01374663 0.10371804 -0.0640909 -0.025699021 0.105268955
0.1297583 0.07340822 0.19699144 0.20322457 0.115722544 -0.13574895 0.10602559 0.23921849
0.078348204 0.068080746 -0.26148304 0.0073918025 -0.077820785 0.09504446 0.11909366 0.20374043
-0.017121542 -0.005196795 -0.075934835 0.21421488 0.07411329 -0.059417382 -0.010997623 0.06233946
-0.040771686 -0.20152599 0.09051233 -0.11923398 0.0853209 0.025203824 -0.25339398 0.066640936
0.077118695 -0.16168734 0.08812867 0.08174951 -0.07539046 0.07315573 -0.053281497 -0.11956806
-0.055427156 0.0911591 0.13569483 -0.009833666 0.2647712 0.11950254 0.12747137 0.108208135
0.018219324 0.0245582 -0.1142201 0.04143551 0.020145923 -0.047104456 0.15516557 0.046008185
-0.09916395 0.083274044 0.012169716 0.15387036 -0.003108207 0.028752076 0.11342078 -0.01997137
-0.032166086 0.09084487 0.024214944 -0.05341312 -0.01373828 0.025228638 -0.11166335 0.12391275
0.07078631 0.04550831 -0.17552067 0.12854058 -0.16080391 -0.037809603 0.0795237 -0.17011015

bias f4 [96]
00000000: 6c28 66bc 309a 403e b9d5 91bd a7ca bbb8
00000010: 66cf 12ba 2eba af3c b831 683c 5e82 8dbd
00000020: 013d 8e3e dc50 8fbc 3d14 cabd aca2 f63d
00000030: b8ec 27bc 3fb4 d63d e841 05be 2ec9 97bc
00000040: 476e 94bc 5c63 baba 1c45 913d fcec 89bd
00000050: 0dd6 bcbb c35c 803d 78f9 59bc 328f 8cbe
00000060: ca27 043d d9f6 ee3c 3ba8 673e 1741 913e
00000070: 5801 5c3d bc8c 083e 4046 e93c d9fe 0c3c
00000080: b6f8 53bd af79 8e3d 4a37 063d fead dbbd
00000090: c7b5 04bc 9026 9f3d a4cb 51bd b3d6 9a3d
000000a0: 5d85 41bd 220a 963d 8cb9 98bc 1323 bb3d
000000b0: 5236 89bc 46b0 88bc 43b7 a13d fa65 f4b8
000000c0: 4b9c f5bc 7d44 403d 35e0 983d e2bd 65be
000000d0: dcfc 813d 1763 faba 318d 82bd 3b14 3d3e
000000e0: c082 14bd ee6e a13d 35a8 bfbd cc59 953e
000000f0: 995b 933d 1030 a8bb ac18 74bb 00a1 bcbd
00000100: df49 4e3e 37a3 abba 5a0e 473e 804e e0bc
00000110: 9d13 d53d 12df 64bb 6831 f63c dd46 cf3b
00000120: b809 16be 5e48 cbbc 88e6 333e f82d f9bc
00000130: b80b 34bd 5560 25bb dacb f0bc e12f 993d
00000140: 2690 643e 8014 22bd 358b c3bd f03f 053e
00000150: 5556 a0bd c16d b83d 2246 b63d d215 f43b
00000160: fda2 643d c41b e8bb cbad 003d e9a0 e1bc
00000170: a701 013e 9ee4 b2bc 240a e4b9 a9f0 d33d
-0.014047723 0.18808818 -0.071208425 -8.954602e-05 -0.0005600363 0.021451082 0.01417201 -0.06909631
0.27780917 -0.017494611 -0.098671414 0.12042746 -0.010249309 0.10483598 -0.13013422 -0.018528547
-0.01811899 -0.0014220285 0.0709326 -0.06734654 -0.0057628215 0.06267693 -0.013304107 -0.27453
0.03226451 0.02917044 0.22622769 0.28369972 0.05371222 0.13334936 0.02847588 0.008605682
-0.05175086 0.06956803 0.03276757 -0.10726546 -0.00809998 0.07771027 -0.051219597 0.07560482
-0.047246326 0.073261514 -0.018643163 0.09137549 -0.016749535 -0.016685616 0.078962825 -0.00011653821
-0.029981753 0.046940316 0.07464639 -0.22435716 0.06347057 -0.0019103017 -0.063745864 0.18464749
-0.036257505 0.07882486 -0.09358255 0.29170072 0.07195205 -0.0051326826 -0.003724615 -0.09210396
0.20145367 -0.0013094906 0.19439068 -0.027381182 0.104041316 -0.0034923 0.030052856 0.0063255862
-0.14652145 -0.02481478 0.1756841 -0.030417427 -0.04395649 -0.002523442 -0.029394079 0.07479835
0.22320613 -0.03957033 -0.09548036 0.13012671 -0.078289665 0.09005309 0.089000955 0.0074488902
0.0558195 -0.007083388 0.031415742 -0.027542548 0.12598287 -0.021837529 -0.00043495104 0.10348637

weight f4 [96, 96]
00000000: 7e11 b1bd 369c 45ba 3af6 19be c50a 7100
00000010: a38b 6d3d 84aa 823e e681 463d f7fe 8dbe
00000020: 82a6 5e3a 4058 e23b 7449 563d 907a 2381
00000030: 5257 af39 b433 353c da43 bdb8 acb9 b100
00000040: be01 87bb 5910 853d 76b5 d13d ca04 053d
00000050: dce1 1d3a 7439 0bbd 9c1f 6b3e 1489 c833
00000060: 3d74 d5bc 1be8 af3d 2430 c43d 7f7d 9ebd
00000070: c028 8581 9e23 173e 1c35 1c3e 04fd 84bd
00000080: ffbc 81ba d304 ea3d 0302 12be 5e6d acbd
00000090: 71f2 993d 6cd9 2a3e e443 e63d 309a d7bd
000000a0: 1395 2e3e 4949 a13a 02bb 54be b77e 0dbe
000000b0: 888c 82bd 08b5 cb3c 10c9 5a3d bd11 0abd
000000c0: 72af 243d 78b5 12be 84fe 3abd 8774 313d
000000d0: 2ce0 e63c 3f4f 253e 7733 df3c 8179 bf3c
000000e0: b5d9 abbd 45db 16bd 4c39 d5bd 0580 83bb
000000f0: cb9e ae3d 61e9 cc3a 1977 ecbd 6633 023d
00000100: b52a 873d 737e ac3b b79d 78be fbaf 6d39
00000110: 17df a781 bb04 5d3b 30c8 0c3e 581d 863c
00000120: bd7f c2bd 9520 1a3d 6830 1c3a 9a96 ccbb
00000130: c2e5 fabd 3c08 593e b852 e680 ed21 7c3e
00000140: d30e 8ebb c46b 88bd 1941 ef3c 47ee b43d
00000150: 5915 043e e486 0ebe bcba d33d e277 ea3d
00000160: 4574 d4bd 32df 2313 fabb 9081 7508 0cbd
00000170: c361 a6bd 96fa bebd 773b 0fbc 3f41 6f3a
00000180: ee28 efbd 64d9 47b8 4c97 20be 8ab4 9401
00000190: a271 bb3d 9cb8 293e e35e 133d df7d a8bd
000001a0: 45fb a2b9 2210 b0bb 1d61 7f3d 7e80 e100
000001b0: b334 58bb 2019 b03d 117c e7b5 54b6 1a81
000001c0: 62e6 53be a190 1b3e 9168 cebd db3c 72bd
000001d0: 3908 553b 47c8 5f3b 1e2d e03c eb1c 98b3
000001e0: c9d1 a4bb 7e68 bdbd 4846 8cbd 475b 013c
000001f0: 94aa 5d81 cd01 05be cf78 5b3d 096c ebbc
00000200: 1a45 7439 24fb c9bd 6283 a3bd 926a 2b3e
00000210: af7a d33b c56b 01be b336 a03d 7650 4fbd
00000220: 5007 0f3e 7c12 803a 486d a1bd 160b ed3b
00000230: 6a2d 463d 8a07 6bbe ac16 54be 7b87 e9bb
00000240: 289f 123e 4a85 4e3e aada 803e 61ab b4bd
00000250: 294d b9bd 34ed 2bbd 3a28 b2bd 9057 ff3a
00000260: faa3 dcbd 167f b5bd e113 81bd 8d7f 55bd
00000270: dd94 523d 29c4 cd3b 6e08 1e3e 89ec bcbb
00000280: b6a2 163e 2307 52bc ffb1 ddbd 5945 5cba
00000290: a841 8481 4e89 70bb 164f 073e e805 3d3d
000002a0: 132a bc3d 7ddf 32be 8691 eaba 8b55 a139
000002b0: 3faf 36be d19b c93d 3939 8981 b3a1 cf3d
000002c0: cc25 0ebe 2378 8bbc 6a0a fabc 8b48 273e
000002d0: a0ee 0cbe 9589 4f3d 51ec ca3d 5062 ab3c
000002e0: 0ddb 583d 85eb 0427 cb4f 0612 99fc 9e3c
000002f0: 4abd fbbd c05e 263e c83a 933b 839e e433
00000300: df2a 813e e79d deb9 e4b4 9e3d 9463 3f01
00000310: 86c4 2f3d 60dd 293e 45eb 043d 960a 933b
00000320: 1452 1fba c9d2 163c d998 db3b a69a d980
00000330: d81c 30b8 a3ba c8bd 6a4c 2eb7 9e4c 9c81
00000340: 0996 f93c b15a 343c 3bba 88bd 75ed fb3d
00000350: 23f7 2d3b d463 e93b 47a6 113e 5bd6 99b6
00000360: 5913 2938 3b35 92bd 62c8 383e b635 903c
00000370: 7e1c aa81 819a 203e 5188 3e3e 44be 05bc
00000380: e0f3 82ba 6be2 de3d 9ad6 263d ad57 ccbc
00000390: 5b86 98bd bcc0 b03d 5c3c b0bd ad50 4cbd
000003a0: 1d91 93be 99bb 64b9 2f6d d63c f9b5 c1bd
000003b0: 0102 20be ca08 febc d486 86bd eefe 87bc
000003c0: 2794 d2bd 6ce1 10be f8bb 7f37 71d6 6bbe
000003d0: 19da 24be ed7a 213d ef3b ba3d 5921 fdbc
000003e0: 69a9 23be cfb5 f4bd 9cbe b4bd 004d 983e
000003f0: ec35 99bc 262e 71bc c73e 04be 4318 f3bc
-0.086459145 -0.0007538231 -0.15035334 1.0381274e-38 0.057994496 0.25520718 0.048463725 -0.27733585
0.00084934395 0.006907493 0.052316144 -3.0026306e-38 0.0003344366 0.01105969 -9.0248606e-05 1.632149e-38
-0.0041200807 0.06497259 0.10239689 0.03247527 0.00060227304 -0.03399034 0.22961277 9.33816e-08
-0.026056403 0.085891925 0.095794946 -0.0773878 -4.891496e-38 0.1475968 0.15254635 -0.064935714
-0.0009898244 0.114267014 -0.1425858 -0.08419298 0.07516945 0.16684502 0.11243418 -0.10527456
0.17049055 0.0012305166 -0.20774463 -0.13817869 -0.063744605 0.024866596 0.053414404 -0.033708323
0.04020638 -0.14327037 -0.04565288 0.04332402 0.028183065 0.16143511 0.02724622 0.023373367
-0.08391134 -0.036830205 -0.10411319 -0.004013064 0.08526381 0.0015633517 -0.115461536 0.0317873
0.065999426 0.0052640974 -0.24278913 0.00022667639 -6.166623e-38 0.0033724743 0.1374824 0.016371414
-0.094970204 0.03762873 0.0005958141 -0.006243539 -0.12250854 0.21194547 -2.1151838e-38 0.24622317
-0.0043352633 -0.0666118 0.029205846 0.0883451 0.12898768 -0.13918644 0.10338351 0.11448647
-0.10373739 2.0683536e-27 -5.316698e-38 -0.034187753 -0.08124115 -0.09325139 -0.008742205 0.0009126849
-0.116777286 -4.7647758e-05 -0.15682715 5.4625675e-38 0.09152533 0.16574329 0.035979163 -0.08227133
-0.00031086258 -0.005373017 0.062348474 2.0709081e-38 -0.0032990396 0.08598542 -1.7246949e-06 -2.8416147e-38
-0.20693353 0.1519189 -0.10078538 -0.059140068 0.0032506122 0.0034146474 0.027365264 -7.083312e-08
-0.005029891 -0.09248446 -0.068493426 0.007895297 -4.0713673e-38 -0.12988968 0.05358201 -0.028738039
0.00023295396 -0.098623544 -0.07984044 0.16739872 0.006453834 -0.12638767 0.07822933 -0.050613843
0.13967633 0.0009771134 -0.07882172 0.0072339876 0.048383154 -0.22952095 -0.20711774 -0.0071267462
0.14318526 0.20168033 0.25166827 -0.088217504 -0.0904792 -0.04197426 -0.08699079 0.0019481052
-0.107734635 -0.0886213 -0.0630262 -0.052123595 0.0514115 0.0062794876 0.15432903 -0.005765502
0.14710507 -0.012819084 -0.10824966 -0.00084026676 -4.8583354e-38 -0.0036702934 0.13213763 0.04614821
0.091877125 -0.17468067 -0.0017896153 0.00030772047 -0.17840289 0.09844173 -5.040796e-38 0.101382636
-0.13881606 -0.01702506 -0.030522544 0.16336267 -0.13762903 0.050668318 0.09908355 0.020920902
0.052943278 1.8446355e-15 4.2381297e-28 0.019407557 -0.122919634 0.16247082 0.0044930913 1.06459105e-07
0.2522802 -0.00042460786 0.07749346 3.5152603e-38 0.04291203 0.16588354 0.032450933 0.004487346
-0.0006077599 0.009205529 0.0067015705 -1.998378e-38 -4.1988533e-05 -0.09801223 -1.0389e-05 -5.741529e-38
0.03046705 0.011007951 -0.06676146 0.12301151 0.002654501 0.007122496 0.14223586 -4.5847096e-06
4.031076e-05 -0.07139059 0.1804519 0.017603736 -6.248902e-38 0.15683939 0.18606688 -0.008163039
-0.0009990893 0.108830296 0.040732004 -0.02494415 -0.07447501 0.08630511 -0.08605263 -0.049881626
-0.2882165 -0.0002181366 0.02617511 -0.09458537 -0.15625764 -0.03101005 -0.06568685 -0.016601052
-0.10282164 -0.14148492 1.5242949e-05 -0.23031022 -0.16098823 0.03942387 0.09093463 -0.03089969
-0.15982594 -0.1194874 -0.08825418 0.29746246 -0.01870247 -0.014720475 -0.12914573 -0.029674655

att_src f4 [1, 1, 96]
00000000: 6966 a6bd afe7 36bd 063f 14be b681 0fbe
00000010: 4e24 b43d 9980 15be 296c 963e f2d9 913d
00000020: f879 bdbb 2ae7 4bbd 508a 69be 32a7 863c
00000030: 6625 a6bd b97e 9dba e95d 42bd e642 30bd
00000040: d920 82bc 6e65 d93c 046d a93d 6291 e0bc
00000050: 77bf 7a3d ca96 39be 80e2 2f3c 282b 51be
00000060: 4d95 0d3e 3320 ebba f75e 843c 04ee 683a
00000070: 46e6 87bd b653 88bd add0 833d a376 79bd
00000080: 1bf0 623e 0972 08be 1b87 8abd 54d8 663e
00000090: 382d c43c fdbb 823d 718e 29be 38cf db3d
000000a0: b0ab 41be e9f5 75bc 1f51 b8bc 46dc 41bd
000000b0: 72ad fc3c 1676 a3ba f017 b33c 3a1c d0bd
000000c0: 6059 ec3d b8dc d2bc 2bf0 6f3a 7190 3e3c
000000d0: 50cb 163c d11c 563d f0ef 5dbe ad78 0ebe
000000e0: 39c9 483d c23c 0a3e 3f08 64bd bd08 c23d
000000f0: bd38 023d 8ddc c43d 13dc 623d f471 02be
00000100: 4c80 5dbe 7c37 1dbd 4023 8b3d 1509 dc3d
00000110: 3509 7a3d bca1 aa3d 0b5f ebbc b3f1 f8bd
00000120: 4075 4e3e c593 113e 9b2b 07be a0f9 c13d
00000130: a598 40be 1077 b7bd ef63 233e 75fc 9a3e
00000140: 6c22 19bd 1712 153e dec3 243e 9b3f 0c3e
00000150: 7675 9e3d e7e3 26be 308c 13bd 5e54 e93c
00000160: 1b0a 423d 1bb9 e3bd 6f4e efbd 4c39 153e
00000170: 25f4 063b 939a 89bd 8e20 453e 20df 81bd
-0.08125002 -0.044654544 -0.14477167 -0.14014325 0.08795987 -0.14599837 0.29379395 0.07121648
-0.005782362 -0.049781002 -0.22806668 0.016437147 -0.08112602 -0.0012015916 -0.04745284 -0.04303255
-0.015884804 0.026537623 0.08272746 -0.027413074 0.06121775 -0.18123928 0.010735154 -0.20426619
0.13826485 -0.0017938673 0.016158564 0.0008885565 -0.06635718 -0.066565916 0.06436286 -0.060904156
0.22161905 -0.13324751 -0.067640506 0.2254346 0.023947343 0.06383512 -0.16558243 0.10732883
-0.1891315 -0.015012243 -0.022499619 -0.04732921 0.030844424 -0.0012471105 0.021862 -0.10161634
0.115404844 -0.025740013 0.0009152914 0.011631117 0.009203747 0.052273575 -0.2167356 -0.13913222
0.049020026 0.1349974 -0.055671927 0.09474323 0.03179239 0.09612379 0.05538566 -0.12738782
-0.21630973 -0.038382992 0.06793833 0.1074392 0.061043937 0.0833163 -0.028731843 -0.121554755
0.20161915 0.14216526 -0.13200228 0.0947144 -0.1880823 -0.08958256 0.1595609 0.30270734
-0.037386343 0.14557682 0.16090342 0.13696139 0.07737248 -0.16297875 -0.036022365 0.028482612
0.04737292 -0.111192904 -0.11684882 0.14572638 0.0020592299 -0.06718936 0.192507 -0.06341386

att_dst f4 [1, 1, 96]
00000000: fd0b 21bd ca5c c2bd 15c5 4cbd 5321 c23c
00000010: 2ff0 083d 8196 e13c 48e1 25be 531b 953a
00000020: d592 8fbc 9605 813d 63fc ec3a 1aa6 27bc
00000030: 3aaa a9bd f395 94bd 15d9 9f3d 52c7 dfbd
00000040: ac89 32bd 6732 5e3c da14 91bc d7e5 093b
00000050: c3ca 2a3d c234 dabd d9c4 473d db8c 0f3d
00000060: fa60 91bd fc55 cbbc 083d 9bbd 357a b1bb
00000070: 589c fdbd a373 83bc ba8d 55be a735 e4bd
00000080: 32c5 703d 9d90 273d f05d 243b ab4c 5f3c
00000090: e8dc 503c 138d 2abd 9f38 91bd 7f5b bdbd
000000a0: 869c cc3c 5804 cebc 6f89 263d afd8 97bd
000000b0: 00a3 553d ddab 17bd 959b 9c3c 6557 003e
000000c0: c08f 01be c4d7 13be 3ba1 a3bb c260 dcbd
000000d0: 9262 f3bc a5b3 05be 92b9 b03d 86f3 9d3c
000000e0: 933c 33be 3aa6 eabd 175a 873b 788b 06be
000000f0: d8ae 9cbb a036 c93c b2fe 563d ff5f 393d
00000100: 9ff1 4f3b e318 683d bfbe 19be a2ca 893c
00000110: 43c7 68bc 61b2 27be c160 93bd 8206 a2bd
00000120: 1ace d4bd c0d6 fa3d 6fa3 ee3d db2a 1d3c
00000130: 9a4f cf3d 9e57 adbd 4467 62bd 6c43 bebd
00000140: 6909 65bc f74f f9bd fd44 c1bd c8eb 6dbc
00000150: 3513 2abe 49b8 ba3d a784 093d 3725 603d
00000160: 6859 e4bd 3c62 80ba 43e0 b7bc 0f70 143b
00000170: 824c 04be 1fd3 023d 45fc 27be b6cf f43d
-0.039318074 -0.09490354 -0.04999264 0.02369753 0.033432182 0.027537586 -0.16199219 0.0011375941
-0.01752607 0.062998936 0.0018080588 -0.010232473 -0.08284421 -0.07255163 0.07805077 -0.10926689
-0.043588325 0.013561822 -0.017710138 0.0021041536 0.041697275 -0.10654594 0.048771713 0.03504644
-0.07098575 -0.024821274 -0.0758 -0.0054161795 -0.12383336 -0.01604635 -0.20854846 -0.11143046
0.05878181 0.0409094 0.0025080405 0.013629119 0.012747981 -0.041638445 -0.07090878 -0.09245967
0.02497698 -0.025148556 0.04065841 -0.07414376 0.052157402 -0.037029136 0.019117156 0.12533338
-0.12652493 -0.14437777 -0.0049935854 -0.107606426 -0.029710088 -0.1305681 0.08629145 0.01928116
-0.17503576 -0.114574865 0.0041306126 -0.1313914 -0.004781585 0.02456218 0.05248899 0.045257565
0.003172971 0.05666436 -0.1501417 0.016820256 -0.014207664 -0.1637664 -0.07196189 -0.079113975
-0.10390873 0.122479916 0.11652266 0.009592737 0.10122605 -0.08463977 -0.055274263 -0.092902035
-0.013979294 -0.12173455 -0.094369866 -0.014521547 -0.1660889 0.09117181 0.033573773 0.05472299
-0.111498654 -0.0009794901 -0.022445804 0.00226498 -0.1291981 0.031939622 -0.16404827 0.1195368

bias f4 [96]
00000000: bfd5 0abd ecef 83bc e103 cc3d fec5 c53d
00000010: 8e8e e73d 3440 f13b f7c6 323e eaaa b13d
00000020: 3095 313d 070d 213e 2ad7 1ebb 35c5 9bbd
00000030: e743 333e 6cb9 37bd e8d5 a43d 36fc 57bc
00000040: 1103 8f3e 11e6 02bc f7c3 2bbd 4291 0abd
00000050: f59d bd3c e7bc bdbd 11de af3d ecfe e7bb
00000060: 96e8 32bd cd45 0ebb d77c a23d 2e82 6eba
00000070: 9b89 103d a045 c9bd 7619 8538 6787 22bd
00000080: 5a13 853d 1fa8 ad3d c993 a9bc 132e bc3d
00000090: 8483 843e 83f0 5bbc 5c5f e0bd adef 32bb
000000a0: d08c 0e3d 12d1 abbd f0e8 0f3e 24b0 8a3e
000000b0: 8906 8e3b 3535 46ba 184a 983d 72c3 a4bd
000000c0: 0f7a e1bb fb95 3b3c 35fa 8ebb 0d74 d7bb
000000d0: 5d76 b2bc 372d 67bd 04f3 163d f1ae b83a
000000e0: 3052 00b9 543a 993d 09c1 9b3d 3fe1 aa3d
000000f0: db52 d3bd b934 e13d 885a a53d ae92 63bb
00000100: 23df d73b 5968 6bbe 2081 ecbd 730e 853d
00000110: ac2d 04be 85bd fcba f91c 8dbd f409 b93d
00000120: ee58 4ebc c7c7 d43d 13c9 963d c625 6c3d
00000130: 0a63 983e 3a23 abbc 4242 5d3e a38c 37bc
00000140: 5bbd adbb 0092 1abc 72a6 36bd dc81 073e
00000150: 29bf 8c3d 5aee f63d 6a64 b13d 4832 a43c
00000160: 1df9 7ebc 9cff a93d 897c 35be ed86 1a3d
00000170: b531 df3c 154b b83c 33e1 9cbc f396 1a3e
-0.03389525 -0.016105615 0.09961677 0.09656905 0.11306487 0.00736239 0.17458712 0.086751774
0.043355167 0.15727626 -0.0024237134 -0.07605974 0.17506371 -0.044854566 0.08048612 -0.01318269
0.27932027 -0.007989422 -0.041934934 -0.033829935 0.023146609 -0.09264546 0.08587278 -0.0070799496
-0.043678842 -0.0021709085 0.079339676 -0.0009098378 0.03528748 -0.09827733 6.346677e-05 -0.03967991
0.06497832 0.08479332 -0.020700352 0.091884755 0.25881588 -0.013424042 -0.10955688 -0.0027303502
0.034802258 -0.08389486 0.14053702 0.2708751 0.004334275 -0.0007561029 0.07436007 -0.08045091
-0.0068810056 0.011449332 -0.004363323 -0.0065751136 -0.021784956 -0.056439605 0.03685285 0.0014090223
-0.00012237648 0.07481828 0.07605178 0.083437435 -0.10318538 0.10996384 0.08073908 -0.003472488
0.0065878793 -0.22989024 -0.11548066 0.064968966 -0.12908047 -0.0019282555 -0.06890292 0.090351015
-0.012594445 0.10389667 0.073625706 0.05765321 0.2976306 -0.02089082 0.21607307 -0.011202964
-0.005302114 -0.009434223 -0.04459233 0.13233131 0.068723984 0.12057181 0.086617306 0.020043507
-0.015562323 0.08300707 -0.17723288 0.03772633 0.027245382 0.02249674 -0.019150352 0.15096645
