graph/siamese-gnn-fold-3_90.pt (torch, 227671 bytes, 26 tensors)

att_src f4 [1, 1, 96]
0	0x3c9985ee	0.01874062
1	0xbc42a290	-0.011879578
2	0x3e46ff5d	0.19433351
3	0x3e1e5845	0.1546336
4	0x3d8f2def	0.06991183
5	0x3d932b40	0.07185984
6	0x3e23e64f	0.16005825
7	0xbd31853f	-0.043339964
8	0xbdd68bf9	-0.104759164
9	0x3d28e9f1	0.04123873
10	0xbb255476	-0.0025227345
11	0x3d33418e	0.04376369
12	0xbdaa4a96	-0.083150074
13	0xbe2ee39b	-0.17079012
14	0xbe234da6	-0.1594759
15	0xbe674f4c	-0.22588843
16	0x3dafc715	0.08582894
17	0xbd23989f	-0.039940473
18	0xbd95962b	-0.07304033
19	0x3e63efa3	0.22259383
20	0x3d5f9651	0.054586712
21	0xbdc107b7	-0.094252996
22	0xbd413e5a	-0.047178604
23	0xbe737f14	-0.23778945
24	0x3dcac54d	0.099009134
25	0x3cb70132	0.022339437
26	0x3da3c0b7	0.07995742
27	0xbe11b372	-0.14228609
28	0x3debc227	0.11511641
29	0xbe322c2d	-0.17399664
30	0x3e424e46	0.18975171
31	0x3e1f3213	0.15546446
32	0xbacb9fd4	-0.0015535303
33	0xbc5b17cd	-0.013372374
34	0x3d02b523	0.031911027
35	0xbd27438e	-0.04083591
36	0xbe0a4a9b	-0.13505022
37	0x3e463ff1	0.19360329
38	0x3dcbc09d	0.099488474
39	0xbe2c91fd	-0.16852565
40	0x3dcac116	0.099001095
41	0x3e22142e	0.1582801
42	0x3e0cad79	0.1373805
43	0x3e34bbdc	0.17649788
44	0x3da47e76	0.08031933
45	0xbd9aeeb6	-0.07565062
46	0xbe0b5e27	-0.13610135
47	0x3e102b30	0.14078975
48	0x3e251c38	0.16124046
49	0xbe274aa9	-0.16337074
50	0xbd097842	-0.033561952
51	0xbe3bbdc8	-0.18334115
52	0xbe7681c4	-0.24072939
53	0x3d754edf	0.05988967
54	0x3da54ef6	0.08071701
55	0x3c1af620	0.009458095
56	0x3e6d2125	0.23157175
57	0xbd74633c	-0.05966495
58	0x3d8c80b5	0.068604864
59	0x3ca8a41a	0.020586062
60	0x3c9f500a	0.019447345
61	0x3daebce1	0.085321195
62	0xbdd35cae	-0.103204116
63	0x3ddb94a7	0.107217126
64	0x3d0c61fd	0.034273136
65	0x3df1c0b2	0.11804332
66	0x3e2b9962	0.1675773
67	0xbdfd380c	-0.12364206
68	0xbc3ed1fb	-0.011646743
69	0x3b84775a	0.004042548
70	0xbd922037	-0.07135051
71	0xbe1a55a4	-0.15071732
72	0x3e670dfa	0.22563925
73	0x3e22358a	0.15840736
74	0xbddc4420	-0.10755181
75	0xbe7db465	-0.24775846
76	0x3d5bfb39	0.05370638
77	0xbe0121c9	-0.12610544
78	0xbe840733	-0.25786743
79	0x3e45a395	0.19300683
80	0x3e05e3c2	0.13075164
81	0xbd021452	-0.03175766
82	0xbe87f119	-0.2655113
83	0xbe50df02	-0.2039757
84	0x3e98571d	0.29753962
85	0xbe1343a6	-0.14381275
86	0xba3944e5	-0.0007067456
87	0x3d47a3d5	0.048740227
88	0x3d705ffa	0.05868528
89	0x3e59cbb2	0.2126911
90	0xbdc46a9c	-0.095906466
91	0xbba84965	-0.0051357024
92	0x3e005abe	0.12534615
93	0x3da63b03	0.08116724
94	0x3d280e01	0.04102898
95	0x3d396234	0.04525967

att_dst f4 [1, 1, 96]
0	0xbcd9d66e	-0.026591506
1	0x3c7b3a1e	0.01533368
2	0x3cb77290	0.022393495
3	0x3d63c9ac	0.05561225
4	0xbd4a272e	-0.04935377
5	0xbd87178a	-0.065962866
6	0xbbccad1c	-0.006246222
7	0x3d89867e	0.067151055
8	0x3cfd445b	0.030916383
9	0x3baa02f1	0.005188339
10	0xbc0c2f56	-0.008556208
11	0x3ce88d98	0.02838783
12	0xbc73a8ac	-0.0148717575
13	0xbb9e5492	-0.004831859
14	0x3cd12370	0.025529593
15	0xbd357427	-0.044300225
16	0xbd5f900c	-0.054580733
17	0x3da5e5b3	0.08100452
18	0xbd827c79	-0.063713975
19	0xbc72ce41	-0.014819683
20	0xbd637f65	-0.055541415
21	0x3c941567	0.018076612
22	0x3d14538d	0.036212493
23	0x3cfc7a88	0.030820146
24	0x3d74acfe	0.05973529
25	0x3c6a5a4d	0.014303756
26	0xbc608bf1	-0.01370524
27	0x3d66f649	0.05638722
28	0xbc6dfffe	-0.014526365
29	0xbd2224a8	-0.03958574
30	0xbcf47b03	-0.029843813
31	0x3d530959	0.051522586
32	0x3d87f156	0.06637828
33	0x3d7cbb8f	0.061702307
34	0xbc7fb13d	-0.015606222
35	0x3d5a683c	0.053322062
36	0x3d65da7e	0.056116574
37	0x3d0010cd	0.031266022
38	0xbb76584a	-0.0037589245
39	0xbc6637e0	-0.014051408
40	0x3d845e08	0.064632475
41	0x3da15dc5	0.07879213
42	0x3d00ea8c	0.03147368
43	0x3dc9be08	0.09850699
44	0xbcb2382a	-0.021755297
45	0xbd40bbdd	-0.04705416
46	0xbcd8e44c	-0.026476048
47	0xbccf39dc	-0.025296144
48	0x3d9613f6	0.07328026
49	0xbd235b7b	-0.039882164
50	0x3d851f0b	0.065000616
51	0x3ce29ace	0.027661707
52	0xbd3cd5f2	-0.04610247
53	0x3d9558c5	0.07292322
54	0x3ce83284	0.0283444
55	0x3d26d7ce	0.04073315
56	0x3c4c5fe4	0.012474034
57	0xbca4289c	-0.020038895
58	0xbcc4f45c	-0.0240423
59	0x3c38003b	0.011230524
60	0xbcc65fc0	-0.024215579
61	0x3d86227b	0.065495454
62	0x3d7ef526	0.06224551
63	0xbcf2082d	-0.029544914
64	0x3ca0903c	0.019600026
65	0x3d814a6b	0.06313022
66	0x3d0d5c26	0.034511708
67	0xbcb197d6	-0.021678846
68	0x3d7947c9	0.060859475
69	0x3c666fb6	0.01406472
70	0x3babebdf	0.005246624
71	0xbd42e290	-0.047579348
72	0xbd0e1b21	-0.03469384
73	0x3d928ec8	0.071561396
74	0x3d2547e2	0.040351756
75	0xbd857dc8	-0.065181315
76	0xbcfeb037	-0.031089885
77	0x3c6165dd	0.013757196
78	0x3b68809b	0.0035477045
79	0xbc4d92af	-0.012547179
80	0xbd1070f9	-0.03526399
81	0x3c9892ca	0.018624682
82	0xbc7ad522	-0.015309604
83	0x3ca9c687	0.020724548
84	0xbb014c73	-0.0019729405
85	0xbd502b51	-0.05082256
86	0xbd29b420	-0.041431546
87	0xbc3a1542	-0.011357607
88	0x3d824b88	0.06362063
89	0xbcc6e231	-0.024277778
90	0x3d92826f	0.071537845
91	0xbcb81325	-0.022470066
92	0x3ccd5f8b	0.025069973
93	0xbc4ef559	-0.012631738
94	0x3d0527ee	0.032508783
95	0xbcd294fd	-0.025705809

bias f4 [96]
0	0xbe95c53f	-0.2925205
1	0x3ca04a95	0.019566813
2	0x3d335a07	0.04378703
3	0x1091b5b6	5.7472386e-29
4	0xbdee5992	-0.11638178
5	0xbd2e960f	-0.042623576
6	0x3e46212b	0.1934859
7	0x3bc64054	0.006050149
8	0xbbf9a87d	-0.0076189623
9	0x38b1343e	8.4497486e-05
10	0xbd075ff0	-0.033050478
11	0x3eb15bcc	0.34640348
12	0x3dce36b0	0.100690246
13	0x3e678f52	0.22613266
14	0x3bd043f0	0.006355755
15	0x3d234d96	0.039868914
16	0xbd262c7f	-0.04056978
17	0xb84d1206	-4.8892594e-05
18	0x3e163c60	0.14671469
19	0x3e11dff5	0.14245589
20	0x3e139fbf	0.14416407
21	0xbd2617f2	-0.04055018
22	0xb9323810	-0.00016996288
23	0xbe0f9cff	-0.14024733
24	0x00000000	0.0
25	0xbe195e41	-0.14977361
26	0x3dc5acea	0.09652121
27	0x3bc2d0e1	0.0059453105
28	0x3e4c48a1	0.1994958
29	0x3c85ae35	0.01631842
30	0xbe0101d1	-0.12598349
31	0x3c9c0872	0.019046996
32	0xba30b94b	-0.0006741478
33	0xbc2630cf	-0.010143473
34	0x3d8eb3fc	0.06967923
35	0x00000000	0.0
36	0xbb82ad8b	-0.003987973
37	0x3c0c0d15	0.008548041
38	0xbdd7eb43	-0.105429195
39	0xbd828317	-0.0637266
40	0x00000000	0.0
41	0x00000000	0.0
42	0x3a6775d4	0.00088295084
43	0x3d289ce0	0.041165233
44	0xbe0e602f	-0.13903879
45	0x3d91b32f	0.07114255
46	0x3e2f6665	0.17128904
47	0x3dd039f9	0.101673074
48	0x00000000	0.0
49	0xbd465188	-0.048417598
50	0x00000000	0.0
51	0x3c9745d9	0.018465923
52	0xbc44c744	-0.012010399
53	0x00000000	0.0
54	0x3e2aca37	0.16678701
55	0xbaf36f7e	-0.0018572656
56	0xbc2d3dcb	-0.010573815
57	0xbdc221f9	-0.09479136
58	0xbe26acb7	-0.16276823
59	0x3d046089	0.032318626
60	0xbce7f999	-0.02831726
61	0x00000000	0.0
62	0x3c4f1717	0.012639782
63	0xbd08639a	-0.033298112
64	0x3cf8c3ab	0.03036674
65	0x3d5ea00d	0.054351855
66	0x00000000	0.0
67	0x3d658949	0.05603913
68	0xbb74b8ba	-0.003734155
69	0x3ed0cda0	0.4078188
70	0xbb62900d	-0.0034570724
71	0xbc8a2172	-0.016861651
72	0xbc46b2ee	-0.012127621
73	0x3d0756dd	0.033041824
74	0x00000000	0.0
75	0x3e2f4e19	0.17119636
76	0xbe8a1967	-0.26972505
77	0x3de62cbe	0.11239003
78	0xbca15a3f	-0.019696353
79	0x3d90b47c	0.07065675
80	0x3db9c3a3	0.09070518
81	0x3bc943c4	0.0061421115
82	0xbd71681c	-0.058937177
83	0xbe52391a	-0.20529595
84	0x3e5e73cb	0.21723859
85	0xbd6ad8d8	-0.057335705
86	0xbda1d94b	-0.079027735
87	0xbe3c01dd	-0.18360086
88	0xbb90ca38	-0.0044186376
89	0xbd1e657a	-0.038670994
90	0x3d506e4d	0.05088644
91	0xbd664b40	-0.056224108
92	0xba9d5fa3	-0.0012006651
93	0xbdead6f6	-0.11466782
94	0xbd530917	-0.05152234
95	0x3dc4cf06	0.09609799

weight f4 [96, 10]
0	0x3e07a959	0.13248195
1	0x3e074654	0.13210422
2	0xbe41569f	-0.188807
3	0xbe03356b	-0.12813346
4	0x3e341f76	0.17590126
5	0xbe4ef85f	-0.20211934
6	0xbcfacf98	-0.030616567
7	0x3e07f010	0.1327517
8	0xbdb1a789	-0.08674533
9	0x3eb27df0	0.34861708
10	0x3e67eedf	0.22649716
11	0x3c53a46f	0.012917622
12	0xbe5f1153	-0.21783952
13	0xbe0d4658	-0.13796365
14	0x3e580e8d	0.210993
15	0xbe636442	-0.22206214
16	0xbe8ee4cf	-0.27908942
17	0xbe74348b	-0.23848169
18	0x3c646d6b	0.013942103
19	0x3eea1d24	0.45725358
20	0xbe2e2889	-0.1700765
21	0x3e08d113	0.13361005
22	0xbe229b63	-0.15879588
23	0x3e17d7ff	0.1482849
24	0xbdacaa5f	-0.08430933
25	0xbe3294f7	-0.17439638
26	0x3e9bbfc4	0.30419743
27	0x3e886bbb	0.26644692
28	0x3e4a10fa	0.19733039
29	0x3f049927	0.5179619
30	0xbe619f0a	-0.22033325
31	0xbdc90503	-0.09815409
32	0xbe11d9d6	-0.14243254
33	0x3e8e3f94	0.2778288
34	0xbe0f07c7	-0.1396781
35	0xbe6e5721	-0.23275425
36	0xbd0a93cb	-0.033832353
37	0x3e055e74	0.13024312
38	0xbce56555	-0.02800242
39	0xbd636d03	-0.055523884
40	0x3dd1be56	0.10241382
41	0x3d399c49	0.04531506
42	0xbce6d223	-0.028176373
43	0xbe1854c4	-0.14876086
44	0x3e2975d5	0.16548856
45	0x3e2c5c60	0.16832113
46	0xbe81cc7c	-0.25351322
47	0xbe903066	-0.28161925
48	0xbea563f7	-0.3230283
49	0x3e60a52d	0.2193801
50	0x3e166cd8	0.14689958
51	0x3da88198	0.08227843
52	0xbe398d70	-0.1812036
53	0x3da6237f	0.08112239
54	0xbe1db35e	-0.15400454
55	0x3e632cca	0.22185054
56	0xbeb408c6	-0.35162944
57	0xbe651ec3	-0.22375016
58	0x3e94ecc9	0.29086903
59	0xbf13d885	-0.5775226
60	0xbddb6435	-0.10712472
61	0xbe3a7142	-0.18207267
62	0xbdfc5f5c	-0.12322876
63	0x3e8fe5ad	0.28104916
64	0x3d3c96cd	0.046042252
65	0xbd85cdca	-0.06533392
66	0x3c684668	0.014176942
67	0x3e5692c7	0.20954429
68	0xbe9358a2	-0.2877856
69	0x3ec05c5a	0.3757046
70	0x3d9a2398	0.0752632
71	0x3e041f6b	0.1290261
72	0xbda67f82	-0.08129789
73	0xbe88d03e	-0.26721376
74	0xbe2953f1	-0.16535927
75	0xbd2513d8	-0.040302128
76	0xbdd7069f	-0.1049931
77	0x3d872040	0.06597948
78	0x3c4c53fd	0.012471196
79	0xbe041dad	-0.12901945
80	0x3ce5b415	0.028039971
81	0xbd582ea2	-0.052778848
82	0x3e2dff7d	0.16991992
83	0xbe942b3d	-0.28939238
84	0xbe067d64	-0.1313377
85	0x3e613dac	0.21996182
86	0x3d7eb120	0.06218064
87	0xbe3c8f7f	-0.18414114
88	0x3e5cffa1	0.2158189
89	0x3ce0634c	0.027391098
90	0x3d996c65	0.07491378
91	0xbe91aa92	-0.28450447
92	0x3e73abe7	0.23796044
93	0xbdfb3fe0	-0.122680426
94	0x3e0253de	0.12727305
95	0xbe1bf160	-0.15228796
96	0xbe709648	-0.23494828
97	0xbd033603	-0.03203393
98	0xbe2c4c35	-0.16825946
99	0xbcc1a7be	-0.023639556
100	0x3d3e6515	0.046483118
101	0xbebe9719	-0.37224653
102	0x3d66fe0b	0.056394618
103	0xbb3aefe5	-0.0028524336
104	0x3e784aad	0.24247237
105	0xbe00293f	-0.12515734
106	0x3e2f0863	0.17093043
107	0xbe2f722c	-0.17133397
108	0x3a0701ca	0.0005150108
109	0xbd84e079	-0.06488127
110	0xbe7a78e1	-0.24460174
111	0xbd9559ab	-0.072924934
112	0x3e242370	0.16029143
113	0xbe266ff0	-0.16253638
114	0x3e1fe5b4	0.15614969
115	0x3ddca068	0.107727826
116	0x3c8d89db	0.017277649
117	0x3cb61eaf	0.022231428
118	0x3e69d1ca	0.22833934
119	0x3f081228	0.53152704
120	0xbc7c91b4	-0.015415598
121	0x3d43e8c5	0.04782941
122	0xbdf634f2	-0.12021817
123	0x3dd65e04	0.10467151
124	0x3e29d13d	0.16583724
125	0xbe8b534e	-0.27211994
126	0xbd446ad8	-0.047953457
127	0x3d0c3c61	0.03423727
128	0x3cf023d9	0.029313968
129	0xbea99555	-0.33121744
130	0xbd578166	-0.05261364
131	0x3df23a51	0.11827529
132	0xbd049f39	-0.03237841
133	0xbe9ab4cd	-0.30216065
134	0x3e811ed0	0.2521882
135	0x3de6edf1	0.112758525
136	0xbe0ba1f7	-0.13636003
137	0xbc5476d5	-0.012967785
138	0x3d79aee8	0.06095782
139	0x3e0cb569	0.13741077
140	0x3dbad042	0.09121753
141	0xbdf48669	-0.11939699
142	0x3e3ddfa8	0.1854235
143	0x3a836c6e	0.0010026821
144	0xbdb5e8ee	-0.088823184
145	0xbd8540ba	-0.06506486
146	0xbe83ca23	-0.25740156
147	0xbea4d8ab	-0.32196555
148	0x3dd41a18	0.103565395
149	0xbc439ab7	-0.011938742
150	0xbca8119f	-0.020516215
151	0xbc8923ff	-0.016740797
152	0x3b7f3034	0.0038938643
153	0x3c1d4129	0.009598055
154	0xbdfb6f16	-0.12277047
155	0x3e7c50e4	0.24640232
156	0xbedb3924	-0.42817032
157	0x3e008102	0.12549213
158	0x3e3aea98	0.18253553
159	0x3e3b4aeb	0.18290298
160	0xbdd42c76	-0.10360043
161	0xbd0f716d	-0.03502028
162	0x3e1bf153	0.15228777
163	0x3e2c690d	0.16836949
164	0x3dfba7b5	0.12287847
165	0xbdb80d11	-0.08986867
166	0x3e24ed45	0.16106136
167	0xbd8ed4a2	-0.0697415
168	0xbe73568c	-0.23763484
169	0xbed66feb	-0.41882262
170	0x3e56dd54	0.20982867
171	0xbda75699	-0.08170814
172	0x3a062d42	0.0005118438
173	0xbdb74a92	-0.0894977
174	0xbdccfb4f	-0.10008871
175	0xbdef5de7	-0.11687832
176	0xbb258772	-0.0025257734
177	0xbeb2c65b	-0.34916958
178	0xbe2e1e71	-0.170038
179	0xbe1248c5	-0.14285572
180	0xbda1b815	-0.07896439
181	0xbbc4413c	-0.005989222
182	0x3be1d26a	0.0068915384
183	0x3e456240	0.1927576
184	0x3df5f308	0.12009245
185	0x3d1b71f6	0.03795048
186	0xbe37a69b	-0.17934649
187	0xbe83bb9e	-0.25729078
188	0xbdf5e869	-0.12007219
189	0xbeb3133a	-0.34975606
190	0xbc1e17b8	-0.00964921
191	0xbc240bf6	-0.010012617
192	0xb9eddfca	-0.00045370898
193	0x3e37e907	0.17959987
194	0xbdaf5870	-0.0856179
195	0xbdec7680	-0.115460396
196	0x3cfbd812	0.030742679
197	0x3da782b6	0.08179228
198	0x3da69fb1	0.081359275
199	0x3e893a57	0.26802322
200	0x3c58c604	0.013230804
201	0xbc635bbf	-0.013876854
202	0x3ccb025a	0.024781395
203	0x3dbe2f96	0.0928642
204	0x3c29aaed	0.010355693
205	0xbda78abc	-0.08180758
206	0xbecca04c	-0.39966047
207	0xbb6b06c1	-0.003586218
208	0x3e9fbec4	0.3120023
209	0x3e6df5cc	0.23238295
210	0x3b838fae	0.0040149307
211	0x3e01edb5	0.12688334
212	0x3e5c2525	0.21498545
213	0xbd7bcf65	-0.061477084
214	0xbe4e07dd	-0.20120187
215	0xbc5424ad	-0.012948197
216	0xbe2bfbdb	-0.16795294
217	0xbe8c7ea7	-0.27440378
218	0xbddfa04d	-0.10919247
219	0xbf1d5dda	-0.6147133
220	0xbd3894d2	-0.0450638
221	0xbd8aa902	-0.06770517
222	0x3c64c4f8	0.013962977
223	0xbe360603	-0.17775731
224	0xbc035101	-0.008014918
225	0x3e92daeb	0.28682646
226	0xbcf7dfb8	-0.030258045
227	0xbe756bcc	-0.23966902
228	0x3ce3253b	0.027727714
229	0x3db27842	0.087143436
230	0x3deb7d22	0.114984766
231	0x3deb256d	0.11481748
232	0xbe9072cb	-0.2821258
233	0x3da043fd	0.07825468
234	0xbe0e6852	-0.13906983
235	0xbd5a2087	-0.053253677
236	0xbe8dfecb	-0.27733454
237	0xbe767da3	-0.24071364
238	0x3dc64559	0.09681196
239	0xbe41e1a8	-0.18933737
240	0xbe005e31	-0.12535931
241	0xbdce66f4	-0.100782305
242	0xbddbc905	-0.10731701
243	0x3e22fe16	0.15917239
244	0xbdc8871e	-0.097913966
245	0xbe91863a	-0.2842272
246	0x3e0226b8	0.12710083
247	0x3e3ce395	0.1844619
248	0xbe6b473f	-0.22976397
249	0x3dc9833f	0.09839486
250	0xbdcce59d	-0.10004733
251	0x3dd3fb8b	0.103507124
252	0xbc49da4e	-0.012320114
253	0xbe40600d	-0.1878664
254	0x3e065d31	0.13121487
255	0xbc78e4a2	-0.015191229

att_src f4 [1, 1, 96]
0	0xbdf175a2	-0.11790015
1	0xbe8283bf	-0.2549114
2	0xbdc6ae54	-0.09701219
3	0x3ca213fd	0.019784922
4	0x3d285d41	0.04110456
5	0x3e7bbff3	0.24584942
6	0xbe0e1ca6	-0.13878116
7	0x3d0f23d0	0.034946263
8	0x3d77092e	0.06031149
9	0xbb1653f2	-0.002293822
10	0x3d52663a	0.051367022
11	0x3e1ccdee	0.15312931
12	0x3da8b3b3	0.082374
13	0x392885b5	0.00016071538
14	0x3e33f4e0	0.17573881
15	0xbdb3d09f	-0.08780026
16	0x3c728796	0.014802834
17	0xbe03c4b7	-0.1286801
18	0xba3d06b8	-0.0007210779
19	0x3d75a7e8	0.05997458
20	0xba95bb20	-0.0011423565
21	0xbd2a4504	-0.041569725
22	0x3d0fc167	0.035096552
23	0xbe064265	-0.13111265
24	0xbda279b7	-0.079333715
25	0x3d891983	0.06694319
26	0xbcbe538a	-0.023233194
27	0x3e441687	0.19149218
28	0x3e14cb75	0.14530738
29	0xbd9e460c	-0.07728204
30	0x3daca18f	0.08429252
31	0xbe5971cc	-0.21234816
32	0x3dce8858	0.10084599
33	0x3d01a2ff	0.031649586
34	0xbe7da9e8	-0.24771845
35	0x3e16dd7a	0.14732924
36	0x3b07aa53	0.0020700886
37	0xbdb5a31f	-0.088690035
38	0x3d43ae4f	0.047773656
39	0xbd9a7c35	-0.07543222
40	0xbd021580	-0.031758785
41	0xbdbe107e	-0.092804894
42	0xbbdf5ad2	-0.0068162465
43	0xba74e223	-0.00093415583
44	0xbdad90bb	-0.08474871
45	0xbb1a797f	-0.0023570952
46	0xbe4cd500	-0.20003128
47	0xbe2622db	-0.16224234
48	0xbcac2d8c	-0.021017812
49	0xbc842c4a	-0.0161344
50	0x3e2179c8	0.15769112
51	0x3aa577c5	0.0012624195
52	0x3e6fcbb7	0.23417555
53	0xbd20e5ec	-0.03928177
54	0xbda8bed0	-0.082395196
55	0xbe36c3b6	-0.17848095
56	0x3c7361c2	0.01485485
57	0x3bb91608	0.0056483783
58	0xbd379fd7	-0.04483017
59	0xbb5fd89a	-0.0034156204
60	0xbdfdbbe3	-0.12389352
61	0x3cacd64e	0.021098282
62	0x3cd1e49d	0.025621707
63	0xbcd08f67	-0.025459005
64	0x3dcc92f5	0.09988967
65	0xbc8f04c4	-0.017458327
66	0x3b3de236	0.0028973944
67	0x3b3c658a	0.0028747045
68	0x3c511459	0.012761199
69	0xbb736476	-0.0037138737
70	0x3dc48449	0.09595544
71	0x3bd02fc7	0.0063533518
72	0xbbfcbd96	-0.00771303
73	0xbc485277	-0.012226692
74	0x3e6ee4e6	0.23329505
75	0xbd388f33	-0.04505844
76	0x3da8d4ed	0.08243737
77	0x3bb18383	0.0054172887
78	0x3d621d27	0.055203583
79	0xbe1555e0	-0.1458354
80	0x3acdd5ed	0.0015704014
81	0x3d69865a	0.057012893
82	0x3d287617	0.041128244
83	0x3d278ffd	0.040908802
84	0xbc98bae9	-0.018643813
85	0x3dd7a487	0.10529428
86	0x3e1c15eb	0.15242736
87	0x3dc0525b	0.09390708
88	0x3dca567d	0.098797776
89	0x3b4daa27	0.0031381936
90	0xbbbf9e23	-0.005847709
91	0xbb864611	-0.004097708
92	0xbcad18ef	-0.021130053
93	0x3c9e651f	0.019335328
94	0x3de0cc42	0.10976459
95	0xbdc7c3a5	-0.09754113

att_dst f4 [1, 1, 96]
0	0x3d96e67b	0.073681794
1	0xbda8d608	-0.08243948
2	0x3b397e97	0.0028304213
3	0xbd158184	-0.03650047
4	0x3da5b7bc	0.08091685
5	0xbbe9fabc	-0.0071404856
6	0x3e1bba66	0.15207824
7	0x3da074ad	0.07834754
8	0x3d81733c	0.06320807
9	0x3d67c7f0	0.05658716
10	0x3e0b23ad	0.13587828
11	0x3cfee6c0	0.03111589
12	0x3ccaf06e	0.024772849
13	0x3cd8b77a	0.026454676
14	0x3a6ea991	0.0009104247
15	0xbd9bbaf7	-0.0760402
16	0x3d81b01e	0.0633242
17	0x3db12602	0.086498275
18	0x3d9ec80c	0.07753
19	0x3d141bea	0.036159433
20	0x3bb9f125	0.0056744986
21	0x3c511e1b	0.012763525
22	0xbc8a365a	-0.01687162
23	0xbddc267c	-0.10749528
24	0x3cd01eef	0.025405375
25	0xbc8f33bb	-0.017480722
26	0xbd08994c	-0.03334932
27	0xbe14989a	-0.14511338
28	0xbd2f3811	-0.04277808
29	0xbc68150c	-0.014165174
30	0xbdccadfb	-0.09994122
31	0xbd008c82	-0.031384
32	0x3e55587d	0.20834537
33	0x3d72805a	0.059204437
34	0x3dc92c52	0.098229066
35	0xbd7024eb	-0.058628958
36	0x3d40e20c	0.047090575
37	0xbd3bfbd5	-0.045894463
38	0x3cb17fe8	0.021667436
39	0xbd842755	-0.064528145
40	0xbdf2b1c6	-0.11850314
41	0x3c176d33	0.009242344
42	0x3d1eca64	0.038767233
43	0x3d9e1a87	0.077199034
44	0x3df58ef3	0.11990156
45	0x3d45392e	0.048150234
46	0x3df5776d	0.11985669
47	0xbd9184c6	-0.07105403
48	0x3e007772	0.12545565
49	0x3dcfb64d	0.10142193
50	0xb88b7ec9	-6.651652e-05
51	0x3dcc01b5	0.09961263
52	0xbd09c69b	-0.03363667
53	0x3d1912fa	0.037371613
54	0x3d8a469e	0.067517504
55	0xbd6e3542	-0.05815626
56	0x3d034d04	0.03205587
57	0x3e020e59	0.12700786
58	0x3d249f03	0.040190708
59	0x3a5e73de	0.00084858935
60	0x3c1d08eb	0.009584646
61	0x3bd43946	0.006476554
62	0x3cfb22f5	0.030656317
63	0x3d5dc176	0.054139577
64	0xbd71e46a	-0.059055723
65	0x3d94c1b4	0.072635084
66	0xbd1295ae	-0.035787277
67	0x3d3ffcfd	0.046872128
68	0x3d68cce9	0.056836043
69	0x3dadda2f	0.08488881
70	0x3d7bd3c3	0.06148125
71	0x3cdcc1da	0.026947904
72	0xbc979854	-0.018505253
73	0x3d28210c	0.04104714
74	0x3c76208a	0.015022406
75	0xbb0fb818	-0.0021929797
76	0xbd4edc81	-0.050503258
77	0x3b6ccb96	0.003613209
78	0x3dd7722b	0.10519823
79	0xbd2212f4	-0.039568856
80	0x3d1de91b	0.038552385
81	0x3d2c9bb9	0.042140696
82	0xbb070941	-0.002060488
83	0xbd5c38c8	-0.05376509
84	0xbdafe270	-0.085881114
85	0x3d6a9322	0.057269223
86	0x3dcd9479	0.100380845
87	0x3e26b561	0.16280128
88	0x3c24dfed	0.010063154
89	0x3d08c83e	0.03339409
90	0x3dcfae2f	0.10140645
91	0x3d1b755a	0.037953712
92	0xbd0db307	-0.034594562
93	0xbc9003fa	-0.017580021
94	0xbd5f8905	-0.05457403
95	0x3df3bcc0	0.119012356

bias f4 [96]
0	0x3e142da7	0.1447054
1	0x3e0ab7fa	0.13546744
2	0x3d708aba	0.05872605
3	0x3e0d9c2d	0.13829108
4	0x00000000	0.0
5	0xbe17ab50	-0.14811444
6	0x3e71ed1f	0.23625611
7	0x3c369626	0.011144197
8	0x3c3f89ae	0.01169054
9	0xbc0f1ac6	-0.008734411
10	0x810c7fa8	-2.5805528e-38
11	0xbd0a551d	-0.033772577
12	0xba41d6fe	-0.0007394402
13	0xbc186f07	-0.009303815
14	0x3db9bdfd	0.090694405
15	0xbd814865	-0.06312636
16	0x3c3365cf	0.010949566
17	0x3d6579ca	0.05602435
18	0xbbc1c0f6	-0.0059128953
19	0xbdd6b2de	-0.10483335
20	0xbbf4b1cb	-0.0074674836
21	0xbcceb4af	-0.025232641
22	0xbdd248c4	-0.10267785
23	0xbde474cc	-0.1115509
24	0x3d226dd0	0.039655507
25	0xbdc05790	-0.09391701
26	0x3d2e31a6	0.042527817
27	0xbe83f542	-0.25773054
28	0xbd31a008	-0.04336551
29	0xba906b22	-0.0011018256
30	0xbdb8e9cf	-0.090289705
31	0x3e6d9351	0.23200728
32	0x01359bb8	3.3356172e-38
33	0x3e5c146b	0.21492164
34	0xbc2d27fd	-0.010568616
35	0x3e65370d	0.22384281
36	0xba120fa8	-0.0005571791
37	0x3d5f8e90	0.054579318
38	0xbe1d24d2	-0.15346077
39	0x3e3c244c	0.18373221
40	0xbd52c4ea	-0.051457323
41	0x3c9b37be	0.018947478
42	0xbb4008cd	-0.002930212
43	0xbb4747ca	-0.003040778
44	0xbc3fe0a2	-0.0117112715
45	0xbd0eadb6	-0.034833632
46	0xbe00913e	-0.12555405
47	0x3da04a57	0.07826679
48	0xbae06203	-0.0017119054
49	0xbcd13ddb	-0.02554219
50	0x3aa89e95	0.0012864644
51	0x3b4bf3e6	0.0031120717
52	0x3e14f803	0.14547734
53	0x3e858671	0.26079133
54	0xbd14facf	-0.036372002
55	0xbdf0b76e	-0.117537364
56	0xbc74b1a7	-0.014934934
57	0xbb2be789	-0.0026230535
58	0xbd95c1f1	-0.07312382
59	0xb9be88a8	-0.0003634144
60	0xbd1a8c82	-0.037731655
61	0xbd04696a	-0.032327093
62	0xbc94f8bd	-0.018185014
63	0x3c872f5a	0.016502071
64	0x3aeb6f0a	0.0017962169
65	0xbb691241	-0.0035563859
66	0xbb7d078e	-0.003860924
67	0xbb8e1f17	-0.0043372023
68	0xbd4a6c26	-0.049419545
69	0x3a1fb6d6	0.00060926133
70	0xbd99a57f	-0.07502269
71	0x3a221e2f	0.0006184307
72	0x3e70384c	0.23458976
73	0xbbf17828	-0.00736906
74	0x3e2e8f15	0.17046769
75	0xbca12c1c	-0.019674353
76	0xbda98e91	-0.082791455
77	0xbbcb3dba	-0.0062024267
78	0x3e64d5b9	0.22347154
79	0x3e11c1c2	0.14234069
80	0xbc8ed7e6	-0.017436933
81	0xbd039116	-0.032120787
82	0xbdbcc2fa	-0.09216876
83	0xbd86406d	-0.06555257
84	0x3e3d866a	0.18508306
85	0x3e1d088e	0.15335295
86	0xbd7ddf94	-0.0619808
87	0x3d9d21d0	0.07672465
88	0x3da6598a	0.08122547
89	0xba8dc386	-0.0010815717
90	0x3e6e710b	0.2328531
91	0xbcf6c944	-0.030125268
92	0x3e5703c0	0.20997524
93	0x3da0fbb7	0.07860511
94	0x3d878ab1	0.0661825
95	0xbc8d9ff0	-0.017288178

weight f4 [96, 96]
0	0x3bf3fa84	0.0074456353
1	0x3db57b0a	0.088613585
2	0x3e4c91a9	0.1997744
3	0xb661524f	-3.3575523e-06
4	0xbd080b80	-0.033214092
5	0x3da299b3	0.07939472
6	0xbd9e8c00	-0.07741547
7	0x3c7fa7b8	0.015603952
8	0xbd70acfe	-0.05875873
9	0xbe1868f1	-0.14883782
10	0xbdad980a	-0.08476265
11	0x3d95f169	0.07321436
12	0xbd00531c	-0.03132926
13	0xbc8cd973	-0.017193532
14	0xbe3b4cb2	-0.18290976
15	0xbd1209c2	-0.035653837
16	0x3e1a93ab	0.15095393
17	0xbd9393a7	-0.07205897
18	0x3d874d4e	0.066065416
19	0x3e153933	0.14572601
20	0x3d666f32	0.056258388
21	0xbd7b1c5b	-0.06130634
22	0xbba1f104	-0.0049420614
23	0x3dbf9f6c	0.09356579
24	0x80a9b339	-1.5584492e-38
25	0xbe096cce	-0.13420412
26	0x3dcac9a3	0.099017404
27	0x3cc9ca0b	0.024632474
28	0x3e20e037	0.15710531
29	0xbcdd5d46	-0.027022015
30	0x3dfc8998	0.123309314
31	0x3c96a70d	0.018390203
32	0x3d0d7641	0.034536604
33	0xbca929da	-0.02064984
34	0xbdf647d5	-0.120254196
35	0x81721097	-4.4460283e-38
36	0x3cde9add	0.027173454
37	0x3d82d72a	0.063886955
38	0x3d5dc862	0.054146178
39	0xbda7ce59	-0.081936546
40	0x81aceede	-6.352558e-38
41	0x01007190	2.3591364e-38
42	0x3d97c7d9	0.07411165
43	0xbe3a7828	-0.18209898
44	0xbdfa0ded	-0.122096874
45	0x3e1244c2	0.14284042
46	0xbdabb580	-0.08384228
47	0xbe133806	-0.1437684
48	0x006e1a0a	1.0111246e-38
49	0xbd702976	-0.05863329
50	0x01852dc4	4.8922154e-38
51	0xbd08f644	-0.033437982
52	0x3bc14aea	0.005898823
53	0x819ff65d	-5.876089e-38
54	0x3cd67bfb	0.026182165
55	0x3b331be7	0.0027329864
56	0xbd04a391	-0.03238255
57	0xbe46a743	-0.19399743
58	0xbe12b883	-0.14328198
59	0xbd7d76e4	-0.06188096
60	0x3e03243e	0.12806794
61	0x01911ac9	5.330302e-38
62	0x3c704f15	0.014667292
63	0xbe337267	-0.1752411
64	0x3d82974b	0.06376513
65	0x3bd42c02	0.0064749727
66	0x002c7ac2	4.084799e-39
67	0xbd86a283	-0.065739654
68	0x3cf950c8	0.030434027
69	0x3c952c67	0.01820965
70	0xbd96cddb	-0.073634826
71	0x3ddd653b	0.10810324
72	0xbd4ad9e0	-0.049524188
73	0xbc978a65	-0.018498609
74	0x818d0cae	-5.1813414e-38
75	0x3cbfce23	0.023413723
76	0x3df7feab	0.12109121
77	0x3c86d366	0.016458225
78	0x3dd519a8	0.10405284
79	0x3e8d2d40	0.27573586
80	0xbd9bdba6	-0.07610254
81	0x3d31e506	0.043431304
82	0x3c1b4393	0.00947656
83	0xbe1e1722	-0.15438512
84	0x3eb972fb	0.36220536
85	0xbe2e99e8	-0.17050898
86	0x3d465280	0.048418522
87	0xbdcda09a	-0.10040398
88	0xbb48aef2	-0.0030621854
89	0xbd4c077d	-0.04981183
90	0xbdbe1f67	-0.09283333
91	0x3dadfed3	0.084958695
92	0xbd6a0192	-0.057130404
93	0x3cac6a6d	0.021046842
94	0x3d880ad6	0.06642692
95	0xbce603d4	-0.028077997
96	0xbdc0e0ab	-0.09417852
97	0x3cd585bc	0.026064746
98	0x3e3cd8f8	0.18442142
99	0xb5e0fb97	-1.6762523e-06
100	0x3d9a079a	0.07520981
101	0xbd5aede9	-0.053449545
102	0x3e5f10d9	0.2178377
103	0xbdcad746	-0.099043414
104	0x3d4076a4	0.046988145
105	0x3e5467db	0.20742743
106	0xbdeddd88	-0.11614519
107	0xbe2fd9c2	-0.17172912
108	0x3da6fec1	0.08154059
109	0xbdb7837d	-0.08960626
110	0xbdb6c7ac	-0.08924803
111	0x3e403d62	0.18773416
112	0xbdee9bd2	-0.11650814
113	0xbdafe7a4	-0.08589104
114	0x3da8971a	0.08231945
115	0x3d46eb63	0.048564326
116	0x3dd00766	0.10157661
117	0xbdf75b86	-0.120780036
118	0x3bec603c	0.0072136205
119	0x3e816ffb	0.25280747
120	0x013f678e	3.5155456e-38
121	0x3e4020e7	0.18762551
122	0xbddad04a	-0.10684259
123	0xbdd214f4	-0.10257903
124	0x3e6f0740	0.2334261
125	0xbc1f9acd	-0.009741497
126	0xbe01d617	-0.12679325
127	0x3e1c6530	0.15272975
128	0xba92dc29	-0.0011204529
129	0x3d21133c	0.039324984
130	0xbe23b86e	-0.15988323
131	0x8182a011	-4.798414e-38
132	0xbd9f716f	-0.077853076
133	0x3b7644df	0.0037577671
134	0xbe191e69	-0.14953007
135	0x3de256f2	0.1105174
136	0x005c3d4a	8.470852e-39
137	0x80449ed8	-6.301796e-39
138	0xbcd803e8	-0.02636905
139	0x3e0106e9	0.12600292
140	0xbe6dc5c0	-0.23219967
141	0x3d3351a0	0.043779016
142	0x3d65de61	0.05612028
143	0xbe1e0753	-0.15432481
144	0x811611ba	-2.7563367e-38
145	0xbdb0a409	-0.08625037
146	0x8150e6c4	-3.8369133e-38
147	0xbd8302be	-0.063970074
148	0x3e87b316	0.2650382
149	0x80da8ec8	-2.0071358e-38
150	0xbcb0f1c5	-0.02159966
151	0x3c0d97c5	0.008642142
152	0x3c4fbc12	0.012679117
153	0x3e69838b	0.22804086
154	0x3e21d1fe	0.15802762
155	0xbde46a9a	-0.11153145
156	0xbd69259f	-0.056920644
157	0x806784f2	-9.506748e-39
158	0xbda9d91f	-0.08293366
159	0x3d2f4523	0.042790543
160	0x3c0c3082	0.008556487
161	0x3d59a127	0.053132202
162	0x815f5fac	-4.1027272e-38
163	0x3d2e9e2c	0.042631313
164	0xbc3e4fdf	-0.011615722
165	0xbe0f3be4	-0.1398769
166	0x3e341e89	0.17589773
167	0x3c003b31	0.007826612
168	0x3d1194eb	0.03554241
169	0xbdab8b07	-0.08376127
170	0x81af92de	-6.449559e-38
171	0xbb80cf79	-0.0039309827
172	0x3ca8c05e	0.02059954
173	0x3d4c9d26	0.049954556
174	0x3d3cefce	0.046127133
175	0xbc8d0c90	-0.017217904
176	0x3d9303c5	0.07178453
177	0x3ddd1058	0.10794133
178	0xbe432e38	-0.190606
179	0xbda16c43	-0.078819774
180	0x3e6479e0	0.22312117
181	0xbd498650	-0.049200356
182	0x3e4e47c5	0.20144565
183	0x3dcc3d58	0.09972638
184	0xbd9fd877	-0.07804959
185	0xbc832319	-0.016007947
186	0x3ddfa859	0.10920782
187	0xbdbe1583	-0.09281447
188	0x3de40150	0.11133063
189	0x3cc4b682	0.024012808
190	0x3e0b0655	0.13576634
191	0xbcb542c9	-0.022126572
192	0xbd0696ab	-0.032858532
193	0x3de2818c	0.11059865
194	0xbd7739ee	-0.06035798
195	0x2e808252	5.8439156e-11
196	0xbd92f8cf	-0.07176363
197	0xbe2ab6a4	-0.16671234
198	0xbe12c9d5	-0.14334805
199	0xbccf5001	-0.025306704
200	0x3dba5255	0.09097735
201	0x3dd707b5	0.10499517
202	0x3d745059	0.059646938
203	0xbbb87567	-0.00562923
204	0xbd84c41e	-0.06482719
205	0x3e5f9c9a	0.21837083
206	0x3d4978d2	0.04918749
207	0x3e03b79a	0.12863007
208	0xbe1b341e	-0.151566
209	0x3d2738fe	0.040825836
210	0xbdbc1298	-0.09183234
211	0x3d93e452	0.07221283
212	0xbd8b693d	-0.06807182
213	0xbe490585	-0.19631012
214	0x3c8159e7	0.01578994
215	0x3d123d19	0.0357028
216	0x010720e4	2.4819182e-38
217	0x3dc07824	0.09397915
218	0x3da34dc8	0.0797382
219	0x3d4fe76e	0.050757818
220	0xbda6d4e4	-0.081460744
221	0xbe161ae8	-0.14658701
222	0x3ca1cdd5	0.019751469
223	0x3df20ef7	0.118192606
224	0x3bb4fc33	0.0055232286
225	0xbc0932ef	-0.00837396
226	0x3df74663	0.12073972
227	0x813c489c	-3.458224e-38
228	0xbd09e7c7	-0.033668306
229	0xbd198775	-0.037482698
230	0x3d24a0d9	0.04019246
231	0x3c07c996	0.008287808
232	0x00c39db5	1.7964496e-38
233	0x0064f7d0	9.272448e-39
234	0xbd1f7bde	-0.03893649
235	0x3dec02bb	0.11523958
236	0x3e836e9c	0.25670326
237	0xbdca9cf6	-0.09893219
238	0x3e1ece89	0.15508474
239	0x3d9f8eb1	0.07790888
240	0x0137d5a2	3.3765066e-38
241	0x3dc50a3a	0.09621091
242	0x80478ef4	-6.571602e-39
243	0xbcd040c1	-0.025421502
244	0x3e54c76d	0.207792
245	0x012391df	3.004303e-38
246	0x3d90905e	0.07058786
247	0x3d0ef5a7	0.03490224
248	0xbd95997d	-0.07304666
249	0x3e903e51	0.28172544
250	0x3d0a6786	0.033790134
251	0x3d888494	0.06665912
252	0xbd418a87	-0.04725125
253	0x8196e96f	-5.543626e-38
254	0xbddb9cbf	-0.10723256
255	0xbc76e17a	-0.015068406

att_src f4 [1, 1, 96]
0	0xbe3e249a	-0.1856865
1	0xbe14289a	-0.14468613
2	0xb9dccf7f	-0.00042116267
3	0xbe0b3e3b	-0.13597958
4	0x3dc9468d	0.098279096
5	0xb95a8b35	-0.00020841959
6	0x3d96277c	0.0733175
7	0x3de2e025	0.110779084
8	0x3da901e1	0.082523115
9	0x3d9c8282	0.0764208
10	0xbddefcd3	-0.10888066
11	0xbdd1d032	-0.10244788
12	0x3c0466ee	0.008081181
13	0x3acd615b	0.0015669273
14	0xbb08bf31	-0.0020865912
15	0xbe09048a	-0.13380638
16	0xbd2052c7	-0.039141443
17	0x3e4a01ec	0.19727296
18	0x3bb7c53e	0.00560823
19	0x3ce0c181	0.02743602
20	0x3cca927f	0.024728058
21	0x3d4c244c	0.049839303
22	0xbe1442d3	-0.14478616
23	0xbdb4848e	-0.08814345
24	0xbdb5bfd9	-0.08874483
25	0xba949717	-0.0011336532
26	0x3d652baa	0.055949844
27	0xbdf0309c	-0.117280215
28	0xbcac82f8	-0.021058545
29	0x3af26821	0.0018494168
30	0x3dd9e983	0.10640242
31	0x3d8a2116	0.06744592
32	0x39e51e9c	0.0004370109
33	0xbe129ff2	-0.14318827
34	0xbc8818f7	-0.016613467
35	0x3c973d11	0.018461736
36	0x3e89d4c2	0.26920134
37	0xbde84ff3	-0.11343374
38	0xb8bb68e8	-8.936395e-05
39	0xbdaccc67	-0.08437424
40	0xbe114671	-0.14187028
41	0x3d27fa8d	0.04101043
42	0xbe1aa377	-0.1510142
43	0xbd5a9ab1	-0.05337018
44	0xbde7d541	-0.11319972
45	0x3db9d361	0.090735205
46	0x3b8968d3	0.004193404
47	0xbe05edfb	-0.13079064
48	0xbe0940fa	-0.13403693
49	0xbe5d5177	-0.21613108
50	0xbe467336	-0.19379887
51	0xbe2842d7	-0.16431747
52	0x3e389b95	0.180281
53	0x3e1718e7	0.14755593
54	0xbe5ddd1c	-0.21666378
55	0xbdfc7c43	-0.123283885
56	0x3bb8923a	0.005632666
57	0x3db0aa4d	0.08626232
58	0x3d96a6d4	0.07356039
59	0x3e583fa3	0.21118025
60	0x3d307723	0.043082368
61	0xbdbb48ed	-0.09144769
62	0x3e2e97a3	0.17050032
63	0xbe48617d	-0.19568439
64	0xbd168eb4	-0.036757186
65	0xbe1ce7fd	-0.15322872
66	0xbc4e4995	-0.0125907855
67	0x3b282a4e	0.0025659981
68	0xbe11a12c	-0.14221638
69	0x3e19216c	0.14954156
70	0x3d9835c8	0.07432133
71	0x3a20fa31	0.0006140797
72	0x3cede9e9	0.029042201
73	0x3a7beabb	0.00096098677
74	0x3dfef09f	0.124482386
75	0x3e11e30a	0.14246765
76	0x3da07457	0.0783469
77	0x3db07f17	0.086179905
78	0x3e427fa7	0.18994008
79	0xbe43812c	-0.19092244
80	0xbd9f062f	-0.07764851
81	0xbb3d611c	-0.0028896993
82	0x3de423bb	0.111396275
83	0x3d511907	0.05104926
84	0xbdb3beee	-0.08776651
85	0x3dad5d7e	0.08465098
86	0x3e42a0e7	0.19006692
87	0x3e0043da	0.12525883
88	0xbc66b8da	-0.014082158
89	0x3a895398	0.0010477183
90	0x3c63a9d4	0.013895471
91	0xbd4ea755	-0.05045255
92	0xbd2e9ca0	-0.042629838
93	0x3d8564cc	0.06513366
94	0x3e37b20e	0.17939016
95	0xbe080aea	-0.13285413

att_dst f4 [1, 1, 96]
0	0x3d299244	0.041399255
1	0x3df15e19	0.11785526
2	0x3ddfd7f6	0.10929863
3	0x3d5ae373	0.05343957
4	0x3d55cbcb	0.052196305
5	0x3d90e71a	0.07075329
6	0x3e158421	0.14601184
7	0xbcecbae0	-0.028897703
8	0x3da1e5d0	0.079051614
9	0xbc929856	-0.017894905
10	0x3df7ae1d	0.12093756
11	0xbd4afe20	-0.04955876
12	0x3d3dd39d	0.04634439
13	0x3d906ace	0.070516214
14	0x3dee17b2	0.11625613
15	0x3d21a21b	0.039461236
16	0x3d0be686	0.03415539
17	0x3d7cea6c	0.061747
18	0x3dc57781	0.09641934
19	0xbd8e06b8	-0.06934875
20	0x3d932288	0.07184321
21	0x3e14b196	0.14520869
22	0x3d9a01ae	0.075198516
23	0x3e292cb2	0.16520956
24	0x3bef628b	0.0073054484
25	0x3d1147b2	0.035468765
26	0xbd0121d0	-0.031526387
27	0x3d1ba451	0.0379985
28	0x3de6432d	0.112432815
29	0x3d36f0b8	0.04466316
30	0x3d1e4aa1	0.03864539
31	0xbb25b273	-0.0025283366
32	0x3dc79c2d	0.09746585
33	0x3d062c1e	0.032756917
34	0x3e09a6cc	0.13442534
35	0x3db39b16	0.08769815
36	0xbcfe39d7	-0.03103344
37	0xbd1f7f68	-0.038939863
38	0x3e130467	0.14357148
39	0x3cbf118a	0.023323793
40	0xbd7ffafc	-0.062495217
41	0xbcdf98d6	-0.027294558
42	0x3d35891d	0.044320215
43	0x3e5e1682	0.21688274
44	0xbbbbd72c	-0.0057324376
45	0x3e1dbab8	0.15403259
46	0x3d0ff2bb	0.035143595
47	0x3e1b75c6	0.15181646
48	0x3e3b7169	0.18304981
49	0xbdac4cd4	-0.08413091
50	0xbc5c1830	-0.013433501
51	0x3e3a7a53	0.18210725
52	0x3e71b4e9	0.23604168
53	0xbd879f5d	-0.06622193
54	0x3d06ce2c	0.032911465
55	0x3dbab725	0.09116963
56	0x3e05c4c1	0.13063337
57	0x3e056a4a	0.13028827
58	0xbd1d6c55	-0.03843339
59	0x3d6305dc	0.05542551
60	0x3c0d0130	0.00860624
61	0xbe0c9889	-0.13730063
62	0xbdeee87e	-0.11665438
63	0x3cee32b4	0.029076912
64	0x3d92c680	0.07166767
65	0x3d889d5c	0.06670639
66	0xbd092d78	-0.033490628
67	0x3d92af89	0.07162387
68	0x3d2be74e	0.041968636
69	0x3ceeb01a	0.029136706
70	0xbe306d98	-0.17229307
71	0x3dd01fd2	0.10162319
72	0x3dd7abf3	0.105308436
73	0x3db37b67	0.087637715
74	0xbd7cbf3f	-0.061705824
75	0xbd401fa9	-0.046905193
76	0x3e5084a8	0.20363104
77	0xbdb0ceba	-0.0863318
78	0xbc02c770	-0.00798212
79	0x3dc8cf10	0.09805119
80	0x3ce02993	0.027363574
81	0x3dc90b2d	0.09816585
82	0x3dbb48be	0.09144734
83	0x3d935b5a	0.07195158
84	0x3c948753	0.018130934
85	0x3e15f6c3	0.14644913
86	0x3e1f5a14	0.15561706
87	0x3da49fa7	0.08038264
88	0xbcf9a513	-0.030474221
89	0x3df67ffc	0.1203613
90	0x3e0bed5f	0.13664769
91	0x3e0c30b7	0.13690458
92	0xbc959674	-0.018260218
93	0xbb5bd6e6	-0.0033544837
94	0xbda5a887	-0.08088785
95	0x3bbc8dfb	0.00575423

bias f4 [96]
0	0x3e882853	0.26593265
1	0xbc6a15d9	-0.014287435
2	0x8126245b	-3.0515468e-38
3	0xbd75ccdc	-0.060009822
4	0xbcc45a7b	-0.023968926
5	0xbd7de876	-0.06198927
6	0xbc9bb729	-0.019008236
7	0xbdb98791	-0.0905906
8	0xbd337705	-0.043814678
9	0x3c1b271c	0.009469774
10	0xbc48c5e0	-0.012254208
11	0x3e7678a6	0.24069461
12	0xbbe4f5a7	-0.006987292
13	0x2ff03fad	4.370099e-10
14	0x2c763f20	3.4993744e-12
15	0x3d66953d	0.05629467
16	0x3dd6dca9	0.10491306
17	0xbd68c92b	-0.056832474
18	0x3bec4c44	0.00721124
19	0x3dcbd656	0.09952991
20	0x3cb0d783	0.021587139
21	0xbde23436	-0.11045115
22	0xbe1bbc8d	-0.15208645
23	0x3caccfc3	0.021095162
24	0xbde3de92	-0.11126436
25	0x02addc26	2.5546424e-37
26	0x3d108e81	0.035292152
27	0x3d94b03f	0.07260179
28	0x3cd995df	0.026560722
29	0x00000000	0.0
30	0x3e0d7f50	0.13818097
31	0x3e9ca327	0.30593225
32	0x80a46047	-1.5095559e-38
33	0xbe11f4f8	-0.14253604
34	0x00000000	0.0
35	0xb14d26cc	-2.985348e-09
36	0x3db3e624	0.0878413
37	0x3c89e428	0.016832426
38	0x00000000	0.0
39	0x3c370287	0.011170036
40	0x3e987a76	0.2978093
41	0x3bbd9a23	0.005786197
42	0xbda854c7	-0.08219295
43	0x3d030b1e	0.031993024
44	0x3db94d81	0.09047986
45	0xbafd5b1f	-0.0019329524
46	0xb8eb3eb5	-0.00011217353
47	0xbcc55e7e	-0.024092909
48	0x3ca2ca91	0.019871982
49	0x3d2ca19a	0.042146303
50	0xbd36eb75	-0.044658143
51	0xbd87e215	-0.066349186
52	0xbd5a713f	-0.053330656
53	0x3e6e3a99	0.2326454
54	0x3d0e5fa6	0.034759186
55	0x3e0c3249	0.13691057
56	0x1b4e6b67	1.7074624e-22
57	0x3d8d0168	0.06885034
58	0xbe440590	-0.19142747
59	0xbd556ca4	-0.05210556
60	0x3e7a8a28	0.24466765
61	0xbe2b9d56	-0.16759238
62	0x3e6bdfe5	0.23034628
63	0x3ea2cf1a	0.3179863
64	0xbb899cd4	-0.0041996036
65	0xbcc7c538	-0.024386033
66	0xbd0c1c30	-0.03420657
67	0x8001f5b6	-1.7998e-40
68	0xbd58a4d6	-0.052891575
69	0x3e1067ec	0.14102143
70	0x3e1f434c	0.15553015
71	0x0032d2f8	4.667456e-39
72	0x807d6ed0	-1.1519189e-38
73	0x0006ba50	6.1785e-40
74	0xbe766f1f	-0.24065827
75	0x3b33def9	0.0027446134
76	0x3dc03bdc	0.09386417
77	0x3d9a3e49	0.07531411
78	0x3d40bfd2	0.047057934
79	0xbb95c699	-0.004570794
80	0xbe28a3c0	-0.16468716
81	0xbae3331c	-0.0017333957
82	0xbd2e12ac	-0.042498276
83	0x3e8888ad	0.26666775
84	0xbda86725	-0.08222798
85	0xbcd6f3b6	-0.026239257
86	0x3dcd0efe	0.10012625
87	0xbe3b41e5	-0.18286856
88	0xbda00484	-0.07813361
89	0x80dccec1	-2.0277978e-38
90	0xbcdd24ef	-0.02699515
91	0xbe3fab30	-0.18717647
92	0x3d2af6dc	0.04173933
93	0x3dca5994	0.09880367
94	0x3e0de39d	0.13856359
95	0x3e440e76	0.19146141

weight f4 [96, 96]
0	0x3e21998b	0.15781228
1	0x3dbd357d	0.09238718
2	0xbe27addd	-0.16374917
3	0x3e0ebfe8	0.13940394
4	0x80d027b6	-1.9116029e-38
5	0x3d53f48e	0.051746897
6	0xbe02b1eb	-0.12763183
7	0x3e4d176c	0.20028466
8	0xbdc72e72	-0.097256556
9	0x3cd95d33	0.026533699
10	0x985a56da	-2.8219688e-24
11	0x3d586c3f	0.052837607
12	0x39fdb160	0.00048388075
13	0x3c813a40	0.015774846
14	0x3e0339ea	0.12815061
15	0x3cf0404f	0.02932754
16	0xbda9ea34	-0.08296624
17	0xbe976e94	-0.29576552
18	0xbb07b8ad	-0.002070944
19	0x3dedda1b	0.11613866
20	0x3bf1d195	0.0073797205
21	0xbd4ea58c	-0.050450847
22	0xbdf26c24	-0.118370324
23	0xbe6c88f1	-0.23099114
24	0xbd262b5b	-0.04056869
25	0xbd02ba1e	-0.031915776
26	0x3d0d8e76	0.03455969
27	0xbbd40e8d	-0.006471461
28	0xbdfb56f6	-0.12272446
29	0x3daac3ee	0.08338152
30	0x3e01f32f	0.12690423
31	0xbc76add3	-0.015056091
32	0x1972e91d	1.2558184e-23
33	0xbda98b91	-0.08278573
34	0xbe6b7d4e	-0.22997019
35	0xbe632b83	-0.22184567
36	0x3a10867e	0.0005513205
37	0xbdd5b0f0	-0.10434139
38	0xbd97a210	-0.07403958
39	0x3e271d85	0.16319855
40	0xbdf3ee93	-0.11910739
41	0xbd8f0077	-0.069825105
42	0x3d3b60c6	0.045746587
43	0xbbb0244e	-0.0053754216
44	0xbbf26787	-0.0073975953
45	0x3b9210ec	0.0044575837
46	0xbe8a07dc	-0.2695912
47	0xbde36dbb	-0.11104914
48	0x391a7848	0.00014731393
49	0x3bf137e4	0.007361399
50	0xbcbfc088	-0.023407236
51	0xbd4ce108	-0.050019294
52	0x3c8234ad	0.015894258
53	0x3e690dd7	0.22759186
54	0xbdebf7db	-0.11521884
55	0x3d7317f5	0.05934902
56	0x3dd69f48	0.10479599
57	0xbd6f6c83	-0.058453094
58	0xbe3de277	-0.1854342
59	0xbb27d76f	-0.0025610586
60	0x3e706b8d	0.23478527
61	0x3c5e77bb	0.013578351
62	0xbd98121b	-0.07425328
63	0xbd8c6b65	-0.068564214
64	0x3db70732	0.08936919
65	0xbe2a4472	-0.16627672
66	0xbd3fcfe9	-0.046829138
67	0x3ab31c0b	0.0013664974
68	0x3caf6ceb	0.02141424
69	0x3ab32fe4	0.0013670889
70	0x3d56ff37	0.052489486
71	0xba2e2dfe	-0.00066444266
72	0x3e60cca5	0.21953066
73	0x3c0b7019	0.008510613
74	0xbd32e30f	-0.04367357
75	0x3cc7ad67	0.024374677
76	0xbdf6039f	-0.120124094
77	0x3b9977d2	0.004683473
78	0x3e39e517	0.18153797
79	0x3dd80d16	0.10549371
80	0x3d0c0efa	0.03419397
81	0xbdd0b6c2	-0.10191108
82	0x3d51c637	0.051214423
83	0xbce1acbd	-0.027548188
84	0xbdf9ff23	-0.122068666
85	0x3e115fc4	0.14196688
86	0xbe206633	-0.15663986
87	0xbe64831e	-0.22315642
88	0x3dfcc1e7	0.123416714
89	0xbb1c2eb6	-0.0023831553
90	0x3cbc06d4	0.022952475
91	0xbe17b19f	-0.14813851
92	0x3d8cb015	0.068695225
93	0x3d2cd66a	0.04219667
94	0xbd8e3282	-0.06943227
95	0x3c008429	0.007844009
96	0xbe39feb2	-0.18163565
97	0x3bb016e5	0.005373823
98	0x3da5ab93	0.08089366
99	0xbe1bcc77	-0.15214716
100	0x81863368	-4.929759e-38
101	0xbd57344a	-0.0525401
102	0xbdd467a2	-0.10371329
103	0xbcec348c	-0.02883365
104	0x3d77ec44	0.060528055
105	0xb9421244	-0.00018508086
106	0x0046c57a	6.499326e-39
107	0xbddde3b2	-0.10834445
108	0x3ac0df40	0.0014714971
109	0x3ba9ab9b	0.0051779277
110	0x3c880c5c	0.016607456
111	0xbd69126c	-0.056902334
112	0xbdaf7341	-0.08566905
113	0xbdf0f2f8	-0.117650926
114	0x39906300	0.0002753958
115	0x3e22f4e2	0.15913728
116	0x3b344348	0.0027505923
117	0x3d34038c	0.043948695
118	0xbdeb03ac	-0.1147531
119	0xbd96f04d	-0.073700525
120	0x3dd18d53	0.102320336
121	0xbc93ca5b	-0.018040827
122	0x3da4d633	0.08048668
123	0xbdbbd750	-0.09171927
124	0xbd3ad93a	-0.04561732
125	0xbd358cc0	-0.044323683
126	0xbdae5d57	-0.08513897
127	0xbd6b1e98	-0.057402223
128	0x9482a021	-1.3189805e-26
129	0x3dcfe904	0.10151866
130	0x3c7f7085	0.015590792
131	0x3dd5780b	0.10423287
132	0xba8046f5	-0.0009786772
133	0x3d9d1cc9	0.07671506
134	0xbc627cc9	-0.013823696
135	0x3ddfa955	0.109209694
136	0xbc83320f	-0.01601508
137	0x3dc5eaee	0.0966395
138	0x3c3df845	0.011594837
139	0x3d153ba3	0.036433827
140	0x3ceb2bc0	0.028707385
141	0x3c53b818	0.012922309
142	0xbc4f4af7	-0.01265215
143	0xbe071ca3	-0.13194518
144	0x3942d72e	0.00018581442
145	0xbc893ed1	-0.016753586
146	0xbd3abcc5	-0.04559018
147	0xbd1af0be	-0.037827246
148	0x3d95da09	0.073169775
149	0xbdc24c67	-0.09487229
150	0xbe27d6f8	-0.16390598
151	0x3c8d5014	0.017250098
152	0x3c88f1ab	0.016716799
153	0xbcbbd88e	-0.02293041
154	0x3c8f6e38	0.017508611
155	0xba9960b8	-0.0011701798
156	0xbc5ee7af	-0.013605042
157	0xbaa004ed	-0.0012208499
158	0x3a9d695d	0.001200955
159	0x3d31e6ff	0.043433186
160	0xbe0a727e	-0.13520238
161	0xbc4b97f6	-0.012426367
162	0x3d074f20	0.033034444
163	0x3ce5a983	0.028034931
164	0xbc7ac426	-0.0153055545
165	0x3a026b44	0.000497509
166	0xbd311072	-0.043228574
167	0xb9f239d9	-0.00046200937
168	0xbe387481	-0.18013193
169	0x39474b49	0.00019006165
170	0x390e6ec7	0.00013583443
171	0x3d1329d7	0.035928573
172	0xbd87afc8	-0.066253245
173	0x3b9e1728	0.004824538
174	0x3ceea837	0.029132945
175	0x3daf04cf	0.08545839
176	0xbc27b35e	-0.010235636
177	0x3e196a06	0.14981851
178	0xbc9f21ea	-0.019425351
179	0xbd3698b8	-0.044579238
180	0x3dcec0f3	0.10095396
181	0x3d646e6a	0.05576936
182	0x3dae4d3b	0.08510824
183	0xbe3513a8	-0.1768328
184	0x3daa821d	0.083255984
185	0xb99ee83b	-0.00030309134
186	0x3d936da5	0.071986474
187	0x3d67b5b5	0.056569774
188	0x3dbdd883	0.09269812
189	0xbe23eaa0	-0.16007471
190	0xbe1e5505	-0.1546212
191	0x3c33f071	0.010982619
192	0xbc8dcd42	-0.017309789
193	0xbc875345	-0.016519198
194	0xbc3e4772	-0.011613714
195	0xbb6e4d06	-0.0036361828
196	0x814625cf	-3.6393983e-38
197	0x3b9de72d	0.004818818
198	0x3c3f1e44	0.011664931
199	0x3b3e8f9d	0.00290773
200	0xbc301455	-0.010747035
201	0x36d271ad	6.2717213e-06
202	0x812cf5ea	-3.1767845e-38
203	0x3b87359d	0.0041262642
204	0x360b2931	2.073659e-06
205	0x36d0666d	6.210807e-06
206	0xbc2311bb	-0.009952958
207	0xbbecd777	-0.007227834
208	0xbbc24c51	-0.005929508
209	0x3c88d714	0.01670412
210	0xb5e50313	-1.7062724e-06
211	0xbc85b176	-0.016319972
212	0x34f1fc40	4.5073284e-07
213	0xba1119cc	-0.0005535155
214	0x3c163ff5	0.009170522
215	0x39e22d0a	0.00043139636
216	0xbccf8490	-0.025331765
217	0xbbfe5ca6	-0.0077625094
218	0xbbde3253	-0.0067809015
219	0xbc0b357f	-0.008496641
220	0x3aea3aca	0.0017870304
221	0xbca9668c	-0.020678781
222	0xbd1ce68d	-0.038305808
223	0xbc38ebc8	-0.011286683
224	0x0062b4ae	9.064694e-39
225	0xbd1d327b	-0.03837822
226	0xbc0b994a	-0.008520434
227	0xbb9cbc19	-0.004783165
228	0xb6d150f1	-6.238108e-06
229	0xbc6c7750	-0.014432743
230	0xbcd947eb	-0.026523551
231	0xba04fb00	-0.00050728023
232	0xbc3b3df6	-0.011428347
233	0xbb303162	-0.0026884903
234	0xb9220fc4	-0.00015455397
235	0xb957cde1	-0.00020580694
236	0x3a1d9dd8	0.0006012595
237	0xb6eb2ea0	-7.0089736e-06
238	0xbc0148ad	-0.007890862
239	0xbd0027fc	-0.031288132
240	0xb50b935e	-5.199598e-07
241	0xb82c9dfa	-4.1155123e-05
242	0xbc81a142	-0.015823964
243	0xbb166fe3	-0.0022954873
244	0xbc822636	-0.015887361
245	0xbd1cb869	-0.038261805
246	0xbab30d58	-0.0013660593
247	0xbc87f86c	-0.016597949
248	0xbad546eb	-0.0016271746
249	0x371ee819	9.471573e-06
250	0xbbd8387f	-0.0065985317
251	0x376f6d40	1.4270947e-05
252	0x3bcf0880	0.006318152
253	0xb8265fa4	-3.9666556e-05
254	0x3b333ef2	0.002735075
255	0xbb0b40a7	-0.0021248253

att_src f4 [1, 1, 96]
0	0x3c06beda	0.0082242135
1	0xbdb07537	-0.08616107
2	0xbd8130b2	-0.06308116
3	0xbac79666	-0.0015227317
4	0xbe521bf8	-0.20518482
5	0xbe306815	-0.17227204
6	0xbc1a70d9	-0.009426319
7	0x3d6a1775	0.057151277
8	0x3da137aa	0.07871945
9	0xbd09fef4	-0.033690408
10	0xbd8dc830	-0.06922948
11	0xbd8cd15a	-0.06875868
12	0x3e2d36d5	0.16915448
13	0xbae7a8dc	-0.0017674225
14	0xbdbf880c	-0.09352121
15	0xbc266efa	-0.010158295
16	0x3e8a6745	0.27031913
17	0xbc94e5f0	-0.018176049
18	0xbe00cf69	-0.1257912
19	0xbc4589ff	-0.012056827
20	0xb7930444	-1.7525752e-05
21	0xba29bc1e	-0.000647487
22	0x3b5c0983	0.0033575005
23	0x3d580f5a	0.052749015
24	0xbd6da249	-0.058016095
25	0x3c7bcde7	0.015368915
26	0x3dac64f2	0.08417691
27	0x3e31fdf5	0.17382033
28	0xbdb1ab38	-0.086752355
29	0xbc19f185	-0.009395962
30	0xbe3a3ca9	-0.18187203
31	0xbcd6f469	-0.02623959
32	0x3d5e13a7	0.05421796
33	0xbccfcbac	-0.025365673
34	0xbd92453d	-0.071421124
35	0xbd05027a	-0.032473065
36	0x3d6caf2e	0.057784252
37	0xbd458c05	-0.048229236
38	0xbda575d1	-0.08079112
39	0xbd1f0d65	-0.038831133
40	0xbd27a40e	-0.04092794
41	0x3e35ebaf	0.17765687
42	0xbd57d091	-0.05268914
43	0x3e0ebe4c	0.1393978
44	0xbda9a1aa	-0.08282788
45	0xbe3895c4	-0.18025881
46	0xbd8656b7	-0.06559508
47	0xbd478268	-0.04870835
48	0x3aa8d0a2	0.001287956
49	0x3d51e5f4	0.05124469
50	0xbe0d16eb	-0.13778274
51	0xbbf26851	-0.0073976894
52	0xbe231c20	-0.15928698
53	0x3acdf933	0.0015714526
54	0xbd316645	-0.043310422
55	0xbe0105d1	-0.12599875
56	0xbc1a35c8	-0.0094122365
57	0x3b3ed1c2	0.0029116725
58	0x3e465ae0	0.19370604
59	0xbe34031f	-0.17579316
60	0x3d24c876	0.040230237
61	0x3d86744d	0.06565151
62	0xbc4e3e14	-0.012588043
63	0x3d1211e3	0.03566159
64	0x3d925133	0.07144394
65	0x3e45bac9	0.19309534
66	0x3c0d324d	0.00861795
67	0x3d117325	0.0355102
68	0x3c8f6443	0.017503863
69	0xbe00977b	-0.12557785
70	0x3e33d2b4	0.17560846
71	0xbd428871	-0.047493402
72	0x3e07b0fe	0.13251111
73	0xbd0cf5c0	-0.034414053
74	0xbd67c982	-0.056588657
75	0xbb4a0da7	-0.0030830891
76	0xbc686a5f	-0.014185517
77	0xbe2eafb5	-0.17059214
78	0xbdd4ba92	-0.10387148
79	0x3d8ca77e	0.06867884
80	0x3dd30b48	0.10304886
81	0xbd966595	-0.07343594
82	0xbc08f41c	-0.008358981
83	0x3e030c41	0.12797643
84	0xbe4857fc	-0.19564813
85	0x3ce62601	0.028094294
86	0xbddb739a	-0.107154086
87	0x3ca69fe7	0.02033992
88	0x3e34175e	0.17587039
89	0xbde25857	-0.11052006
90	0x3d8afd97	0.0678665
91	0xbda590c8	-0.080842555
92	0xbdf5c2f5	-0.12000076
93	0x3e2e1c15	0.170029
94	0xbd0d717b	-0.03453205
95	0x3e57b61b	0.21065561

att_dst f4 [1, 1, 96]
0	0xbc3f052b	-0.011658947
1	0xbcb081dc	-0.021546297
2	0x3cc86bb3	0.024465417
3	0x3d01dea3	0.031706464
4	0xbc518145	-0.012787168
5	0xbd167db0	-0.03674096
6	0x3cbc35f5	0.022974947
7	0x3dbf3173	0.093356036
8	0xbc4eb30f	-0.012615933
9	0x3d5b9c28	0.05361572
10	0x3db7f47f	0.08982181
11	0xbd5619be	-0.052270643
12	0x3da90e70	0.08254707
13	0x3d55cdc2	0.05219818
14	0xbc76aabd	-0.015055356
15	0x3d8aa193	0.06769099
16	0xbd9eab39	-0.07747502
17	0xbcb52ed4	-0.022117056
18	0x3c66c162	0.014084192
19	0x3dbf0cd2	0.09328617
20	0x3d338eaf	0.043837246
21	0xbc4da5c3	-0.012551728
22	0x3cedd852	0.029033814
23	0x3d0e6a7f	0.03476953
24	0xbc2e6619	-0.010644459
25	0x3cc2937d	0.023751969
26	0xbcad90a9	-0.021187143
27	0x3dde5950	0.10856879
28	0x3df53039	0.11972088
29	0xbccde049	-0.025131362
30	0x3c154ef3	0.009113061
31	0x3d901346	0.07034926
32	0x3d1701c0	0.036866903
33	0x3bd77186	0.0065748123
34	0x3cf62699	0.030047702
35	0x3d683d9c	0.05669938
36	0xba5a5a50	-0.00083294977
37	0x3be72ef8	0.0070551597
38	0x3decaa93	0.11555972
39	0xb895814a	-7.1289556e-05
40	0xbc8a737d	-0.016900772
41	0x3d0ee81e	0.034889333
42	0x3db34482	0.08753301
43	0x3d90c6ae	0.07069145
44	0xbc8a052e	-0.016848173
45	0x3dbfe3fe	0.09369658
46	0x3d97beb7	0.07409423
47	0x3c88db56	0.01670615
48	0x3d42ef70	0.047591627
49	0x3cce95d1	0.025217922
50	0xbd55433d	-0.052066077
51	0x3d80b61a	0.06284733
52	0xbd546d79	-0.051862214
53	0x3c9bf0c6	0.019035708
54	0xbae7e627	-0.0017692492
55	0x3d7f4231	0.062318984
56	0xbc831b7a	-0.016004313
57	0xbc3d462e	-0.011552377
58	0x3d6323c9	0.05545405
59	0x3ca6a3d4	0.020341791
60	0x3d3c65eb	0.045995634
61	0xbc3ef21d	-0.011654404
62	0x3d60f79c	0.05492364
63	0x3d1170af	0.035507854
64	0xbd1ee470	-0.038792074
65	0xbdbbb38e	-0.09165107
66	0x3c365f07	0.011131055
67	0xbc03ea2b	-0.008051435
68	0x3dd1d615	0.10245911
69	0x3d91d076	0.07119839
70	0xbdd5042a	-0.10401185
71	0x3dda8469	0.106697865
72	0xbd1a6a16	-0.037698828
73	0x3da86060	0.08221507
74	0x3d59b968	0.053155333
75	0x3d82b929	0.06382973
76	0xbd73440a	-0.05939106
77	0x3d6d3fe8	0.057922274
78	0xbc2f6fa7	-0.010707772
79	0x3d97ff2c	0.07421717
80	0x3bb22ba6	0.005437332
81	0xbc4b61c9	-0.0124134505
82	0x3ca3422c	0.019929014
83	0x3cf76a28	0.030201986
84	0x3bc95a41	0.0061447923
85	0xbd8b7487	-0.06809335
86	0x3c92cdee	0.01792046
87	0xbcb4a70c	-0.02205231
88	0x3c9e8ce7	0.019354297
89	0xbcb86aec	-0.022511922
90	0x3d7f46e8	0.06232348
91	0xbc72bab5	-0.014815022
92	0x3e099aac	0.13437909
93	0xbd964572	-0.073374644
94	0xbcb19dd0	-0.021681696
95	0x3c6d633a	0.0144889895
