graph/siamese-gnn-fold-4_90.pt (torch, 353751 bytes, 26 tensors)

att_src f4 [1, 1, 128]
0.21473421 0.13514026 -0.0150366165 0.064267375 -0.00015286116 -0.10327908 0.17692642 -0.13319433
-0.15111457 -0.00075281283 -0.13425381 -0.15274179 -0.1315138 0.13160664 0.14650354 0.19321221
-0.11514683 0.13819814 0.02400001 -0.09056111 0.078310214 0.23570845 0.15899603 -0.11954494
-0.12204423 0.19994764 -0.00015849707 0.049261183 -0.1304827 0.17136572 0.031854622 -0.12095409
0.03167908 0.1730071 -0.1350594 -0.0010610817 -0.013315298 -0.14230423 0.0026054336 0.05644449
0.16531083 0.0037115586 0.03116242 0.019576512 0.00025472007 -0.004779894 -0.12997545 -0.11338364
-0.0005548519 0.04902572 0.14228898 0.004706746 -0.17870727 0.070173 -0.10266085 -0.04061261
-0.010037559 -0.029635368 -0.12933806 0.0530616 -0.105125785 0.044171914 -0.19257605 0.18201941
-0.12499518 -0.04234044 -0.050145835 0.1461928 -0.023558736 0.04472056 0.066604465 0.007980371
-0.14426932 0.06083813 0.12413015 -0.16651942 0.059640232 -0.08207985 -0.00036123407 0.19335155
0.14949529 0.0212877 -0.11215443 0.170929 -0.051316835 0.16426411 0.17140199 -0.000941782
0.045376003 -0.11027932 -0.056610454 0.10772714 0.18595605 -0.00988637 -0.08096677 0.005597649
0.019748705 0.10227133 -0.19650751 0.2865018 0.04626029 0.017471418 0.13775054 -0.07251681
-0.10291465 -0.021543005 -0.168464 0.017318519 0.012830671 -0.12292708 -0.15805438 0.14201292
-0.00022961812 -0.13314107 -0.16777542 -0.17497128 -0.021164542 0.08938255 0.01506116 0.059715338
0.18858208 0.13509847 -0.17431788 -0.13884424 -0.121160835 -0.09169818 0.17836747 -0.07055585
00000000: 49e3 5b3e 3562 0a3e 245c 76bc 9d9e 833d
00000010: 5b49 20b9 fb83 d3bd 332c 353e 1864 08be
00000020: c7bd 1abe 6a58 45ba d579 09be 5868 1cbe
00000030: 8eab 06be e4c3 063e 0605 163e 6cd9 453e
00000040: 1ad2 ebbd d083 0d3e ab9b c43c 1a78 b9bd
00000050: 1b61 a03d 8e5d 713e dbcf 223e fad3 f4bd
00000060: 53f2 f9bd 13bf 4c3e 3c32 26b9 18c6 493d
00000070: 429d 05be 7f7a 2f3e fe79 023d c7b6 f7bd
00000080: ecc1 013d c628 313e 034d 0abe fe13 8bba
00000090: 6828 5abc 33b8 11be ecbf 2a3b 5632 673d
000000a0: 3e47 293e 9f3d 733b 5548 ff3c ec5e a03c
000000b0: f38b 8539 a8a0 9cbb 4918 05be af35 e8bd
000000c0: 7b73 11ba 32cf 483d 34b4 113e 0c3b 9a3b
000000d0: 0aff 36be ddb6 8f3d da3f d2bd 6859 26bd
000000e0: 9374 24bc dfc5 f2bc 3271 04be 1f57 593d
000000f0: 304c d7bd 9ced 343d a832 45be 4c63 3a3e
00000100: 79fd ffbd 2b6d 2dbd b865 4dbd 91b3 153e
00000110: 40fe c0bc e82c 373d ec67 883d 1ac0 023c
00000120: 56bb 13be 6731 793d f337 fe3d 1184 2abe
00000130: 5149 743d 7b19 a8bd 0464 bdb9 f3fd 453e
00000140: 4b15 193e 8b63 ae3c 39b1 e5bd 0308 2f3e
00000150: 9a31 52bd da34 283e 0184 2f3e ece1 76ba
00000160: 30dc 393d 20da e1bd 5de0 67bd 0ca0 dc3d
00000170: 436b 3e3e 71fa 21bc e8d1 a5bd 7c6c b73b
00000180: 09c8 a13c a273 d13d 4439 49be 5db0 923e
00000190: 6e7b 3d3d 3820 8f3c 7a0e 0d3e b183 94bd
000001a0: ebc4 d2bd f57a b0bc d481 2cbe 91df 8d3c
000001b0: bc37 523c 31c1 fbbd 02d9 21be d66b 113e
000001c0: a5c5 70b9 2256 08be 52cd 2bbe ac2b 33be
000001d0: 4361 adbc 330e b73d 15c3 763c 1298 743d
000001e0: a91b 413e 4157 0a3e 6380 32be 2f2d 0ebe
000001f0: 2c23 f8bd 41cc bbbd f6a5 363e 967f 90bd

att_dst f4 [1, 1, 128]
-0.0653946 0.0742518 0.014171546 0.026515422 0.009668991 0.023430701 0.046311945 -0.05928287
-0.0086848065 0.04552652 0.07271544 0.025442397 0.013881324 0.020401036 -0.032804426 -0.057940457
-0.092993304 -0.072135486 0.02584803 -0.013498081 0.006957262 -0.0042184503 0.01466764 0.07510456
-0.069432504 -0.029955843 0.10723683 -0.0052791922 0.05049137 -0.009875443 0.119809024 -0.015608585
-0.030899635 0.022236565 0.03298215 -0.0020312318 -0.012808458 0.028232595 -0.010961427 0.005026473
0.023205327 0.03527278 0.20467219 0.018059405 -0.012552127 0.023679176 0.011296837 0.020441541
0.07790357 0.013036095 0.029137356 -0.044330414 -0.008981236 -0.02889566 0.012996951 0.16744214
0.012954611 0.21234329 -0.0006210927 -0.05726645 0.0019198059 0.09356097 0.22987148 -0.00054005405
-0.11790803 -0.01990509 0.01720526 0.035842475 0.022902792 0.021931086 0.11989446 -0.025802039
0.015318326 -0.0067964336 -0.00442306 0.041277256 0.033450812 0.060410596 0.04382537 -0.025977427
-0.022588288 0.20826878 0.02412463 0.0112993615 0.04984495 -0.013729463 -0.10767032 0.07719846
0.013482315 0.18240106 -0.07154731 -0.04954555 -0.025237592 -0.008596569 -0.08662735 0.0035776426
-0.010302198 0.015550219 0.17391887 -0.0716211 -0.027332578 -0.002887867 -0.02672205 0.13905418
0.08126582 0.073129505 -0.015314134 -0.0151186995 -0.033114098 0.041461032 -0.028101113 -0.0057566334
-0.0032847736 -0.0151911825 -0.014655514 0.06607873 -0.0624164 0.08297188 0.14426318 -0.04280091
-0.14942294 0.0386575 -0.00061385846 0.097967945 -0.028731158 0.087102294 0.12660864 -0.019501852
00000000: 9bed 85bd 5411 983d c62f 683c df36 d93c
00000010: b06a 1e3c bef1 bf3c 98b1 3d3d 98d2 72bd
00000020: b84a 0ebc 047a 3a3d d5eb 943d 936c d03c
00000030: 7e6e 633c 1320 a73c ef5d 06bd f952 6dbd
00000040: 4673 bebd c5bb 93bd 3fbf d33c 0e27 5dbc
00000050: bef9 e33b ed3a 8abb 8b50 703c 6bd0 993d
00000060: a132 8ebd f565 f5bc fc9e db3d 13fd acbb
00000070: 0ad0 4e3d 9ccc 21bc 6f5e f53d 27bb 7fbc
00000080: 3b21 fdbc 7529 b63c 4a18 073d 6a1e 05bb
00000090: 91da 51bc 0b48 e73c 8f97 33bc 1db5 a43b
000000a0: 1919 be3c 317a 103d 9695 513e 51f1 933c
000000b0: 70a7 4dbc d5fa c13c 5e16 393c 0575 a73c
000000c0: e88b 9f3d 5895 553c 77b1 ee3c cf93 35bd
000000d0: 0926 13bc 97b6 ecbc 2af1 543c f475 2b3e
000000e0: 943f 543c 8570 593e d3d0 22ba 3a90 6abd
000000f0: ffa1 fb3a e59c bf3d 6e63 6b3e 6a92 0dba
00000100: c479 f1bd 0010 a3bc 0cf2 8c3c 8fcf 123d
00000110: a39e bb3c d2a8 b33c 3a8b f53d cc5e d3bc
00000120: b7f9 7a3c 9eb4 debb 51ef 90bb 5712 293d
00000130: b803 093d 1a71 773d 3b82 333d 9dce d4bc
00000140: 130b b9bc 6944 553e 04a1 c53c f520 393c
00000150: 382a 4c3d 8bf1 60bc 4282 dcbd 3a1a 9e3d
00000160: ede4 5c3c 58c7 3a3e 6587 92bd 46f0 4abd
00000170: 11bf cebc a0d8 0cbc ae69 b1bd e276 6a3b
00000180: 8dca 28bc 59c6 7e3c ca17 323e 15ae 92bd
00000190: 92e8 dfbc 5e42 3dbb 33e8 dabc 3864 0e3e
000001a0: b26e a63d ecc4 953d 22e8 7abc 6cb4 77bc
000001b0: a6a2 07bd 0bd3 293d 4e34 e6bc 24a2 bcbb
000001c0: 5b45 57bb 70e4 78bc ae1d 70bc 4954 873d
000001d0: 57a8 7fbd 29ed a93d bab9 133e 0250 2fbd
000001e0: 5402 19be 5457 1e3d 58eb 20ba 6ba3 c83d
000001f0: 9b5d ebbc b062 b23d b2a5 013e 59c2 9fbc

bias f4 [128]
-0.104310006 0.0 -0.13158037 0.0003975211 -2.2179278e-05 -0.012344252 -0.113814354 -0.022091553
0.2848476 -4.7901372e-26 0.0 0.05896554 -0.00623749 0.03763939 -0.027876612 -0.2417635
-0.12924856 0.0896782 0.004392044 -0.09920743 0.24281317 0.18169552 -0.026233241 -0.050165467
-0.09363416 0.026144145 5.2478913e-38 -0.09164639 0.055877615 -0.011473638 0.011858621 -0.037062097
-0.14496413 0.001464257 -0.12109628 5.6485377e-38 0.014302179 0.20530923 -0.0018495606 -0.11487355
-0.0015687331 0.027523793 0.0 -0.09795881 -1.3438331e-19 -0.015809609 0.09813697 -0.11165959
0.0 0.112962395 0.049492832 0.09631986 -0.04986975 0.21405222 0.1849549 6.162025e-38
-0.05266008 3.6611837e-38 -0.18579379 0.04814938 0.031048225 -0.09687269 0.0 -0.064047545
0.032178998 -0.11261021 0.20264809 0.29491955 -0.13105121 0.13896874 0.0057293912 0.13275689
-0.1698454 0.24297528 0.025177328 -0.01399112 -0.0010234627 -0.08358762 -5.0887666e-14 0.0690222
0.10576646 0.009069946 -0.22852781 0.15278193 -2.8501098e-26 0.17136385 -0.014507981 -1.2278071e-11
0.00055691256 0.0 0.010224255 -0.0011526973 -0.341889 -0.007429857 0.22662707 -0.022740511
-9.0287795e-05 0.055961404 0.018072316 0.022687973 0.05324078 0.044029735 0.10604778 0.0
-0.0349652 0.064473495 -0.15768662 -0.05671434 0.031392984 -2.1644804e-38 0.04948628 0.24506849
-2.8935856e-08 -0.038362596 -0.1358098 0.0 -0.02382446 -0.0017971476 0.0 -0.041648705
0.26282966 -0.004648496 -0.005396583 0.00059597153 0.027060278 -1.4120246e-38 0.11400232 -0.07118162
00000000: 7ca0 d5bd 0000 0000 01bd 06be 616a d039
00000010: a30d bab7 8c3f 4abc 8017 e9bd 58f9 b4bc
00000020: 8bd7 913e 3432 6d95 0000 0000 da85 713d
00000030: dc63 ccbb c32b 1a3d 7e5d e4bc da90 77be
00000040: bc59 04be 34a9 b73d 23eb 8f3b 442d cbbd
00000050: 04a4 783e 640e 3a3e 18e7 d6bc 4e7a 4dbd
00000060: 44c3 bfbd 3f2c d63c 77dc 8e01 1ab1 bbbd
00000070: eddf 643d edfb 3bbc a94a 423c 6dce 17bd
00000080: 7a71 14be 50ec bf3a 5401 f8bd 90c4 9901
00000090: b053 6a3c 953c 523e f56c f2ba d342 ebbd
000000a0: f39d cdba 9479 e13c 0000 0000 a19e c8bd
000000b0: dda6 1ea0 2783 81bc 09fc c83d c8ad e4bd
000000c0: 0000 0000 d458 e73d ffb8 4a3d 5943 c53d
000000d0: 3944 4cbd 8130 5b3e d164 3d3e 0cbf a701
000000e0: 19b2 57bd 7455 4701 ba40 3ebe 4938 453d
000000f0: d958 fe3c 3065 c6bd 0000 0000 5c2b 83bd
00000100: 20ce 033d 2fa0 e6bd fb82 4f3e b2ff 963e
00000110: 4a32 06be d24d 0e3e 9ebd bb3b 6cf1 073e
00000120: f4eb 2dbe 83ce 783e af40 ce3c 033b 65bc
00000130: b625 86ba fc2f abbd 7c2d 65a9 835b 8d3d
00000140: 169c d83d 1c9a 143c 3203 6abe de72 1c3e
00000150: 6f21 0d95 017a 2f3e e2b2 6dbc 84ff 57ad
00000160: c5fd 113a 0000 0000 a283 273c 1a16 97ba
00000170: 130c afbe 2876 f3bb ed10 683e 4f4a babc
00000180: e458 bdb8 c937 653d 650c 943c 21dc b93c
00000190: 0113 5a3d 8658 343d 942f d93d 0000 0000
000001a0: ab37 0fbd ae0a 843d 9a78 21be 4c4d 68bd
000001b0: ee95 003d e8b0 eb80 20b2 4a3d 3cf3 7a3e
000001c0: 9f8e f8b2 1922 1dbd b911 0bbe 0000 0000
000001d0: 842b c3bc 448e ebba 0000 0000 d597 2abd
000001e0: 9c91 863e 6952 98bb d2d5 b0bb f93a 1c3a
000001f0: 84ad dd3c 80c1 9980 0c7a e93d abc7 91bd

weight f4 [128, 10]
0.011496023 0.03844128 -0.0152679635 0.04729275 0.25167194 -0.28539112 -0.06909875 0.06229626
-0.27510387 0.021521552 -0.15098065 0.0012922119 -0.062707886 0.06633916 -0.02188463 -0.19531685
0.12174188 0.057885744 0.009550447 0.24288811 -0.00056775473 -0.20426027 -0.09936748 -0.08029326
0.105152 0.0874271 0.17117254 0.047111735 0.18382956 -0.5967967 -0.024197947 0.092734054
0.066628784 -0.1682359 -0.10607084 -0.1076019 -0.051642 0.037334647 0.085191585 -0.2989854
-0.0015229367 -0.008329401 -0.001609154 0.027131936 0.06878539 -0.12167267 0.02799327 -0.050482888
-0.01768062 -0.0038699005 0.093132205 0.0772543 -0.14220607 -0.27059168 0.21072984 0.1419589
-0.30824706 -0.08522954 -0.01924182 0.08262505 0.04164151 0.025522146 0.19324124 0.07463018
-0.086226776 -0.15026455 0.02848021 -0.08375243 -0.07094424 -0.40112996 -0.033769783 0.0070080254
-0.052482866 -0.14118257 0.037928514 0.11138948 0.3570667 0.29917437 -0.32712045 0.2556597
-0.20148452 -0.06966786 -0.10945366 -0.005060426 0.17324357 0.19994085 -0.19417395 0.12122453
-0.040664956 -0.0153434845 -0.033421427 -0.03458555 -0.033682875 0.026214717 -0.043598883 0.04229242
-0.05360111 -0.044312395 -0.021048658 -0.022289619 -0.055404715 0.031569783 -0.078744486 -0.16373345
-0.14584987 0.09386397 -0.070346676 -0.13069955 -0.14084502 -0.24755765 0.22061405 -0.14586397
0.10945455 -0.19301823 0.048926458 -0.16807446 -0.032851454 -0.03787804 -0.22528462 -0.4117594
-0.18372917 0.10592315 0.011849552 -0.11622011 -0.17121078 0.048301518 -0.090588376 -0.010514215
-0.17280164 0.030381866 -0.16253705 -0.04147269 -0.2271558 0.06347009 0.062508285 -0.24868906
0.38251895 0.17780775 0.07038538 -0.032860048 0.016337425 -0.047846094 -0.11746689 0.00060113287
0.21660234 -0.068526134 0.0070936247 0.023113204 -0.26381546 0.13783407 0.020762067 0.018203428
0.060294673 0.07224317 0.1517505 -0.301637 -0.032691404 -0.031744495 -0.004038794 0.14199908
0.14631793 -0.0929943 -0.13763382 -0.1687025 0.18363987 -0.0055171857 0.032942537 0.11368563
0.22869691 0.04357494 0.109347165 0.011380967 -0.079240285 0.1510576 -0.24894993 0.22844613
-0.33831915 -0.106425606 0.21214524 0.32903826 -0.11463515 0.10821762 0.13793364 -0.10543904
0.1250144 0.20061776 -0.2741109 0.0033432387 -0.28430194 -0.19141014 0.015257444 0.01530747
-0.051974863 0.072520316 0.05662803 -0.21858542 -0.038284473 -0.2208468 0.15408842 0.17039485
-0.19143574 -0.1278006 0.17056043 0.20707527 -0.008711499 -0.08006103 0.16001797 0.09185471
-0.10659903 0.47144464 0.0076801875 -0.25493196 0.0063338107 0.17680539 0.1438613 -0.19961442
-0.018369693 0.024064055 -0.11891233 0.53671473 0.20645756 0.05072033 -0.047715824 -0.26547262
-0.102763414 -0.1387993 -0.03482268 -0.263109 0.024958149 0.008546629 -0.39523056 -0.18233691
0.34324226 0.036504444 0.126619 -0.0038518102 0.088727295 0.0702349 -0.15566269 0.055511523
0.05742045 0.07428663 -0.19059381 0.079723746 -0.23887253 0.18090312 -0.22804755 0.10847285
0.24792233 -0.19439957 -0.13022877 0.13468632 -0.19554348 0.229078 0.027799096 -0.18223853
00000000: d159 3c3c 9b74 1d3d 7b26 7abc 0bb6 413d
00000010: 25db 803e c91e 92be a583 8dbd 5d2a 7f3d
00000020: 6ada 8cbe f74d b03c ac9a 1abe 705f a93a
00000030: fe6c 80bd d3dc 873d 6547 b3bc 2401 48be
00000040: cf53 f93d 9a19 6d3d 7a79 1c3c a9b7 783e
00000050: 60d5 14ba 9b29 51be 2d81 cbbd cb70 a4bd
00000060: ef59 d73d fb0c b33d db47 2f3e 3cf8 403d
00000070: d13d 3c3e abc7 18bf c63a c6bc 5aeb bd3d
00000080: ac74 883d 0846 2cbe ab3b d9bd 635e dcbd
00000090: 9086 53bd 37ec 183d ed78 ae3d 9d14 99be
000000a0: 479d c7ba 0a78 08bc 40ea d2ba cb43 de3c
000000b0: 5bdf 8c3d 852f f9bd 2452 e53c 25c7 4ebd
000000c0: f3d6 90bc 289e 7dbb 19bc be3d 8137 9e3d
000000d0: 789e 11be fe8a 8abe 90c9 573e ad5d 113e
000000e0: 8fd2 9dbe d38c aebd 05a1 9dbc 5237 a93d
000000f0: 4a90 2a3d d213 d13c 08e1 453e b5d7 983d
00000100: aa97 b0bd f3de 19be 544f e93c 6586 abbd
00000110: 374b 91bd e860 cdbe 2f52 0abd 94a3 e53b
00000120: 46f8 56bd 2a92 10be ee5a 1b3d 2b20 e43d
00000130: 72d1 b63e 622d 993e 557c a7be d4e5 823e
00000140: f551 4ebe 06ae 8ebd 3e29 e0bd eed1 a5bb
00000150: c366 313e 4bbd 4c3e 89d5 46be 9144 f83d
00000160: 4c90 26bd 3d63 7bbc e8e4 08bd 94a9 0dbd
00000170: 0ef7 09bd 3fc0 d63c be94 32bd d13a 2d3d
00000180: d68c 5bbd ea80 35bd 3c6e acbc b898 b6bc
00000190: 0ef0 62bd 514f 013d ca44 a1bd bea9 27be
000001a0: ab59 15be c13b c03d eb11 90bd 1ad6 05be
000001b0: ad39 10be c17f 7dbe a6e8 613e 5d5d 15be
000001c0: b529 e03d 92a6 45be 1c67 483d b61b 2cbe
000001d0: 3f8f 06bd 0126 1bbd 03b1 66be 21d2 d2be
000001e0: 8023 3cbe 3dee d83d a024 423c cf04 eebd
000001f0: e151 2fbe d0d7 453d 6686 b9bd d043 2cbc
00000200: eaf2 30be 64e3 f83c 1d70 26be 44df 29bd
00000210: 889b 68be 9bfc 813d 5804 803d 58a8 7ebe
00000220: 86d9 c33e 3c13 363e 3626 903d 4298 06bd
00000230: 10d6 853c 44fa 43bd 7b92 f0bd 5895 1d3a
00000240: 01cd 5d3e 6e57 8cbd a371 e83b e757 bd3c
00000250: d212 87be 6024 0d3e 3615 aa3c 5b1f 953c
00000260: 8cf7 763d 3af4 933d 7c64 1b3e 2a70 9abe
00000270: 6ce7 05bd 8406 02bd dc57 84bb 3568 113e
00000280: 5ed4 153e cc73 bebd e1ef 0cbe 59c0 2cbe
00000290: 170c 3c3e 82c9 b4bb c1ee 063d 03d4 e83d
000002a0: 862f 6a3e a37b 323d 68f1 df3d 3c77 3a3c
000002b0: bb48 a2bd d8ae 1a3e bbec 7ebe c8ed 693e
000002c0: 2b38 adbe abf5 d9bd 9a3c 593e b477 a83e
000002d0: d5c5 eabd 33a1 dd3d 7a3e 0d3e 6cf0 d7bd
000002e0: c603 003e be6e 4d3e 4458 8cbe 3d1a 5b3b
000002f0: 0690 91be 0501 44be 5cfa 793c 2fcc 7a3c
00000300: 98e3 54bd 8885 943d cbf2 673d dbd4 5fbe
00000310: 2ed0 1cbd aa25 62be 5bc9 1d3e fd7b 2e3e
00000320: bb07 44be 29de 02be 65a7 2e3e 8a0b 543e
00000330: adba 0ebc 0af7 a3bd c0db 233e 521e bc3d
00000340: 9850 dabd 3161 f13e 15aa fb3b 7186 82be
00000350: db8b cf3b 790c 353e 6050 133e b967 4cbe
00000360: 0a7c 96bc fb21 c53c 4f88 f3bd 2366 093f
00000370: 9c69 533e 1fc0 4f3d ab71 43bd 07ec 87be
00000380: a075 d2bd 6721 0ebe 3aa2 0ebd 39b6 86be
00000390: 0875 cc3c 2907 0c3c a95b cabe 87b6 3abe
000003a0: 73bd af3e af85 153d 69a8 013e a76e 7cbb
000003b0: a8b6 b53d 51d7 8f3d 0a66 1fbe 0d60 633d
000003c0: b531 6b3d 9723 983d 062b 43be 3446 a33d
000003d0: 009b 74be ab3e 393e 4c85 69be 0327 de3d
000003e0: 5adf 7d3e ae10 47be b15a 05be 36eb 093e
000003f0: 8d3c 48be 6c93 6a3e eeba e33c bd9c 3abe

att_src f4 [1, 1, 128]
0.019243529 0.009787378 0.11486306 -0.037529506 0.0038060348 -0.15083231 -0.030767385 -0.056949995
-0.015718024 0.07007686 0.036285657 0.010446829 -0.023303004 0.012141419 0.09426639 0.009560058
-0.020079596 -0.11133 0.032609243 -0.0038446642 -0.12326437 -0.15483838 -0.008491536 0.003053658
0.0018994829 -0.030040719 0.023465844 -0.02725811 -0.0019785739 0.005016507 0.09682608 0.051104534
0.064379066 0.017172484 0.0029479023 -0.002479114 0.0053192065 0.0055130133 -0.009239619 -0.03957099
-0.041774046 0.0012123694 -0.08828209 0.050215837 0.03765333 0.009740857 -0.0867197 -0.13709755
0.0042432793 -0.015286718 -0.0014976459 -0.13124846 0.0072802757 -0.04058112 0.0027294988 -0.12137339
-0.1106757 0.030609433 0.017246375 -0.03653539 -0.0023907435 0.07848751 -0.031858094 0.09065059
0.0034586184 0.049320407 -0.017649876 -0.10390534 0.04880852 -0.03138039 0.010855443 0.074380614
-0.044070512 -0.0011064972 -0.0059887185 0.056918815 0.05733635 0.03486633 0.081884205 -0.012089009
0.15585603 -0.0019314834 0.0007697118 0.0027313717 0.042007864 -0.10598407 0.017679516 0.000716498
0.000243724 -0.05645034 0.0033918847 0.018389717 0.023319103 -0.032833524 0.056665268 -0.0013017996
-0.07479265 -0.13116711 0.036244087 -0.013647996 0.0055537047 -0.06476542 0.004573352 0.0074433433
0.0026385407 0.0028500312 -0.098663755 0.03735921 0.0028627857 0.09778453 0.004269904 -0.04139474
0.00030945777 0.0061313226 -0.1417979 0.008080983 0.06812554 0.00090973044 -0.0066183084 0.090221114
0.0065429634 0.020782713 0.053582214 0.0011838472 -0.14711595 0.02391834 -0.00045277894 0.06408044
00000000: 9ba4 9d3c 3d5b 203c 533d eb3d 8ab8 19bd
00000010: ab6e 793b c973 1abe e20b fcbc 6644 69bd
00000020: 16c3 80bc 7584 8f3d 45a0 143d 2d29 2b3c
00000030: f1e5 bebc cdec 463c bd0e c13d caa1 1c3c
00000040: f77d a4bc fc00 e4bd 4591 053d c3f6 7bbb
00000050: 0872 fcbd f48d 1ebe 1520 0bbc e11f 483b
00000060: 12f8 f83a f417 f6bc 713b c03c 664c dfbc
00000070: f6aa 01bb 8361 a43b c04c c63d fd52 513d
00000080: 2cd9 833d 4fad 8c3c 9831 413b a278 22bb
00000090: bd4c ae3b 82a6 b43b c561 17bc 3115 22bd
000000a0: 431b 2bbd 5ee8 9e3a 3ecd b4bd 1faf 4d3d
000000b0: 613a 1a3d 1e98 1f3c 199a b1bd 4d63 0cbe
000000c0: 350b 8b3b 2475 7abc a84c c4ba ff65 06be
000000d0: 618f ee3b 6338 26bd 64e1 323b 9d92 f8bd
000000e0: f1a9 e2bd a2c0 fa3c 4548 8d3c 22a6 15bd
000000f0: 05ae 1cbb 0fbe a03d a27d 02bd 04a7 b93d
00000100: fda9 623b 3204 4a3d 7996 90bc 53cc d4bd
00000110: 71eb 473d b988 00bd 07db 313c dd54 983d
00000120: 4883 34bd e307 91ba 033d c4bb b423 693d
00000130: 85d9 6a3d ffcf 0e3d e8b2 a73d fb10 46bc
00000140: b998 1f3e d429 fdba 7cc6 493a d000 333b
00000150: 7010 2c3d 2d0e d9bd a2d4 903c 5ed3 3b3a
00000160: 2a90 7f39 7938 67bd 624a 5e3b 08a6 963c
00000170: b407 bf3c 727c 06bd d719 683d 25a1 aaba
00000180: e42c 99bd ac50 06be ae74 143d d89b 5fbc
00000190: dafb b53b bca3 84bd 0fdc 953b 4ae7 f33b
000001a0: 5eeb 2c3b 97c7 3a3b 3910 cabd f905 193d
000001b0: 939d 3b3b 4143 c83d 8dea 8b3b 888d 29bd
000001c0: b83e a239 43e9 c83b 7833 11be 1966 043c
000001d0: 6785 8b3d fa7a 6e3a 65de d8bb d9c5 b83d
000001e0: 5b66 d63b 8240 aa3c 0679 5b3d 522b 9b3a
000001f0: 90a5 16be 65f0 c33c f662 edb9 9b3c 833d

att_dst f4 [1, 1, 128]
-0.018378023 0.03505716 -0.0024887822 0.015460367 0.034821294 -0.019692333 0.006723539 -0.016829904
-0.002498747 -0.006897881 0.026148943 0.015748657 0.006836748 0.016756045 -0.0048632366 0.014013681
0.035820175 -0.0109684635 0.02686238 0.009171524 0.0049690707 -0.0033076277 -0.015897358 0.012541488
0.01033696 0.017802704 -0.02202625 0.02326095 0.011956648 0.023895206 -0.008131288 -0.028457856
0.024010992 0.020242717 0.02219888 -0.0065531116 0.016779853 0.022565711 0.005645555 -0.0029967618
0.009972976 0.014800143 0.0014893289 -0.0039043122 0.009470706 -0.0102745425 -0.013327344 -0.014155976
-0.0048358846 -0.016431624 0.010277572 0.011255625 -0.011734669 -0.012297674 0.011519352 -0.017562207
-0.00994897 0.022273097 0.015771829 0.025183864 0.012860727 -0.009156729 0.0037365824 0.025523322
0.014870889 0.0285766 0.016926227 0.008799566 0.0035303484 -0.013471327 -0.0033353516 -0.011117693
0.019300189 0.0051125917 -0.015807347 0.005393184 -0.002682453 0.022141846 -0.025242846 0.015173378
0.019206673 0.01008015 0.0029369313 0.0097160125 -0.01755117 -0.0080634095 0.021218305 0.018690515
0.0023919265 -0.01749412 0.005355036 -0.0077268267 0.012747415 -4.817167e-06 0.045891404 -0.013719743
0.02180521 -0.020564454 0.011636399 -0.020950202 0.02720418 -0.0038045938 0.0067011504 0.0141833415
0.0066513065 0.013887093 -0.015896235 -0.026339203 0.0059055807 0.010228257 -0.000559783 0.010164231
0.008791069 0.021787496 -0.03366758 0.016983598 0.006979068 0.014609102 0.019187532 0.0041752523
0.026009347 -0.018201314 0.01698014 0.0031210878 -0.0059509845 0.01870073 0.010170373 0.021038236
00000000: 828d 96bc 1998 0f3d d61a 23bb 7b4d 7d3c
00000010: c6a0 0e3d d151 a1bc 2251 dc3b dede 89bc
00000020: 05c2 23bb 9f07 e2bb 4f36 d63c 5403 813c
00000030: cd06 e03b f943 893c c95b 9fbb a399 653c
00000040: 2db8 123d 12b5 33bc 7e0e dc3c 2944 163c
00000050: 96d3 a23b c9c4 58bb 2d3b 82bc d07a 4d3c
00000060: 5a5c 293c fad6 913c 6570 b4bc bf8d be3c
00000070: d1e5 433c e1bf c33c 1839 05bc 7320 e9bc
00000080: b3b2 c43c 0ed4 a53c 6dda b53c 7cbb d6bb
00000090: e775 893c badb b83c 59fe b83b 5265 44bb
000000a0: b165 233c 4d7c 723c 9635 c33a 7ddf 7fbb
000000b0: 052b 1b3c 8e56 28bc ef5a 5abc 77ee 67bc
000000c0: 5776 9ebb 9d9b 86bc 4363 283c 8369 383c
000000d0: c542 40bc 2f7c 49bc aabb 3c3c 9ede 8fbc
000000e0: 0101 23bc 1276 b63c ec33 813c 644e ce3c
000000f0: ccb5 523c 1b06 16bc 73e1 743b 4916 d13c
00000100: 07a5 733c 7919 ea3c dfa8 8a3c 0e2c 103c
00000110: 6b5d 673b d7b6 5cbc ea95 5abb fc26 36bc
00000120: 6e1b 9e3c 8787 a73b 697e 81bc 4eb9 b03b
00000130: 18cc 2fbb d162 b53c 16ca cebc c399 783c
00000140: 5057 9d3c 3727 253c 8879 403b e92f 1f3c
00000150: 79c7 8fbc 641c 04bc 03d2 ad3c da1c 993c
00000160: dec1 1c3b d44f 8fbc 4c79 af3b 5231 fdbb
00000170: 89da 503c 26a3 a1b6 a0f8 3b3d c6c8 60bc
00000180: d7a0 b23c c976 a8bc 98a6 3e3c c29f abbc
00000190: 4ddb de3c 7e56 79bb 5395 db3b 3f61 683c
000001a0: 34f3 d93b b186 633c d238 82bc 50c5 d7bc
000001b0: 9a83 c13b 6b94 273c 67be 12ba e087 263c
000001c0: 6a08 103c b17b b23c 04e7 09bd 3021 8b3c
000001d0: aab0 e43b 045b 6f3c 2c2f 9d3c 8ed0 883b
000001e0: 8e11 d53c ec1a 95bc ef19 8b3c 2a8b 4c3b
000001f0: 7a00 c3bb 4632 993c a3a1 263c 6158 ac3c

bias f4 [128]
-0.008389898 0.0 0.25632074 -0.05141034 -6.351205e-07 0.0039535505 0.014662493 0.059176177
-0.08521618 -0.26567155 -0.033830475 -3.3641555e-25 -0.030889723 -0.11597438 -0.09302495 -6.19617e-38
-0.06722351 0.049774665 -7.501898e-39 -3.34036e-40 -0.024919203 -0.07764502 -0.1865114 -2.1912829e-38
-0.006504426 -0.1057105 0.07327845 -0.0328885 -7.4943666e-14 -0.020102428 -0.14019582 0.29913205
-0.071637996 -0.00022996616 -9.967339e-07 -0.0092586465 -0.032692883 -0.004922748 0.030004041 -0.02609869
0.15814966 -1.0583974e-11 0.18021531 0.07288122 -0.08789012 0.07245985 -0.047980133 -0.059086565
-8.690975e-12 0.11394669 -4.1521545e-08 -0.018369805 -0.004184121 0.11005884 -4.4125663e-05 0.22560248
0.12899779 0.0039434186 -0.059757095 -0.08025326 -5.02914e-05 0.18838671 -0.13313384 0.0
7.735829e-05 -0.005134876 -0.14328642 -0.03226339 0.11237273 0.06564698 0.1089378 0.034416832
-0.013518831 3.393725e-39 0.034608442 -0.1923974 0.10695111 6.609502e-39 0.29215235 -0.023401666
-0.00066864287 -0.0076909284 -2.3260511e-06 0.0034606294 0.30568367 0.2145188 -0.111419626 -1.2884908e-07
-0.009781868 -0.15689747 9.137923e-39 -0.1530733 4.252943e-38 -0.065603495 0.0 -7.110016e-10
-0.16235232 -0.062901966 -0.047748037 -0.04243081 -0.0070707393 -0.057709385 -2.5708255e-07 0.0
-0.00012026725 -0.00051139534 0.07277341 0.3924866 0.0 3.0495663e-38 4.2087373e-05 -0.09875862
-2.5362254e-28 -0.0022647167 0.119697586 -2.0912477e-30 0.16023166 -6.9573275e-06 -0.024860077 0.09461265
-0.00033510762 0.20986637 -0.020711271 -0.0026950378 0.14247473 -1.1434612e-38 0.00020460329 0.022100179
00000000: c875 09bc 0000 0000 793c 833e a693 52bd
00000010: 267d 2ab5 c98c 813b f43a 703c b862 723d
00000020: d285 aebd 1a06 88be d391 0abd 2c3b d096
00000030: 720c fdbc fa83 edbd dd83 bebd 01ad a881
00000040: 7bac 89bd 85e0 4b3d 3db0 5180 28a3 0380
00000050: 5b23 ccbc 5a04 9fbd d8fc 3ebe 0d9c ee80
00000060: 1423 d5bb bf7e d8bd 0313 963d 17b6 06bd
00000070: 15c2 a8a9 d9ad a4bc 7e8f 0fbe d627 993e
00000080: f1b6 92bd 1223 71b9 84c7 85b5 94b1 17bc
00000090: f9e8 05bd 014f a1bb 09cb f53c eccc d5bc
000000a0: fcf1 213e fb31 3aad 5d8a 383e c042 953d
000000b0: bcff b3bd d465 943d d186 44bd c104 72bd
000000c0: ace4 18ad e25c e93d 6c55 32b3 467c 96bc
000000d0: f31a 89bb 8766 e13d 9213 39b8 5604 673e
000000e0: ff17 043e cb37 813b dbc3 74bd d25b a4bd
000000f0: fbef 52b8 72e8 403e 3d54 08be 0000 0000
00000100: 6a3b a238 7642 a8bb adb9 12be 9e26 04bd
00000110: ad23 e63d ed71 863d c81a df3d aaf8 0c3d
00000120: 167e 5dbc 53f4 2400 95c1 0d3d d303 45be
00000130: 2f09 db3d 9af8 4700 fe94 953e dab4 bfbc
00000140: dd47 2fba 2f04 fcbb 4119 1cb6 bacb 623b
00000150: 9282 9c3e d1aa 5b3e f92f e4bd c459 0ab4
00000160: 2144 20bc bba9 20be d080 6300 3fbf 1cbe
00000170: 608d 6701 205b 86bd 0000 0000 4a70 43b0
00000180: b03f 26be bfd2 80bd 7293 43bd eecb 2dbd
00000190: a9b1 e7bb ad60 6cbd 2805 8ab4 0000 0000
000001a0: fd37 fcb8 290f 06ba 3a0a 953d 01f4 c83e
000001b0: 0000 0000 c008 2601 f986 3038 f641 cabd
000001c0: 9cc0 a091 a46b 14bb 0224 f53d 84a9 298e
000001d0: c513 243e fd72 e9b6 5ca7 cbbc 47c4 c13d
000001e0: 62b1 afb9 36e7 563e afaa a9bc 3b9f 30bb
000001f0: e5e4 113e 0c83 7c80 c78a 5639 6f0b b53c

weight f4 [128, 128]
0.18086049 -1.443904e-38 0.010506614 0.03166209 0.017630618 -0.05176203 0.1018573 0.094914846
0.021556811 -2.2356002e-26 -4.175347e-38 0.09904769 -0.0081217 0.08073419 0.13360082 -0.017092826
0.15730603 -0.21342383 0.14074811 -0.00448988 -0.050761107 0.030587597 -0.21836509 -0.20666565
-0.027320715 0.06513053 5.834704e-38 -0.012484171 -0.13715075 0.21357866 0.054821905 0.0800601
0.2620377 -0.10952273 0.027573828 2.3496488e-32 -0.018245501 -0.12389403 -0.00415935 -0.17998733
-0.0069535784 -0.018824872 -6.362881e-38 0.051448856 0.0030870575 0.055250548 -0.14874752 0.022638809
-1.515069e-38 -0.1495899 0.045972195 0.15562417 0.070997834 -0.123111375 0.0752897 2.0168199e-35
0.012049709 -4.9075776e-38 -0.008709789 -0.17040832 0.07450068 0.08916997 2.49734e-40 0.009708797
-0.018869653 -0.04977907 -0.1480224 -0.047283504 0.04558306 0.13605644 -0.14741933 -0.07821317
-0.09140984 -0.11501295 -0.1063225 -0.08474565 -0.024989963 -0.089200884 -0.00010719294 0.021254094
0.030305943 0.035320222 -0.08275016 -0.17532791 3.709028e-12 0.105740376 0.08635245 -0.014371875
-0.07291649 3.1338104e-38 -0.03965386 -0.037255928 0.16143279 -0.0044425135 0.056812163 7.9077305e-05
-0.0012356403 0.13310856 0.17764376 -0.07890179 -0.22075093 -0.15552537 0.16951036 1.8295532e-38
-0.07745923 0.07272701 -0.07907033 -0.012239352 0.1694494 4.6541612e-38 -0.1852868 0.042387087
0.009363983 -0.10832802 0.11894605 1.851167e-38 0.21117452 0.007365784 -4.5363484e-38 -0.019910267
-0.0016251955 0.09440965 -0.08903725 0.09655486 0.12555383 -2.0594323e-38 0.01947642 -0.21578595
-0.025130695 -1.4347065e-38 0.016288117 -0.007964997 3.9837134e-10 -0.09157712 0.005655343 -0.024757667
-0.051500008 -7.0547886e-26 2.811042e-38 -0.008201524 -0.0016131516 0.0061438363 -0.03571173 -0.09837148
-0.073676445 -0.04117697 -0.093245976 -0.01585907 0.010225455 0.014999453 -0.011339411 0.014295528
0.013157334 0.003475598 6.5996814e-38 0.010030555 -0.000759774 0.05118441 -0.015498108 0.01804471
-0.02295477 -0.033486344 -0.05232304 1.290912e-38 0.013232518 0.037989717 2.4938729e-05 -0.03434017
0.006842691 -0.024019804 7.0349964e-38 -0.08061197 1.443245e-38 0.0027958383 -0.0052475277 0.035251666
2.7740323e-38 -0.009229783 0.006894729 0.0013138012 0.026232664 0.0053210026 0.012822042 -2.2565199e-38
0.042450987 -2.70019e-38 -0.027259056 0.0049771266 -0.061896656 -0.0025096766 -3.1388164e-38 -0.017627507
-0.16748331 -0.035782997 0.028297171 -0.012107426 -0.045491196 0.0036522006 0.013838994 0.009895939
-0.09179836 -0.037728515 0.015191883 -0.012585435 0.07379531 0.034290534 2.986352e-11 0.015115421
0.015069767 -0.003053224 -0.06582534 0.00807366 1.3264125e-35 -0.04558752 -0.0011855997 3.545575e-23
-0.0013247426 2.420113e-38 0.0070715975 -0.04956328 -0.074876964 0.015939638 -0.048140097 0.011312471
9.44828e-07 -0.012741757 0.01976996 -0.025199167 -0.05059952 0.027677195 -0.029497819 1.921225e-39
0.006041537 -0.019515311 0.05377918 -0.029355519 0.000107183965 6.833224e-38 -0.02029624 -0.006916995
-1.1067674e-25 -0.03219973 0.06238058 -1.442952e-39 0.030083857 -0.0005094317 6.8852424e-38 -0.03573027
0.03642605 0.0062245233 -0.053920526 0.045557994 0.033309393 -3.9016818e-38 0.041110296 -0.0867459
00000000: 7e33 393e 2b3a 9d80 ef23 2c3c 1cb0 013d
00000010: 166e 903c 6c04 54bd 8f9a d03d b762 c23d
00000020: e997 b03c 3367 dd94 d853 6381 84d9 ca3d
00000030: e110 05bc f857 a53d a7ce 083e 4106 8cbc
00000040: d514 213e c78b 5abe 4620 103e d81f 93bb
00000050: e1ea 4fbd d792 fa3c 199b 5fbe 29a0 53be
00000060: b1cf dfbc 2863 853d f4d5 9e01 698a 4cbc
00000070: 3f71 0cbe 5db4 5a3e ef8c 603d 8df6 a33d
00000080: ce29 863e 744d e0bd 82e2 e13c 6100 f40a
00000090: 9777 95bc 27bc fdbd 284b 88bb 994e 38be
000000a0: d8da e3bb 9e36 9abc cf36 ad81 09bc 523d
000000b0: 3b50 4a3b 664e 623d 4551 18be 0675 b93c
000000c0: f6f9 a480 182e 19be 574d 3c3d f15b 1f3e
000000d0: 5067 913d d121 fcbd 7c31 9a3d 0f77 d605
000000e0: 256c 453c d398 8581 81b3 0ebc 857f 2ebe
000000f0: d093 983d bf9e b63d 28b8 0200 a511 1f3c
00000100: 8894 9abc 23e5 4bbd 2f93 17be 59ac 41bd
00000110: 4db5 3a3d 6152 0b3e 18f5 16be 3a2e a0bd
00000120: 1535 bbbd e98b ebbd 9cbf d9bd 218f adbd
00000130: c0b7 ccbc f4ae b6bd c5cc e0b8 111d ae3c
00000140: 2b44 f83c f0ab 103d ea78 a9bd 2989 33be
00000150: f47f 822c 698e d83d 8ed9 b03d 0378 6bbc
00000160: 3e55 95bd f19e 2a01 166c 22bd ac99 18bd
00000170: a34e 253e 8192 91bb dfb3 683d 4ed6 a538
00000180: 35f5 a1ba 9c4d 083e 3fe8 353e 4397 a1bd
00000190: 880c 62be 0b42 1fbe 2094 2d3e 8038 c700
000001a0: f2a2 9ebd e6f1 943d a0ef a1bd 9087 48bc
000001b0: 2584 2d3e 8a65 7d01 d3bb 3dbe 159e 2d3d
000001c0: 646b 193c 15db ddbd fd99 f33d 0193 c900
000001d0: 223e 583e ad5c f13b 78fb 7681 db1a a3bc
000001e0: 8304 d5ba d959 c13d 2959 b6bd 8ebe c53d
000001f0: 2f91 003e 9840 e080 038d 9f3c fef6 5cbe
00000200: e3de cdbc c839 9c80 a86e 853c 9e7f 02bc
00000210: c801 db2f c98c bbbd 7550 b93b 97d0 cabc
00000220: acf1 52bd 09ab ae95 350c 1901 af5f 06bc
00000230: 6370 d3ba 3c52 c93b 7746 12bd fd76 c9bd
00000240: ade3 96bd 2fa9 28bd bff7 bebd e1ea 81bc
00000250: ab88 273c 44c0 753c f0c8 39bc ca37 6a3c
00000260: dc91 573c dcc6 633b 11a9 b301 3257 243c
00000270: 922b 47ba bea6 513d c7eb 7dbc 80d2 933c
00000280: a40b bcbc fa28 09bd af50 56bd 6091 8c00
00000290: 34cd 583c 1b9b 1b3d 8333 d137 47a8 0cbd
000002a0: a738 e03b 2ec5 c4bc c582 bf01 e317 a5bd
000002b0: cc27 9d00 623a 373b 74f3 abbb 0d64 103d
000002c0: 5e08 1701 8438 17bc 2eed e13b da33 ac3a
000002d0: e2e5 d63c ce5b ae3b 8b13 523c 98b6 f580
000002e0: 16e1 2d3d 2803 1381 624e dfbc 2a17 a33b
000002f0: 5987 7dbd 6379 24bb b7e4 2a81 9067 90bc
00000300: bf80 2bbe 3191 12bd 78cf e73c 3a5e 46bc
00000310: fa54 3abd c259 6f3b f3bc 623c 9422 223c
00000320: c700 bcbd 3789 1abd 60e7 783c 2433 4ebc
00000330: ff21 973d 3b74 0c3d 5657 032e aca6 773c
00000340: 2fe7 763c 9918 48bb 70cf 86bd 6247 043c
00000350: 620c 8d05 fbb9 3abd 2066 9bba 1874 2b1a
00000360: fca2 adba 74c3 0301 dcb8 e73b de02 4bbd
00000370: 1859 99bd d893 823c 8d2e 45bd f157 393c
00000380: 16a0 7d35 cdc2 50bc 9cf4 a13c 7c6e cebc
00000390: 7141 4fbd 49bb e23c 69a5 f1bc 98eb 1400
000003a0: 16f8 c53b 93de 9fbc 8f47 5c3d fc7a f0bc
000003b0: f4c7 e038 9f04 ba01 4d44 a6bc f6a7 e2bb
000003c0: dc02 0996 dde3 03bd c782 7f3d 5db6 0f80
000003d0: 6c72 f63c 628b 05ba 236f bb01 e759 12bd
000003e0: 7b33 153d 16f7 cb3b c5db 5cbd 059b 3a3d
000003f0: 6e6f 083d 826d 5481 4563 283d d6a7 b1bd

att_src f4 [1, 1, 128]
0.14479169 0.08706042 -0.1016866 -0.060905542 0.0812008 0.2260926 -0.04524591 -0.0015070757
0.04763426 0.11226308 0.23114003 -0.06219297 0.08647425 0.0004830961 0.17611872 0.035116747
-0.10065392 0.200731 -0.13555683 -0.14953652 -0.16667926 -0.113223806 0.19660269 -0.08990227
-0.09387997 0.23527195 0.081299424 0.05009352 0.025499912 -0.013614627 -0.000418912 -0.036363162
-0.06278171 -0.0038046383 -0.00048002356 -0.15231153 -0.0049027363 -0.00854026 -0.08942095 0.007268921
0.12656173 0.008616436 -0.17970732 0.061053168 0.16877377 -0.0065621072 -0.1741998 0.083356336
0.038399164 -0.06432742 -0.19336216 -0.02164704 0.05267466 -0.005411902 0.23842232 -0.03701266
-0.054641403 -0.042423073 -0.049406424 0.07698785 -0.05962995 -0.18856607 0.019805532 0.069453426
-0.015809523 -0.01040082 -0.1248141 0.19609374 -0.009398077 -0.009149126 0.19466652 -0.014853477
0.074950494 -0.12218475 0.16510367 -0.022447005 -0.022595385 -0.06624471 0.11480202 -0.0007488638
-0.07740019 -0.009031033 -0.003401551 0.28382197 0.025178175 0.011468778 -0.059076898 0.247021
-0.09517672 -0.007443522 0.1405806 -0.007670092 -0.007871688 0.080805294 -0.10024962 -0.003984076
0.22001253 0.13580489 -0.21020412 -0.021210294 -0.0029976538 -0.21048057 0.036132947 -0.17583677
-0.115545146 -0.21672554 0.12884581 -0.009074927 -0.0006719531 0.068904094 -0.048126414 0.117543384
-0.21605448 -0.00947288 -0.1289669 0.050676256 0.015601483 -0.113456 -0.2368765 -0.021728124
-0.0031336036 -0.0063680424 -0.17103833 -0.10564652 -0.015936736 -0.19800122 -0.17587492 -0.100771785
00000000: 4644 143e bc4c b23d 1041 d0bd 1778 79bd
00000010: 9b4c a63d d284 673e c653 39bd 1289 c5ba
00000020: 241c 433d 30ea e53d f9af 6c3e 0ebe 7ebd
00000030: 6919 b13d 1048 fd39 7758 343e 94d6 0f3d
00000040: a423 cebd 6d8c 4d3e 69cf 0abe 1a20 19be
00000050: f8ad 2abe e2e1 e7bd 3752 493e ae1e b8bd
00000060: 2444 c0bd 21eb 703e 5080 a63d dd2e 4d3d
00000070: 31e5 d03c e20f 5fbc 6ba1 dbb9 8af1 14bd
00000080: b293 80bd 3d57 79bb acab fbb9 8ef7 1bbe
00000090: 22a7 a0bb 72ec 0bbc 5522 b7bd 2130 ee3b
000000a0: 6699 013e f42b 0d3c 3205 38be e312 7a3d
000000b0: 08d3 2c3e f206 d7bb 6f61 32be bab6 aa3d
000000c0: 7148 1d3d 18be 83bd bb00 46be 2255 b1bc
000000d0: 62c1 573d 5356 b1bb fb24 743e 969a 17bd
000000e0: aacf 5fbd d1c3 2dbd 645e 4abd ceab 9d3d
000000f0: 893e 74bd 7717 41be 363f a23c 993d 8e3d
00000100: f982 81bc 3368 2abc 899e ffbd cccc 483e
00000110: 64fa 19bc 37e6 15bc a956 473e ff5b 73bc
00000120: a57f 993d 003c fabd f010 293e c8e2 b7bc
00000130: f519 b9bc 4eab 87bd 521d eb3d 664f 44ba
00000140: fe83 9ebd e6f6 13bc 8eec 5ebb 1d51 913e
00000150: 7642 ce3c 8be7 3b3c 9efa 71bd 13f3 7c3e
00000160: 03ec c2bd cae8 f3bb 5cf4 0f3e 6555 fbbb
00000170: 41f8 00bc 3f7d a53d ac4f cdbd da8c 82bb
00000180: f74a 613e 7010 0b3e c03f 57be 36c1 adbc
00000190: 4974 44bb 3888 57be 2400 143d 8e0e 34be
000001a0: efa2 ecbd 4ded 5dbe 28f0 033e 01af 14bc
000001b0: 0226 30ba 971d 8d3d 3420 45bd 96ba f03d
000001c0: 633d 5dbe 2334 1bbc e60f 04be e891 4f3d
000001d0: 5d9d 7f3c 9f5b e8bd c18f 72be 2eff b1bc
000001e0: 255d 4dbb 03ab d0bb ac24 2fbe 345d d8bd
000001f0: c28d 82bc d5c0 4abe 8e18 34be 7061 cebd

att_dst f4 [1, 1, 128]
0.023689432 -0.013729825 0.1011611 -0.0081896745 -0.078298844 -0.0146600455 -0.05599034 0.16568443
-0.18333997 0.15214668 -0.16721827 0.11397782 -0.15840858 0.06672055 -0.10728216 0.10269051
0.10520731 -0.063739814 0.15805131 0.22956656 0.07193529 -0.06542082 -0.07605125 0.084892675
-0.10321331 -0.14243476 0.062987015 0.20700043 0.11699218 -0.106337935 0.0059041483 0.15800335
-0.04161429 0.037198275 0.041444518 -0.16323651 0.15186182 0.1174385 0.13925867 0.06590877
0.04217014 -0.059411243 0.13955519 -0.038840286 0.09174261 0.18150777 0.1510991 -0.01958576
-0.12188518 0.0220237 0.20332123 -0.08624839 0.17558675 0.16199024 -0.052972913 0.17024626
-0.18957481 0.031383567 0.18108715 -0.013740128 -0.07511257 0.098270416 0.031142281 -0.010531995
0.045142744 0.20874032 0.0023195043 -0.072000146 0.21028686 0.12978645 -0.14757344 0.17232643
0.03519183 0.16335128 -0.006171446 0.20903386 0.085023426 -0.09145207 0.014043874 0.05071154
0.21534741 0.097106844 0.044421103 -0.07312895 0.057510145 -0.0073412172 0.23966788 -0.11914521
0.1508793 0.08202336 -0.024557136 0.17008342 0.030405562 -0.10674603 0.31057644 -0.06414993
-0.120560996 -0.08199316 -0.02771721 -0.012881174 0.022459159 0.13330737 0.2276227 0.17507616
-0.035855565 -0.11260968 -0.019196153 0.10856312 0.041878726 0.11488259 0.24944265 0.006899272
0.044865936 0.010910043 0.043686092 -0.033354435 -0.07938205 0.16734742 0.17397822 0.1551366
0.09616247 0.18988276 0.13536997 0.2752642 0.15599202 -0.051409636 0.12797455 0.056014657
00000000: 5710 c23c 0ff3 60bc 8d2d cf3d fc2d 06bc
00000010: 255b a0bd b030 70bc 2056 65bd 2ea9 293e
00000020: 79bd 3bbe 57cc 1b3e 443b 2bbe 346d e93d
00000030: dc35 22be c9a4 883d c0b6 dbbd 674f d23d
00000040: ee76 d73d 058a 82bd 34d8 213e 7f13 6b3e
00000050: cf52 933d 5afb 85bd c2c0 9bbd 36dc ad3d
00000060: 8061 d3bd 6bda 11be 56ff 803d ecf7 533e
00000070: 9999 ef3d b4c7 d9bd 9677 c13b a1cb 213e
00000080: bf73 2abd 385d 183d bac1 293d 7927 27be
00000090: aa81 1b3e 9983 f03d d399 0e3e 2dfb 863d
000000a0: 99ba 2c3d 3459 73bd 8ee7 0e3e fe16 1fbd
000000b0: 8de3 bb3d 2cdd 393e b9b9 1a3e 5172 a0bc
000000c0: f09e f9bd 0c6b b43c 7133 503e ffa2 b0bd
000000d0: 03cd 333e c5e0 253e 20fa 58bd 0955 2e3e
000000e0: e61f 42be 0e8c 003d e96e 393e 461e 61bc
000000f0: 9ed4 99bd 0042 c93d 191e ff3c 648e 2cbc
00000100: 99e7 383d 06c0 553e d302 183b d074 93bd
00000110: 7055 573e bde6 043e 7e1d 17be 5776 303e
00000120: 4f25 103d 8f45 273e d739 cabb f90c 563e
00000130: c320 ae3d 394b bbbd 4718 663c e7b6 4f3d
00000140: 0884 5c3e f4df c63d e7f2 353d a2c4 95bd
00000150: c28f 6b3d 988e f0bb 7f6b 753e 6702 f4bd
00000160: 1a80 1a3e ddfb a73d 0c2c c9bc 592a 2e3e
00000170: 1615 f93c aa9d dabd e003 9f3e 0a61 83bd
00000180: afe8 f6bd 08ec a7bd 340f e3bc 8f0b 53bc
00000190: 45fc b73c ba81 083e ed15 693e 2a47 333e
000001a0: 49dd 12bd e79f e6bd 4041 9dbc 5756 de3d
000001b0: 0789 2b3d 9047 eb3d e56d 7f3e 4a13 e23b
000001c0: 58c5 373d 09c0 323c 30f0 323d a99e 08bd
000001d0: 0e93 a2bd 1f5d 2b3e 5927 323e 21dc 1e3e
000001e0: d4f0 c43d a070 423e 6d9e 0a3e 6eef 8c3e
000001f0: 5fbc 1f3e e992 52bd c30b 033e a06f 653d

bias f4 [128]
0.2508168 0.022842603 -0.04956016 0.078952126 -0.06259249 0.041729756 0.012045894 -2.1126755e-38
-0.18183932 -0.01570735 -0.105105184 0.03441227 0.038355496 -0.056088872 -0.088227384 -0.03077149
0.04401556 0.2492982 5.514285e-12 0.027942589 0.25751352 -0.028236806 0.15398885 0.31754112
0.16778852 -0.096368626 -0.06390699 -0.0073244018 -0.018649744 0.15001951 -0.011098968 0.12859038
0.077241205 -0.00011816309 -3.4949264e-06 0.14459759 -1.611663e-06 -0.029123817 0.022001302 0.17168415
-0.063564196 0.031252164 -0.039464146 0.12913457 0.010181867 -4.108381e-07 -0.008143874 -0.07541369
-0.020087807 -0.048158754 -5.433381e-05 -0.052612863 0.06654229 -4.5533955e-07 -0.058069754 -0.045833953
0.088614576 0.046861295 -2.1530962e-38 0.06438426 0.23152721 0.053649656 -0.00236611 -0.023143789
-0.015381479 -3.1616418e-10 0.15141349 -0.1370473 -1.4992443e-14 -0.00037282714 -0.057540655 -0.0023378518
0.010732216 0.06812136 0.054849382 -2.1371599e-23 0.007007592 0.11954361 -0.005754352 -7.8775216e-08
-0.060222708 -0.0042537567 -7.0032256e-05 -0.17623235 -0.004055647 0.0061642295 0.015922448 -0.011209019
0.014425593 0.03747864 0.015440524 -5.962415e-22 0.0038790945 0.22518225 -2.7001074e-38 0.18072264
-0.021421544 -0.11564727 0.39001352 0.09597462 -0.0012665207 0.041734226 -4.6739316e-13 0.10901203
0.12664653 0.028224202 0.029259227 -0.0028280476 -3.34474e-10 -0.028735468 0.0 -0.11525646
0.0014144466 -0.12402723 0.054207176 0.35001186 -0.022605622 0.038304918 -0.020553023 1.8646778e-19
-4.062037e-10 -7.2248027e-22 -0.097263746 -8.385348e-39 -0.017667418 -0.03209305 -0.043477222 -0.053988673
00000000: 0f6b 803e 6920 bb3c 98ff 4abd a7b1 a13d
00000010: 7e30 80bd d2ec 2a3d 245c 453c cc0c e680
00000020: 1634 3abe b3ac 80bc 6341 d7bd e1f3 0c3d
00000030: a71a 1d3d 72bd 65bd 8fb0 b4bd 7e14 fcbc
00000040: a949 343d 0748 7f3e 4404 c22c dbe7 e43c
00000050: d0d8 833e e050 e7bc 41af 1d3e c094 a23e
00000060: c1d0 2b3e ea5c c5bd abe1 82bd 8901 f0bb
00000070: 59c7 98bc b79e 193e 72d8 35bc 32ad 033e
00000080: a330 9e3d 53ce f7b8 618a 6ab6 6411 143e
00000090: 5250 d8b5 1295 eebc 133c b43c f8cd 2f3e
000000a0: f22d 82bd 4502 003d 28a5 21bd da3b 043e
000000b0: d8d1 263c 2991 dcb4 e26d 05bc 7e72 9abd
000000c0: 2f8f a4bc 1d42 45bd 7ce4 63b8 9680 57bd
000000d0: 5347 883d 6475 f4b4 8dda 6dbd 62bc 3bbd
000000e0: 8f7b b53d a1f1 3f3d 9073 ea80 e5db 833d
000000f0: 7815 6d3e bebf 5b3d bd10 1bbb 0b98 bdbc
00000100: 9902 7cbc 27d0 adaf 230c 1b3e 2156 0cbe
00000110: 380a 87a8 0378 c3b9 c0af 6bbd a536 19bb
00000120: 2dd6 2f3c 3683 8b3d bfa9 603d 84b1 ce99
00000130: f19f e53b 48d3 f43d 018f bcbb 222b a9b3
00000140: 16ac 76bd 1963 8bbb 48de 92b8 4176 34be
00000150: 3ce5 84bb 4efd c93b cb6f 823c 09a6 37bc
00000160: 5359 6c3c 3483 193d 40fa 7c3c f433 349c
00000170: 6838 7e3b 2d96 663e 0102 1381 5b0f 393e
00000180: 3c7c afbc 7ad8 ecbd daaf c73e 578e c43d
00000190: 6201 a6ba 82f1 2a3d 3a8f 03ab b341 df3d
000001a0: a1af 013e 7136 e73c 0cb1 ef3c c456 39bb
000001b0: 08e1 b7af a566 ebbc 0000 0000 940b ecbd
000001c0: f464 b93a fd01 febd 5808 5e3d c134 b33e
000001d0: 6d2f b9bc 9ee5 1c3d d05e a8bc 6e24 5c20
000001e0: 1750 dfaf 345b 5a9c 3732 c7bd f04e 5b80
000001f0: 43bb 90bc 0174 03bd 2c15 32bd 3a23 5dbd

weight f4 [128, 128]
0.19141762 1.0085408e-38 0.089677915 -0.084094875 0.0012532823 -0.01274281 -0.012033435 0.03692123
-0.08131156 -0.03912525 -0.20634075 -0.000482728 -0.012541062 0.016198052 0.17428662 -5.650703e-38
-0.19303776 -0.019124418 4.5761027e-38 -1.703126e-39 -0.0045171394 0.0045668655 -0.1805264 8.070271e-24
0.0028332938 0.06543751 0.11269018 -0.23760727 -0.00015491006 -0.09318302 -0.035679985 0.2089208
-0.06060234 0.012390236 -0.0040009324 0.13599946 -0.013840452 0.0139306 -0.070779495 0.032276835
-0.30764192 -0.0021467912 0.034597825 0.032926083 -0.14289443 0.066039816 -0.06369138 -0.18033716
-2.4269474e-08 -0.12881085 8.036155e-09 0.02967583 0.0016230262 0.1599833 4.0549636e-05 0.12422135
-0.17001545 0.10685346 -0.21682021 0.04239593 3.4979375e-06 0.14081228 -0.12718861 5.6195824e-38
-0.034737844 -0.039383147 -0.12252674 -0.082251616 -0.25456294 -0.21643683 0.06247145 0.023284288
0.091086455 3.2850895e-38 0.011134873 -0.17525214 -0.06676357 -5.085282e-13 0.107209265 0.05547038
-0.105967425 -6.743064e-05 -0.007298553 0.0039472734 -0.15551658 0.059508283 -0.0893201 -0.0021017636
0.0020927705 0.041580137 7.979699e-17 -0.11546312 9.1076406e-33 -0.1543369 3.6906477e-38 0.00019549813
-0.1512576 -0.098259866 -0.14926675 -0.06147435 -0.028212693 -0.14828707 7.5822827e-06 -2.570324e-38
0.004355675 -0.00058629905 0.25387833 0.18930723 2.1813917e-38 4.375843e-38 -0.0007022115 -0.13408336
-1.6563124e-10 -0.002359234 -0.10494186 -0.00556373 -0.29260293 0.019842142 -0.033331316 0.025131892
-0.021978287 0.08358557 -0.12516958 -0.0010334917 -0.074300885 -1.4108661e-15 0.00036737704 0.067674294
-0.06705614 -1.2766897e-38 0.10744822 -0.09624107 0.007107406 0.030106029 0.016442195 -0.019147087
0.028058076 -0.14045936 0.056257743 6.441119e-38 -0.06479488 0.32544172 0.009303197 2.655877e-39
-0.09921363 -0.027687257 -4.656551e-39 -1.9350536e-38 -0.1354207 0.067710355 0.072954275 -8.8108e-40
-0.0039399327 -0.15002073 -0.11022353 0.112027146 1.0910742e-05 -0.030935396 -0.061207343 0.014388515
-0.061245132 -0.0025398396 0.0015316479 0.02680647 0.0008414696 -0.0020900357 -0.1553947 0.10199931
0.106222585 -0.015222032 0.0015386266 -0.11633536 0.06854794 -0.038168848 0.017389769 -0.16771387
-6.1186597e-07 -0.02267236 -4.1532646e-13 -0.056807313 -0.017624503 0.010742107 0.0027645868 -0.117187746
0.10377466 -0.12768818 -0.033921503 -0.1686486 0.00015559689 -0.09773163 0.08320679 -3.5112798e-38
0.01221006 0.06899545 -0.015409617 0.23229274 0.0053960453 0.14618418 -0.15660131 0.015085012
-0.005124263 1.0616354e-09 -0.025998693 0.09087011 0.035954565 -1.2040415e-06 -0.033836775 -0.020233775
-0.06650102 0.00023150508 0.0009919375 0.08080949 0.09100908 -0.0038609547 -0.1316503 0.011962221
-0.02573833 0.033418644 -1.94346e-39 -0.058115903 2.2856113e-38 -0.08621503 7.08594e-39 9.734236e-05
0.11556421 -0.011625901 -0.031187138 -0.21890311 0.07171844 0.11220334 0.004656543 -4.1483042e-38
-0.0035555775 -0.009584165 0.08739102 -0.12520759 -3.971071e-39 -3.9020518e-38 0.00019406089 0.0077300183
3.5779286e-11 -0.006646727 -0.054365445 -0.00052807556 -0.12784843 0.0009145158 0.031248812 -0.016828328
0.0029403612 -0.08387603 -0.11468367 0.010605684 0.15513323 -3.4991496e-38 -0.0064335503 -0.12012133
00000000: fb02 443e 04d2 6d00 0ea9 b73d ef39 acbd
00000010: 2d45 a43a 38c7 50bc e227 45bc b73a 173d
00000020: ad86 a6bd cc41 20bd fd4a 53be a816 fdb9
00000030: 0779 4dbc c7b1 843c 3178 323e a7d3 9981
00000040: b1ab 45be d0aa 9cbc 9025 7901 9f8b 1280
00000050: 8304 94bb a5a5 953b eadb 38be 0c1a 1c19
00000060: c8ae 393b 1a04 863d 1cca e63d 524f 73be
00000070: 5a6f 22b9 bdd6 bebd 2d25 12bd 56ef 553e
00000080: 293a 78bd 6b00 4b3c 411a 83bb 7143 0b3e
00000090: 10c3 62bc 2c3d 643c d7f4 90bd b734 043d
000000a0: 3e83 9dbe 2eb1 0cbb 73b6 0d3d 80dd 063d
000000b0: eb52 12be e23f 873d a070 82bd 4eaa 38be
000000c0: 2379 d0b2 fee6 03be 620f 0a32 ba1a f33c
000000d0: b9bb d43a aad2 233e d713 2a38 c367 fe3d
000000e0: 8818 2ebe fdd5 da3d 1e06 5ebe 5ba7 2d3d
000000f0: 1cbe 6a36 1831 103e bb3d 02be c6fa 9801
00000100: 4549 0ebd 3950 21bd 4def fabd 8973 a8bd
00000110: 1356 82be 9ea1 5dbe 10e2 7f3d b1be be3c
00000120: 898b ba3d 77db 3201 0b6f 363c 4c75 33be
00000130: 57bb 88bd 5223 0fab 8890 db3d e934 633d
00000140: 7305 d9bd 8d69 8db8 b328 efbb 2158 813b
00000150: bd3f 1fbe f5be 733d 75ed b6bd bebd 09bb
00000160: dd26 093b ef4f 2a3d d4ff b724 ee77 ecbd
00000170: 8628 3d0a 7e0a 1ebe 1ff0 4801 a1fe 4c39
00000180: 46e3 1abe 783c c9bd 62d9 18be 87cc 7bbd
00000190: 4e1e e7bc 91d8 17be 506b fe36 16f1 0b81
000001a0: 0dba 8e3b ddb1 19ba 57fc 813e c1d9 413e
000001b0: 5388 ed00 5a3e 6e01 9e14 38ba 264d 09be
000001c0: 0d1d 36af 619d 1abb c2eb d6bd f34f b6bb
000001d0: 0dd0 95be fd8b a23c 6b86 08bd 66e1 cd3c
000001e0: cf0b b4bc e92e ab3d 742c 00be 3a76 87ba
000001f0: 102b 98bd c653 cba6 839c c039 d298 8a3d
00000200: bb54 89bd ea04 8b80 d00d dc3d 0a1a c5bd
00000210: 3ee5 e83b eba0 f63c c8b1 863c 5ada 9cbc
00000220: 0dda e53c 94d4 0fbe 856e 663d 0c58 af01
00000230: 2eb3 84bd 4ca0 a63e 706c 183c 81eb 1c00
00000240: 8430 cbbd 63d0 e2bc 92b4 3280 6cb5 d280
00000250: b9ab 0abe baab 8a3d 0d69 953d 1898 0980
00000260: 8d1a 81bb 099f 19be e0bc e1bd 7d6e e53d
00000270: 480d 3737 3a6c fdbc 8db4 7abd cebd 6b3c
00000280: 2ddc 7abd 7073 26bb 93c1 c83a 3e99 db3c
00000290: 1296 5c3a fbf8 08bb ca1f 1fbe 04e5 d03d
000002a0: 3a8b d93d d465 79bc beab c93a 3c41 eebd
000002b0: dd62 8c3d f056 1cbd fd74 8e3c 2fbd 2bbe
000002c0: 1c3f 24b5 63bb b9bc dace e9aa c9ae 68bd
000002d0: 4361 90bc aaff 2f3c 122e 353b 2100 f0bd
000002e0: cf87 d43d b1c0 02be 46f1 0abd 38b2 2cbe
000002f0: b927 2339 8527 c8bd 5268 aa3d 192c 3f81
00000300: b40c 483c 7d4d 8d3d 9e78 7cbc 26de 6d3e
00000310: 4fd1 b03b 4eb1 153e 185c 20be 2027 773c
00000320: 6fe9 a7bb fae8 9130 36fb d4bc 1c1a ba3d
00000330: 1845 133d 8d9a a1b5 6e98 0abd 4dc1 a5bc
00000340: b031 88bd 2cc0 7239 e603 823a 727f a53d
00000350: f862 ba3d 1208 7dbb 56cf 06be 31fd 433c
00000360: 31d9 d2bc fde1 083d 9329 1580 f10a 6ebd
00000370: 8be1 f800 8191 b0bd b828 4d00 4824 cc38
00000380: eeac ec3d 907a 3ebc 2b7c ffbc 2328 60be
00000390: 1ee1 923d ddca e53d ea95 983b ecda 6181
000003a0: b104 69bb e706 1dbc 10fa b23d 6b36 00be
000003b0: bb3d 2b80 aa72 5481 d37c 4b39 184c fd3b
000003c0: e55b 1d2e cacc d9bb 4dae 5ebd 8d6e 0aba
000003d0: b3ea 02be 1ebc 6f3a 82fd ff3c 90db 89bc
000003e0: 13b3 403b 32c7 abbd 46df eabd 76c3 2d3c
000003f0: 3fdb 1e3e 0783 3e81 88d0 d2bb 2c02 f6bd
